tests/resources/actor.pth (torch_old, 489813 bytes, 5 tensors)

fc1.weight f4 [400, 3]
000000 4b 63 ce bd e4 59 ce be 43 a2 88 bd e5 b6 00 3e
       -0.100775324 -0.40302956 -0.06671574 0.12569769
000010 1e f2 98 be be b1 01 bd bb 07 1b be 61 23 be 3e
       -0.2987222 -0.03166365 -0.15139668 0.37136367
000020 d0 09 27 bd 8f 8d 95 bd 76 ce f7 bd 5f c6 00 bd
       -0.040780842 -0.07302391 -0.12099926 -0.03143918
000030 06 ea 8d 3e 88 2c 64 bd 1c cb 03 3d e6 2a b1 3c
       0.27717608 -0.05570653 0.032176122 0.0216269
000040 fb 2e 2f bd 00 40 fe b8 c7 86 90 3e 08 32 d3 3b
       -0.042769413 -0.00012123585 0.28227827 0.006445173
000050 21 b3 e8 3c fc b7 c0 bd 5c 2a 2b be 91 95 e2 3c
       0.028405728 -0.09410092 -0.16715378 0.02765921
000060 b7 6e 14 bd 1b 4b 38 be 43 d6 02 3c 9e 3f ed bd
       -0.0362384 -0.179974 0.007985654 -0.115844
000070 f6 2d 87 bd 05 6a 1a 3e 75 ca 26 bd c0 9d d9 3a
       -0.06600563 0.15079506 -0.04072042 0.0016602799
000080 80 18 05 3a 7c 97 84 3d 39 a1 93 3d d0 af e0 3c
       0.0005077198 0.06474206 0.07208485 0.027427584
000090 34 0d 09 3d 78 03 6c 3e 5d 22 03 3e b4 f3 10 bc
       0.033459857 0.23048198 0.12806077 -0.008847166
0000a0 12 18 bf 3c b0 bc d5 bb a2 bb 59 be 20 62 12 be
       0.023326907 -0.0065227374 -0.21262982 -0.14295244
0000b0 a3 f8 28 3e c0 b3 44 bb bf f5 0e be ec 38 3c 3d
       0.16501097 -0.0030014366 -0.13960932 0.045952722
0000c0 38 cb 0d be d1 ad 05 be 38 57 80 bd a8 c0 db bb
       -0.13847053 -0.13054587 -0.06266636 -0.006706316
0000d0 0c f0 5f 3c c0 a7 e9 3a 1b 5d d1 bd 8d c8 ab bd
       0.0136680715 0.0017826483 -0.102228366 -0.083878614
0000e0 f1 ea 3b 3c 9f 53 21 be 95 e0 f0 bd 2a 01 82 bd
       0.011469589 -0.15754555 -0.117615856 -0.06347878
0000f0 50 45 a6 bb 57 b3 06 3d 95 42 44 3d 9a 4e 29 bd
       -0.0050741807 0.032885876 0.04791506 -0.041334726
000100 a2 aa a7 3c 3c f5 7d 3c 70 ad be bd ef 24 1f be
       0.020467106 0.015500363 -0.09310424 -0.15541433
000110 be d3 00 3d 80 23 22 3b 66 83 cf 3c 38 f0 28 bc
       0.031451933 0.0024740398 0.02533121 -0.010311179
000120 cb 58 1b bd 22 5a 04 be 38 41 03 bd b1 8e 72 be
       -0.037926476 -0.12925008 -0.03204462 -0.23687245
000130 bc b8 32 be 81 ff 0c be e2 62 03 be d4 eb 9e 3e
       -0.17453283 -0.13769342 -0.1283069 0.31039298
000140 3a 39 49 3d b0 3d 2a bb 00 f8 72 bb 80 ce 3b bb
       0.04912684 -0.002597671 -0.003707409 -0.002865702
000150 d2 18 db 3c 4a 5e c6 bc 81 f4 33 3d e2 58 dc 3c
       0.026745234 -0.024214882 0.04393435 0.026897851
000160 c9 41 0e 3d ed 8b 29 bd 18 43 c8 3b 5b c3 15 3d
       0.034730706 -0.04139321 0.006111514 0.03656326
000170 a0 7c 20 3c cd 33 83 bd 6b ae 99 bd 88 29 b7 3d
       0.009795338 -0.064063646 -0.07503971 0.08943468
000180 65 60 2f 3d d0 b2 0a bb 94 17 8d bc c2 e9 68 3e
       0.04281654 -0.002116371 -0.017223157 0.22745422
000190 73 fe 2d be a5 4a 14 3d 24 45 d0 bc 61 48 bf bc
       -0.16991596 0.036204 -0.025423594 -0.023349943
0001a0 43 5c 39 3d 0e 03 01 3d 99 7b 68 3e 7b df 83 3d
       0.045254003 0.031497054 0.22703399 0.0643911
0001b0 0a 04 88 3e 53 59 64 bd 8f d7 e1 3c 19 a4 27 bd
       0.26565582 -0.05574925 0.027568607 -0.04092798
0001c0 43 ba 34 be a1 e2 f2 bb fc 83 84 bc 23 02 a8 bc
       -0.17649178 -0.00741227 -0.016176216 -0.020508831
0001d0 f6 a4 81 bc e5 da 9c bd 62 98 22 be d8 48 2e bc
       -0.01582573 -0.07658938 -0.15878442 -0.0106374845
0001e0 1d 35 16 3d 58 30 37 3e 52 da 33 3d 17 b3 40 bd
       0.036671747 0.17889535 0.04390938 -0.047045793
0001f0 29 73 45 3d 50 19 ce 3b cc 64 d0 3c a0 4c 55 3e
       0.04820553 0.0062896386 0.025438689 0.20830011
000200 03 2f 1f 3d e7 04 78 3e 06 00 95 bd 1a af d5 3c
       0.038863193 0.2422062 -0.07275395 0.026084471
000210 bf f5 4f 3c 4e c8 65 3e 79 5d 41 3d e6 d0 d4 3c
       0.012692868 0.22439691 0.047208283 0.025978517
000220 6d 21 1e 3d d0 b8 b1 bc cb 83 78 bd f8 61 c0 bd
       0.038606096 -0.02169457 -0.060672563 -0.09393686
000230 3e a6 77 39 db 32 69 bd 60 3c bf 3e dc 8b 14 bd
       0.00023617686 -0.056933265 0.3735075 -0.036266193
000240 93 dc e0 3c f1 b5 c5 3d e7 2a f2 3d c8 00 0e 3e
       0.027448928 0.09653843 0.11824589 0.13867486
000250 11 42 a0 be 4b ed 94 3c 9f 4d c3 3d c5 8a ce 3e
       -0.31300405 0.018179556 0.095362894 0.40340248
000260 dd 0f 38 bd 81 4f a7 bd cd c0 df be 00 32 99 bd
       -0.044937003 -0.08169461 -0.43701783 -0.0748024
000270 fd 0f 0d bd e4 42 0b bd 5d 0a fd bc 46 08 cd 3d
       -0.034439076 -0.03399934 -0.03088873 0.10011344
000280 a6 94 b3 bd 3c 89 08 be 23 26 96 bd 5e aa ba 3e
       -0.08768587 -0.13333601 -0.07331493 0.36458105
000290 b0 60 e8 bc 6e b2 a6 3c b4 0e 0a 3c 88 c3 69 bc
       -0.028366417 0.020348754 0.008426357 -0.01426781
0002a0 16 b3 a1 3c 85 ba 82 3e a6 b6 6b 3d 98 74 37 3e
       0.019738715 0.25532928 0.057547234 0.1791557
0002b0 2c 7a 61 be 31 5a 67 3c 9c ae 7f bd 98 f7 3e 3c
       -0.22019261 0.014120624 -0.06242238 0.011655711
0002c0 bd c5 13 be bc 0a b2 3c f1 be 48 3e 24 b0 27 3d
       -0.144309 0.021733634 0.19604088 0.040939465
0002d0 da e8 15 bd d0 20 ab bb 29 78 06 3d e1 31 40 3d
       -0.036599018 -0.0052224174 0.032829437 0.04692257
0002e0 96 cb 0a bd 81 c9 3c 3d de c4 ad bc 77 da 94 3e
       -0.03388556 0.046090607 -0.021212038 0.29072925
0002f0 72 fa 61 3d 4b b2 3e bd 23 7c 38 bd 18 40 1e 3c
       0.055170484 -0.046556752 -0.04504026 0.009658836
000300 d5 d5 10 3d 89 58 32 3d e4 77 52 3c 1f 36 a4 bd
       0.035360176 0.043541465 0.012845967 -0.08018135
000310 bf f4 b5 3e 30 96 d1 bd d7 63 42 3d 42 32 cf 3c
       0.3553829 -0.10233724 0.047458496 0.02529252
000320 70 2a af bb 98 ed d7 bd e5 27 d5 bd 2b d8 d3 3d
       -0.005345635 -0.10543364 -0.10408 0.10343965
000330 7f 67 23 3d e4 56 81 bc 38 b6 56 bc 61 fa 10 3d
       0.039893623 -0.015788503 -0.013104968 0.03539503
000340 c8 a1 25 bc 72 79 8d 3c 22 1a c5 3c 07 30 e6 bc
       -0.010109372 0.017269824 0.024060313 -0.028099073
000350 88 be 10 3c e1 65 56 3d 25 ff ee bd 34 00 37 be
       0.008834489 0.052343253 -0.11669759 -0.17871171
000360 5a 09 85 3d 08 0e 8b be d1 29 4d 3c bd a2 74 bd
       0.06495924 -0.27159142 0.012522177 -0.05972551
000370 aa da 3f be 5c 0b 9c bb a9 22 7d 3d c7 77 c3 3e
       -0.18735757 -0.0047620963 0.061800633 0.3817732
000380 80 3f 2a 3b a4 6f 5f 3c a7 7e cb bc 68 0b 5c bc
       0.002597779 0.013637457 -0.024840666 -0.013430454
000390 4a bb b7 3c 79 da 44 3d 8e 03 ed 3c 50 c9 59 bb
       0.022428174 0.048059914 0.02893236 -0.0033231564
0003a0 70 fb 95 3b 34 4f 65 bc a9 52 8d bd f3 1e e4 be
       0.004577093 -0.013995934 -0.06900532 -0.44554862
0003b0 40 3a 1f 3d da 17 13 bd e5 f3 00 bf ac 0d ed bd
       0.03887391 -0.03591142 -0.50372154 -0.11574873
0003c0 24 ad 43 bd 6b 5e 43 bd 27 61 15 bd 84 c8 53 3e
       -0.04777254 -0.047697466 -0.036469605 0.2068196
0003d0 fe e1 a2 be 76 4f fe 3b 9c c1 b0 3d f4 65 ee 3e
       -0.31813043 0.0077609373 0.08630678 0.4656216
0003e0 e0 38 b8 bd fd f8 02 be 41 ae ec be ac f3 9b bd
       -0.08995223 -0.12790294 -0.46226695 -0.07614836
0003f0 6d d7 0c 3e 68 ac 89 be 77 e2 1b 3a 8f d8 90 3c
       0.13754053 -0.26889348 0.00059465267 0.017681388

fc1.bias f4 [400]
000000 1b 5f 55 bd 35 58 0b 3f 8d e7 e8 bc bc 0f 0b 3f
       -0.052092653 0.5443147 -0.028430725 0.54320884
000010 87 65 20 3e ea ad e8 be c1 bf 38 3e b9 02 ae 3e
       0.1566373 -0.45445186 0.18041898 0.33986452
000020 10 7e 9c 3e 03 65 c2 3e b0 70 b1 bd 9d 3b ff 3d
       0.30564928 0.3796769 -0.086640716 0.12462542
000030 ac 88 ee 3c b6 6f 5d be e5 13 3b 3d 50 25 17 3f
       0.029117905 -0.21624646 0.04567327 0.5904131
000040 14 ce b2 be 90 b6 a4 bd 9a ed fa 3e 80 d4 c0 be
       -0.3492285 -0.080426335 0.490094 -0.37662125
000050 38 fa ff be 70 d1 00 bf c9 f9 00 3f 24 d7 84 be
       -0.4999559 -0.50319576 0.5038114 -0.2594539
000060 23 66 e9 3e 62 78 34 3e 4c 33 e2 3d f0 49 8a bd
       0.45585737 0.17624047 0.1104494 -0.06752384
000070 d1 2d 02 bf aa f3 f8 be 6d 35 db be 18 e6 7a 3e
       -0.5085116 -0.486234 -0.42814198 0.24501836
000080 3e 6a ee be 0a ac dc 3e cc 29 cb be 0f c9 5f 3e
       -0.4656543 0.43100005 -0.39680326 0.21854042
000090 a2 04 10 3e 62 dc ee 3e f4 7e ba be d5 7a a4 3e
       0.14064267 0.46652514 -0.36424983 0.32124963
0000a0 13 c2 00 3e f2 92 98 be c3 7f a9 3d 1c b4 70 3e
       0.12574033 -0.2979961 0.08276322 0.23506206
0000b0 2d 3a c4 3d 2e b5 d3 be 18 8e 09 3f 80 6c e5 3c
       0.09581409 -0.41349167 0.5373244 0.028005838
0000c0 16 60 fe be e6 c6 f2 3e 52 db 44 3e 72 3e 66 bd
       -0.49682683 0.47417372 0.19224289 -0.056211896
0000d0 31 cd e1 be 7f b0 05 3f 9a 0c 9a 3e 38 98 84 be
       -0.4410186 0.52222437 0.3008774 -0.25897384
0000e0 01 70 0d 3e f7 dd a9 3e fc 8e 63 3e 8d 44 b8 3d
       0.13812257 0.33177158 0.22222513 0.0899745
0000f0 8c 60 e7 be 37 78 0d bf 12 41 9c 3d 9d 45 d3 be
       -0.45190847 -0.5526156 0.07629599 -0.41264048
000100 86 75 06 bf 7c eb 86 3c dd d4 8c be 5a 3b b4 3e
       -0.52523077 0.01646971 -0.27506152 0.35201532
000110 c6 39 f2 be 0c 7c 8a be 0c 03 d4 be 83 af 4b be
       -0.47309703 -0.27047765 -0.41408575 -0.19891171
000120 81 86 84 3e e0 9c 93 3e 82 84 21 3e e2 42 0d bf
       0.25883868 0.28830624 0.15773204 -0.5518018
000130 d3 98 a2 be 2a 2a 46 be 1f d0 dc 3d 40 a1 17 bd
       -0.3175722 -0.19352022 0.107818834 -0.037019014
000140 69 3f e9 3e f7 b8 c5 3e 0e 6c 1a be ea 87 84 bd
       0.4555619 0.3861768 -0.15080282 -0.06471236
000150 ef 1e c7 3e 1d 62 b5 be f3 dc 6b be 14 16 f5 be
       0.38890788 -0.35426417 -0.23033504 -0.47868407
000160 1f d4 ff 3e f6 bb 3f 3e 6d 81 ca be 15 b9 f1 3d
       0.49966523 0.18724045 -0.3955187 0.1180288
000170 47 cc bd 3e 9b 98 12 3d 5d 12 cc 3e 48 27 b6 be
       0.37069914 0.035790067 0.3985776 -0.35576844
000180 57 29 ef 3d c4 c3 98 be 20 b3 2f be 7c 25 6e 3e
       0.11677807 -0.29836857 -0.17158175 0.23256487
000190 1e 6b cb be de c9 9b bc 58 d7 84 3e ac be b5 be
       -0.3973016 -0.019017156 0.25945544 -0.35497034
0001a0 ee d9 0d 3c 30 ac cb 3e 40 70 07 3f 64 f4 f0 be
       0.0086579155 0.39779806 0.52905655 -0.47061455
0001b0 9d f9 e7 3e aa be a8 be e0 7d a8 bc d3 bf a5 be
       0.45307627 -0.32957965 -0.020567834 -0.32372913
0001c0 f6 d0 01 bf 2e fa 87 be fa 1d d9 bc cc 0f 98 3d
       -0.50709474 -0.2655806 -0.026503552 0.07424888
0001d0 f4 c0 88 bc 4c b8 13 3e 7a 05 06 3f 45 58 9a 3d
       -0.01669357 0.14425772 0.52352107 0.07536367
0001e0 3b 2f 0e bf a2 ca b9 3e 56 a5 93 be ff 72 09 3f
       -0.5554082 0.3628741 -0.2883708 0.53691095
0001f0 ce 3c d9 be 8e 40 04 bf 65 27 c5 3e 63 6b e0 3d
       -0.42429203 -0.51661 0.38506618 0.109579824
000200 f3 ac 0d bf 69 ba 2d 3e 76 45 9f 3e 78 3c 39 3d
       -0.55342025 0.16965641 0.31107682 0.045223683
000210 75 83 a6 3e b2 de 15 bc 0d 7d bf 3e a0 4f bb be
       0.3252217 -0.009147333 0.37400094 -0.36584187
000220 82 17 0c 3f 34 4f fc be 5c 46 49 3e 53 2f 9f 3e
       0.5472337 -0.49279177 0.19655746 0.31090793
000230 a7 10 11 3f 1b a3 b5 bd 66 31 14 3c c4 c9 7c be
       0.56666034 -0.088690005 0.009044981 -0.24686342
000240 3d 1f 90 3d 82 e8 04 bf 9b ac 30 3e 38 06 0d bf
       0.07037208 -0.5191728 0.17253344 -0.55087614
000250 da 79 9e be 40 09 af be c9 a8 72 3d df 2e ec be
       -0.3095234 -0.34186745 0.059242997 -0.4612951
000260 31 6d 62 3e a3 82 c5 bd 9e b0 b0 be 01 d1 fb 3e
       0.22111966 -0.096440576 -0.34509748 0.49182895
000270 ec 63 a3 3e 46 c0 ea be 6e 11 6f bd ce bf 2e be
       0.31912172 -0.45849818 -0.05836623 -0.17065355
000280 a4 97 13 be b5 65 28 3e 0f f4 04 be 46 5b 10 3f
       -0.14413315 0.16445048 -0.12983726 0.5638927
000290 cc 68 1b 3f 36 b8 d1 bd 15 ed 97 3d 50 2a 39 be
       0.6070678 -0.102402136 0.07418267 -0.18082547
0002a0 27 e8 3b be bd a7 94 3e 31 9e 88 be c2 ba 0a 3f
       -0.18350278 0.29034224 -0.2668319 0.5419122
0002b0 18 e5 57 bd aa e5 4d be 35 5c da be c7 ac 45 bd
       -0.052708715 -0.20107141 -0.42648473 -0.048260476
0002c0 64 c2 ec 3e a0 97 00 bf 4c 66 b6 be 66 d6 bf be
       0.46242058 -0.5023136 -0.3562492 -0.3746826
0002d0 6f eb 05 3f ce e1 00 3f c8 bc e7 3e 3b c0 c8 3d
       0.5231237 0.5034455 0.45261216 0.0980229
0002e0 99 6f b3 be 19 28 93 3d ad 41 18 be ab d1 04 bf
       -0.3504608 0.071853824 -0.14868803 -0.5188243
0002f0 f2 85 e0 be 74 93 ea be 5f e3 62 3e 9f 5f 13 bc
       -0.43852192 -0.45815623 0.22157048 -0.008994966
000300 bd e1 c4 3d 46 ac f2 3d 3e 5c 97 3e 02 fb 04 3f
       0.09613369 0.11849265 0.29562563 0.5194551
000310 7f 7c aa 3e ad 85 c0 be 21 b9 0d be 66 b3 e0 be
       0.33298108 -0.37601987 -0.13840152 -0.4388687
000320 ae 49 f5 be 32 f8 00 3f fb 9b 0f bf 23 22 51 3e
       -0.47907776 0.50378716 -0.5609738 0.20423178
000330 c8 3d 27 3e 06 3f 7a 3e 27 0e 05 3e 40 eb ad be
       0.16332161 0.24438104 0.1299368 -0.33968544
000340 16 33 35 3e 6b 81 c6 3d 98 91 f6 be 52 ea 6c bd
       0.17695269 0.09692653 -0.48157954 -0.057840653
000350 45 44 ae be d5 59 a0 3d 70 c2 f8 3e 58 45 d0 3e
       -0.3403646 0.07829634 0.48585844 0.40677905
000360 ca 29 09 be 64 c6 b2 3e 2a 69 81 3e 19 4d 9f be
       -0.13394848 0.34916985 0.25275546 -0.31113508
000370 cc a6 8c be 1b 4a cb 3e d9 5c e4 3d 2a 6d cd 3d
       -0.27471006 0.39704975 0.11150522 0.10030587
000380 b5 1e aa 3e fd 5d b6 3e ac 9c 07 3f 07 8c 3c 3e
       0.33226553 0.35618582 0.5297344 0.18412791
000390 47 ce ab be e9 fa 5b bd 72 ec b5 3e 26 94 ba be
       -0.33555815 -0.053706083 0.35531956 -0.36441153
0003a0 9c b1 9a be a7 c3 cf be f4 d9 0a bf ba bd c0 be
       -0.3021363 -0.40578958 -0.5423882 -0.3764475
0003b0 76 8d 0f bf c2 05 88 3e ad 39 f2 3e 7e 66 e0 3d
       -0.5607523 0.26566893 0.47309628 0.10957049
0003c0 63 87 00 bf 9f 5f fd 3e 9f 05 a8 3d 1b 57 03 3e
       -0.50206584 0.49487016 0.08204197 0.12826197
0003d0 fa 38 15 be 99 29 93 3e 67 ca 9c 3d 74 9a 89 be
       -0.14572516 0.28742674 0.07655793 -0.2687565
0003e0 d1 35 ba 3d eb ed 05 3f fb da 6e 3e c0 ad b8 3d
       0.09092296 0.5231616 0.23325722 0.09017515
0003f0 27 21 a3 3e 14 87 e2 3d 3f 17 cd 3e 39 83 c1 be
       0.3186123 0.1106092 0.40056798 -0.37795427

fc2.weight f4 [300, 400]
000000 5c 78 92 3c 68 8b 1a 3d 95 88 44 3d 19 6f b3 bc
       0.017879657 0.037730604 0.047981817 -0.021903561
000010 cc 97 3c bc bc 5f e7 3c 66 26 a2 bc b5 9d 8f bc
       -0.011510801 0.028243892 -0.0197937 -0.017531255
000020 55 5b 28 bd de 8d 6c bd 40 8d 45 bc 65 61 04 bb
       -0.041102726 -0.057752483 -0.012057602 -0.0020199653
000030 f9 d4 77 3c 4e ab 47 3d 86 cb 45 3d b8 39 20 3d
       0.01512646 0.048747353 0.0482898 0.039117545
000040 80 7a 00 3d ec b4 59 3d f4 bf 0a bc bb 7e f4 bc
       0.031366825 0.053151056 -0.008468617 -0.029845586
000050 4c d8 e3 bc ce 10 46 bd 61 7b a4 bc 1c 38 f8 3c
       -0.0278131 -0.04835587 -0.020078363 0.030300193
000060 96 4d d7 bc dc 0b 2d bd a3 f5 64 3c e4 6a 52 3d
       -0.026282113 -0.042247638 0.01397458 0.05137147
000070 58 64 5d bc 89 c0 64 bd 52 54 46 bd f4 37 21 3c
       -0.013512693 -0.05584768 -0.048420258 0.00984
000080 f0 8f ad 3b 14 52 d9 3b c9 fc 36 bd 4d 38 fe b9
       0.0052966997 0.006632099 -0.04467467 -0.00048488603
000090 20 ae 23 bc 55 63 e2 3c f2 04 5f 3d bc 77 09 3d
       -0.009990245 0.027635256 0.054448076 0.033561453
0000a0 b2 33 10 3d 50 77 46 bd 13 fa 84 bb cb 86 22 bd
       0.03520555 -0.04845363 -0.0040581315 -0.03967933
0000b0 b0 9d 56 bd 74 80 49 3d 7f fe 0c 3d 84 34 b1 bc
       -0.052396476 0.049194768 0.034422394 -0.021631487
0000c0 13 3f af 39 c1 ad 70 bd 9c cb 59 ba a4 c7 36 bc
       0.00033425595 -0.058759455 -0.0008308233 -0.0111559965
0000d0 f4 80 d1 3c 27 56 ff bc 20 99 c3 bc a6 c5 b1 bc
       0.025574185 -0.03116901 -0.023876727 -0.021700691
0000e0 63 3d 65 bd 03 3f f9 bc e6 65 02 3d 8d e4 d4 bc
       -0.055966746 -0.030425554 0.03183546 -0.025987888
0000f0 d8 77 ea bc 68 f3 8a 3c a6 58 34 3d db c6 3a bd
       -0.0286216 0.016961768 0.044029854 -0.0455998
000100 f0 72 6c bc 80 85 e2 ba 0b 65 4a bd c3 1c 70 bd
       -0.0144317 -0.0017282218 -0.04941277 -0.05862118
000110 ca 76 4d 3d 39 ec 61 bd 48 cd 5d bd d8 00 47 bc
       0.050162114 -0.05515692 -0.05415085 -0.012146197
000120 08 5b 12 3c ce 39 9e bc 61 74 3b 3c b8 87 e3 3c
       0.008932836 -0.019314673 0.011441321 0.027774677
000130 cc 04 66 bc 1a 15 1d bd dd ed 64 bd 88 29 f8 bc
       -0.01403923 -0.038350202 -0.055890907 -0.030293241
000140 67 78 38 bd 16 31 3a 3d ed 6b 66 bd f4 4c 66 3d
       -0.0450367 0.04545697 -0.05625527 0.056225732
000150 4a 08 9c bc 30 3a aa 3c 9a 0a 6b 3d 1b ce 63 bd
       -0.019046921 0.0207797 0.057383157 -0.05561648
000160 b2 04 81 3b ab fb 2a bd 9a 80 4b 3d cc 3a 6c 3d
       0.0039373273 -0.041743916 0.04968319 0.05767326
000170 48 77 8a bc ba 2e 0e b9 46 d5 ab 3c 66 7d 36 3d
       -0.01690258 -0.00013559582 0.02097572 0.044553183
000180 84 2d 35 3d d7 c9 41 bd 3f f2 32 bd 0f 3b fe 3c
       0.04423286 -0.04731163 -0.043688055 0.03103402
000190 c6 69 0f 3d 70 06 54 bc 83 ec 52 3d 20 86 3a 3d
       0.035012983 -0.012940988 0.051495086 0.045538068
0001a0 0f ea e1 bc 20 3f 8f bc 13 d8 16 bd 60 d1 e7 bb
       -0.027577428 -0.017486155 -0.03682716 -0.00707452
0001b0 0f d9 b4 bc 20 84 7c bc 54 90 d9 bc c0 44 05 ba
       -0.022076158 -0.01541236 -0.026558079 -0.0005083792
0001c0 6e fb 51 bd 40 7d 58 3d a4 73 23 3d fb 3c 75 3c
       -0.051265173 0.052853823 0.039905205 0.014968152
0001d0 68 01 85 3c de c0 b7 bc 56 5e 83 bb 0c 7e 83 3c
       0.016236022 -0.022430833 -0.0040090485 0.016051315
0001e0 2c 25 34 3d de ee f8 bc 16 36 1c 3d 5d aa 58 bd
       0.043980762 -0.030387338 0.038137518 -0.052896846
0001f0 de d0 4e 3d 70 f1 7b bb 58 04 02 bc ce 34 28 3d
       0.05049216 -0.0038443469 -0.007935606 0.041065983
000200 d3 a1 6a bd 5c 18 58 bd 50 50 5e bd e2 be d8 bb
       -0.057283234 -0.052757606 -0.05427581 -0.006614552
000210 76 e6 32 bc 99 d7 57 bd 96 a7 23 3d d0 fe 45 bd
       -0.010919204 -0.052695844 0.039954744 -0.04833871
000220 40 a4 52 bd 84 ed 93 bc b2 dc 09 3d 0f 15 1a 3d
       -0.051426172 -0.018057592 0.033657737 0.03761774
000230 0e c3 14 bd 30 09 24 3d ee 5b 30 bd 60 30 a4 bb
       -0.03631883 0.040047824 -0.04305642 -0.0050106496
000240 ec 47 b3 3c 54 c8 da 3c 14 92 a0 bc 80 b9 c7 3a
       0.021884881 0.026706852 -0.019600905 0.0015237778
000250 28 b7 09 3d 39 16 81 3c 7f 0c 1a 3d 14 2f 5b bc
       0.033621937 0.015757667 0.037609573 -0.0133779235
000260 57 a7 69 bd 80 35 aa bb 2c 34 c5 bc dd 3c 4c bd
       -0.057044353 -0.005194366 -0.024072729 -0.04986273
000270 b5 50 3b bc 90 3b 19 bd 14 00 1b bd 7c 73 cd bc
       -0.011432816 -0.03741032 -0.03784187 -0.025079481
000280 bd eb 39 bd dc 38 d4 3c dd 04 52 3d cb ff 19 bd
       -0.045390833 0.025906019 0.05127417 -0.03759746
000290 62 e6 38 3d 55 38 4a 3d 6c fc 06 3c 48 86 1b 3d
       0.045141585 0.04937013 0.008238893 0.037969857
0002a0 68 61 eb bb a8 04 06 bd c0 7d 59 3d 24 c4 8f 3c
       -0.0071832426 -0.032719284 0.05309844 0.017549582
0002b0 0e cd 57 3d bc df 39 bc df 7a 69 bd f6 e5 8c bc
       0.05268579 -0.011344846 -0.057001945 -0.017199498
0002c0 35 5a 06 bd f0 26 03 3d ed e5 d3 bb 6f 95 45 bd
       -0.032800872 0.032019556 -0.0064666183 -0.048238214
0002d0 9a f9 f8 ba f4 d5 1d bd 18 2a 2e bd 36 9d 0d bd
       -0.0018995285 -0.03853412 -0.042520612 -0.034573756
0002e0 ae 43 2e 3d 05 d3 fb bc 83 ee cc bc 60 aa 16 3b
       0.042545013 -0.03074027 -0.025016075 0.0022989735
0002f0 35 64 51 bd b0 44 f6 3b 6a 74 ea bb 4b 91 26 3d
       -0.051120955 0.0075155124 -0.007154991 0.040665906
000300 cb 83 c8 3c 50 b0 72 3c 30 35 7c bc 8c 78 02 39
       0.024476906 0.014812544 -0.01539354 0.00012442673
000310 00 dc a9 bc 10 dd a5 bc b9 99 09 3d 8e 14 2a bd
       -0.020734787 -0.020247012 0.033593867 -0.04152351
000320 e6 12 28 3d 87 27 6a bd 74 d9 40 3d 40 9b 5f bd
       0.041033648 -0.057166602 0.04708238 -0.054591417
000330 00 79 dc 39 29 0f 50 3c 31 5d 04 3d c4 81 6a 3d
       0.00042051822 0.012698927 0.032315437 0.05725266
000340 5b 32 24 bd 56 7c 65 bd ce 77 25 bd be 10 dc bc
       -0.040087085 -0.05602678 -0.040397458 -0.026863452
000350 d8 6f 83 bb bc 24 84 3c bf d3 ff 3c 12 aa b6 3a
       -0.0040111355 0.016130798 0.031228898 0.0013936183
000360 8a df 42 3d 9c f2 5c bd 61 a2 71 bb 74 45 45 bd
       0.047576465 -0.053942308 -0.0036870467 -0.04816194
000370 55 71 a5 3c 90 d5 7c bc eb 42 4a 3d 60 3b 24 3d
       0.020195642 -0.015431777 0.049380224 0.040095687
000380 c3 09 4a bc 0a fe 10 3a ce 40 3c bd b4 41 d6 3b
       -0.012331429 0.0005531019 -0.04596024 0.006538594
000390 6c 9d 99 bc 44 02 25 3d 91 8f f1 3c 40 35 7c ba
       -0.018751822 0.040285364 0.029487403 -0.0009620972
0003a0 a2 24 54 3d e2 66 30 3d 36 e4 ff bc 23 66 5b 3d
       0.05179275 0.043066867 -0.03123675 0.053564202
0003b0 57 78 0c bd 69 66 85 bc ed 3e 13 3d 8f 52 10 3d
       -0.034294453 -0.016284185 0.035948683 0.035234984
0003c0 10 80 5f 3c 43 73 60 3d 09 de 22 3d dc ec a6 3c
       0.013641372 0.054797422 0.03976253 0.020376615
0003d0 8a c0 3c 3d 83 68 27 3b 80 ed 44 3c a0 18 1d bd
       0.046082057 0.0025544472 0.012019515 -0.038353562
0003e0 b2 4d af 3c 63 80 e3 bc ff e1 22 3d 20 60 82 bc
       0.021399353 -0.02777118 0.039766308 -0.015914977
0003f0 38 53 a6 bc 72 25 32 bd 78 8b 57 bc 20 b0 c4 3b
       -0.020303354 -0.043492742 -0.013155811 0.006002441

fc2.bias f4 [300]
000000 1d 95 89 bc 87 73 4a bc 73 d6 61 3b 71 95 a6 bb
       -0.016794736 -0.012356645 0.0034460097 -0.005083733
000010 e3 e0 0b 3b da 23 c3 bc 1e 7d 3e bc af 31 bc bc
       0.002134376 -0.023820806 -0.01162651 -0.02297291
000020 71 ba fa 3c 77 d8 a4 3a 1e 77 8d 3d 68 74 4c bd
       0.03060648 0.0012576719 0.069074854 -0.0499157
000030 ad ea 41 3d 02 a3 15 bd 68 4c 1e 3d 35 70 c7 bc
       0.047342945 -0.03653241 0.038647085 -0.024345497
000040 57 7c 97 3c 7d d5 77 bd 2f ed be bc c3 b7 f4 bb
       0.018491907 -0.060506333 -0.023306457 -0.007468195
000050 86 15 00 bd f4 ed 2a bc 4b d1 88 3c a1 9e 24 3e
       -0.031270526 -0.010432709 0.016701361 0.16076137
000060 fe 8d f9 bc 7c 8b 96 3c 41 15 06 3d 78 6b 34 bb
       -0.030463215 0.018377058 0.032735113 -0.0027529877
000070 97 5f d4 bc cc 9f df 3c 16 e1 08 bd d9 97 01 3d
       -0.025924487 0.027297877 -0.033417784 0.031638954
000080 e5 8b db 3c 47 37 9f 3c 36 3b 0b bb 80 73 4e bd
       0.026800105 0.019435538 -0.002124501 -0.050403118
000090 de 1d 10 3d 80 b0 7e ba 8d c4 61 bc 32 8b 29 bd
       0.035184734 -0.00097156316 -0.0137797715 -0.041392513
0000a0 0c b0 e0 bc 35 d6 83 bd f9 d0 57 bd 34 da 32 bd
       -0.027427696 -0.06437341 -0.052689526 -0.043665126
0000b0 9c f2 31 3c ac fa ef b8 17 6c 0f bd d9 e5 06 bd
       0.010861065 -0.00011443099 -0.035015192 -0.032934044
0000c0 38 1f ab bc 49 c4 0c 3d 1a b4 49 3d 3d 6b 20 3d
       -0.02088891 0.03436688 0.049244024 0.03916477
0000d0 74 61 cf bc 7e 71 cd 3c 41 49 1f bd 0e d0 de bc
       -0.025315024 0.025078531 -0.03888822 -0.027198818
0000e0 40 25 55 bc 86 5d cf 3c d9 99 e6 bc aa e0 39 3d
       -0.013009369 0.02531315 -0.028149532 0.045380272
0000f0 e0 86 20 3c 7f e1 bf bd 51 2b 15 3d 92 87 5c bc
       0.009797782 -0.09369182 0.036418263 -0.013460057
000100 75 6e 7e bc 9c 7a da bc fb b8 35 bd 03 bb 22 3d
       -0.015529265 -0.026669793 -0.044365864 0.03972913
000110 17 84 09 3e a5 de 24 bd 90 6e 05 3e 30 2c ed 3b
       0.13429295 -0.040251393 0.13030457 0.0072379336
000120 04 d4 9e bc 41 40 12 3d 94 1b ba bc a2 42 d6 ba
       -0.019388206 0.03570581 -0.022718228 -0.0016346762
000130 f8 f3 e5 bc da ab fa 38 86 5b 30 bd 04 68 8a bb
       -0.028070435 0.00011952939 -0.043056034 -0.0042238254
000140 ed fe 89 3d 6d fa d3 3b 28 93 0c 3d 68 f2 1a bd
       0.06738076 0.006469062 0.034320027 -0.037828833
000150 1c af d3 bb 25 05 a8 bc e3 8c a4 3c 21 22 8f b9
       -0.0064600836 -0.020510266 0.020086711 -0.00027300513
000160 6f 2f 00 3b 60 dc 3a 3c 4c 49 db 3c 3f 74 8d 3d
       0.0019559523 0.011405081 0.02676835 0.06906938
000170 55 7a 4a 3d f4 0b 95 3c 6c 6e 62 3d a0 93 07 3c
       0.04943307 0.018194176 0.055281088 0.008274943
000180 a2 b0 3f bd b7 0f 11 bb 78 8d ae bd 72 96 ca bb
       -0.04679931 -0.002213461 -0.08523077 -0.0061824853
000190 25 9b 48 3d ac f9 1d bb bd 18 70 3d 26 14 a5 b9
       0.048976082 -0.0024105115 0.058617342 -0.00031486264
0001a0 1a 09 db bc 00 07 62 3d e3 6e e5 bc df 1f 5e 3d
       -0.026737738 0.055182457 -0.028006976 0.054229613
0001b0 af e0 25 bd 85 b7 1f bd 68 d1 f8 bb fb 5e e5 3c
       -0.040497478 -0.038993377 -0.0075933225 0.027999392
0001c0 b8 91 c9 3c 81 85 82 bc b2 c2 16 bd 6d b5 65 3c
       0.024605617 -0.0159328 -0.03680677 0.014020306
0001d0 be ee 3b bd 64 89 a2 bc 2c 02 36 3c 5e 99 f2 bc
       -0.04588198 -0.019840904 0.011108916 -0.029614147
0001e0 ba fb c0 bb 0b 22 67 bb a2 57 c2 bc 2b e0 94 bc
       -0.005889383 -0.0035268094 -0.023723427 -0.018173298
0001f0 98 ee cd 3c 80 35 04 bd ad c2 97 3c 3a 78 ab 3b
       0.025138184 -0.032277584 0.018525446 0.005232838
000200 bb 65 81 3c e1 4b ba 3b b7 0f f3 bb a8 2e c7 bd
       0.01579558 0.005685315 -0.007417645 -0.09725696
000210 6e f7 9a 3d ba 26 2d bd b0 ef 85 3c 29 32 8b 3d
       0.07566725 -0.04227326 0.016349643 0.06796677
000220 34 ea 17 bd f9 fe 98 3c d5 33 d8 3c 77 b3 58 bd
       -0.037088588 0.018676268 0.026391903 -0.052905526
000230 d4 3d 8f bc c2 b9 f7 bb fc 38 58 bd d9 79 e6 bb
       -0.017485537 -0.007559986 -0.05278872 -0.0070335683
000240 2a 7b 2c bd 20 9d 74 bd 05 ed 80 3c e9 c2 da bc
       -0.042109646 -0.05972016 0.01573802 -0.026704269
000250 69 6e e6 b9 11 33 55 3d c3 56 90 3c f3 9d 99 bc
       -0.0004395128 0.052050654 0.017619496 -0.018752074
000260 38 ac 65 bd eb db cc bc 53 a3 ed 3c 80 c5 3c 3c
       -0.056072444 -0.025007209 0.029008543 0.011521697
000270 31 9b 89 3d dd 6f c0 bc 5b 35 46 bc 1e dc 1a bd
       0.067190535 -0.02349084 -0.012097682 -0.037807576
000280 f6 df 80 3d 6c 3e 14 3b ef e2 f0 3c 6a 22 60 3d
       0.06292717 0.0022620214 0.029405085 0.05472032
000290 37 8a a3 bc 35 15 10 3d e0 57 c3 bc 1a eb 4f bc
       -0.019963367 0.035176475 -0.023845613 -0.01269033
0002a0 04 9b d7 bc 9e 09 c4 3c 65 f2 de bc ed c7 1c bb
       -0.026319034 0.023930367 -0.027215192 -0.0023922876
0002b0 c5 8e 3c bd e4 03 4d 3c 27 b5 cb 3c de 17 0f 3d
       -0.046034593 0.012513135 0.024866654 0.03493487
0002c0 a3 19 65 bd de 9f 19 bd 8b 0c 5c 3c fe c4 ef 3c
       -0.055932652 -0.037505977 0.013430725 0.029268738
0002d0 fc 4b 49 bc f6 b8 f0 3d 65 06 2c 3c 60 ee b1 3c
       -0.0122861825 0.117540285 0.010499571 0.021720111
0002e0 72 0d 7c 3d d2 98 b2 bb d2 15 41 3c 3c aa 05 3c
       0.06153626 -0.0054503465 0.0117849875 0.008158263
0002f0 f7 2b 51 bd ee 0e 01 3d 9b 4e bb bc 6b 64 73 3b
       -0.05106732 0.03150838 -0.02286463 0.0037138711
000300 41 19 29 bd a0 01 b5 3c e6 9e 12 3d ca 93 86 bc
       -0.04128385 0.022095501 0.03579607 -0.016427893
000310 c8 f3 97 bc 60 bc 0f 3d 49 3d cb 3b aa 27 54 3d
       -0.018548861 0.035091758 0.006202374 0.05179564
000320 d8 65 7f bc 78 48 06 bd 40 16 4b bd 6c 34 b0 bb
       -0.015588246 -0.032783955 -0.049581766 -0.005377343
000330 f6 ed 0e bd b7 6f dd bc 27 62 05 3d 99 9b 2d 3d
       -0.034894906 -0.027030809 0.03256431 0.042384718
000340 cf b2 32 bd d4 bf d9 3d 66 b9 5c bd 43 c9 48 3c
       -0.043627556 0.106322914 -0.053887747 0.012255016
000350 66 ab 3a bd 9b 06 95 3d f3 72 df bc e6 35 f1 3c
       -0.045573615 0.072766505 -0.027276492 0.029444646
000360 bf 5f 34 bd 55 62 23 3d bd 34 8e 3b 91 99 48 bd
       -0.044036623 0.0398887 0.004339783 -0.048974577
000370 02 4b 0a 3d c0 3f d6 bc 95 c3 93 bd 27 02 21 bd
       0.03376294 -0.026153445 -0.07215039 -0.039308693
000380 87 62 99 3c 8f fb 85 3c 01 88 92 3c c4 f8 2d bd
       0.01872374 0.016355304 0.017887117 -0.04247357
000390 9e be 51 3b 9f 3e 5a bc fd 29 15 3d 17 c7 d4 bc
       0.0032004486 -0.013320594 0.036416996 -0.02597384
0003a0 59 bc 6c bc 76 d4 ae bc e7 9c 9f bd 54 78 07 bc
       -0.014449202 -0.021341544 -0.077935986 -0.008268435
0003b0 af 08 7e bc da 05 e0 3c f2 f2 92 3c 79 58 1a bd
       -0.015505 0.02734654 0.017938111 -0.03768203
0003c0 5b 96 07 bd 3b eb fc 3c 37 1a 01 bd 97 6a 5a bd
       -0.033102375 0.030873885 -0.03151914 -0.05332431
0003d0 97 a3 37 3c e0 d2 36 bc a6 45 52 bd ca 15 c5 3b
       0.011208436 -0.011158675 -0.051335953 0.0060145603
0003e0 11 2e 43 3c 3e cd 42 bd 93 b2 10 bd 2a 85 ca bc
       0.011912839 -0.047559015 -0.03532655 -0.0247217
0003f0 36 6d a7 3d dc fe 51 bc 18 93 0a bd 79 c2 1d bc
       0.08175127 -0.012817111 -0.033831686 -0.009628885

fc3.weight f4 [1, 300]
000000 58 f6 f8 ba be 85 d2 be d8 f2 d6 ba 82 c4 a4 be
       -0.0018994315 -0.41117662 -0.0016399277 -0.32181174
000010 e8 77 56 bb 3d 16 c9 39 5b 46 a6 be b4 d7 5f bf
       -0.0032725278 0.00038354276 -0.32475552 -0.8743851
000020 c1 ea c0 be 41 f4 d8 be c3 79 b8 be ea 74 b0 be
       -0.37679103 -0.4237385 -0.36030397 -0.34464198
000030 c9 b0 82 bb 02 84 cc be 8d 96 c1 be 6c c6 31 be
       -0.0039883596 -0.39944464 -0.37810174 -0.17360848
000040 cc 87 19 bf 2b a1 5a be 1b 7f f0 be 45 c0 ac be
       -0.59972835 -0.21350543 -0.46971974 -0.3374044
000050 5d 06 96 be a6 6a e2 be 81 c6 a7 be e0 e6 42 3e
       -0.2930173 -0.4422199 -0.32768634 0.19033384
000060 48 52 98 be 3b d9 92 3a 43 1e e8 be 33 cf f3 be
       -0.29750276 0.0011203656 -0.45335588 -0.47619018
000070 1b 8e 4a bb ad fe 66 bf eb 98 2b bb 87 16 49 be
       -0.0030907455 -0.90232354 -0.0026183676 -0.196375
000080 9c 80 a4 be 26 ad 9c be a7 cf a2 be b6 04 7f be
       -0.3212937 -0.30600852 -0.3179905 -0.24904141
000090 29 6b 56 bf f4 48 1b 3b 94 b7 b1 be a4 37 46 b9
       -0.83757263 0.0023694606 -0.34710371 -0.00018903479
0000a0 0d b1 c1 be af df 86 be ab d5 51 bf 50 6f 6f be
       -0.37830392 -0.26342532 -0.81966656 -0.23382306
0000b0 08 8e d1 3a 4f 0e b3 be 83 ce 9b be 56 a2 17 bf
       0.0015987763 -0.34971854 -0.30430993 -0.5923208
0000c0 0a 17 48 bb 46 eb 77 3e 13 d0 09 3e b5 df ab be
       -0.003053131 0.24210843 0.1345828 -0.33569112
0000d0 e3 1d 33 bf 44 ee c1 be 89 5f ea be 28 e0 d2 3d
       -0.6996748 -0.37877095 -0.45776013 0.10296661
0000e0 0a 58 24 3b f9 c7 01 bf b0 8b 56 bf 0e a8 b4 39
       0.002507689 -0.5069576 -0.83806896 0.00034457486
0000f0 93 5d 0a bf 4b a9 67 be 42 1d aa be d0 4e d7 38
       -0.5404903 -0.22623174 -0.33225447 0.00010266679
000100 31 c1 ab be ad 42 b7 be 9b aa 23 bf a9 53 69 be
       -0.3354583 -0.35793057 -0.639322 -0.2278582
000110 11 0d 0b 3e 0e 2c 49 bf 24 90 11 3e 8c b3 91 3a
       0.13579203 -0.7858285 0.14215142 0.0011116131
000120 a3 85 05 bf 50 f8 e3 3a ae 77 7c be a1 b4 ad be
       -0.5215704 0.0017392728 -0.24655029 -0.3392687
000130 5a 0d 78 bf 06 0b df be 0a be e9 be cb f5 bf be
       -0.9689537 -0.43563098 -0.456528 -0.37492213
000140 43 1c 0c 3e 89 28 ed be be 98 b2 ba 48 1f 99 be
       0.13682656 -0.46319988 -0.0013625843 -0.29906678
000150 3e 59 89 ba 0e 3c 06 bf 50 b4 15 bf 9e 15 7c be
       -0.0010478867 -0.52435386 -0.5847826 -0.24617621
000160 90 a6 df 3b da a8 c9 be 69 71 a2 be f5 6f 15 3f
       0.0068252757 -0.39386636 -0.3172715 0.5837396
000170 e1 ab b6 be 51 05 ab be bc 71 1c 3e 6f 99 11 bf
       -0.35678008 -0.33402494 0.15277761 -0.56874746
000180 7f e0 0d bb a7 c3 b9 be c6 f3 f1 be ef cf 26 bf
       -0.0021648703 -0.36282083 -0.47256297 -0.6516103
000190 70 da a0 be 16 45 ab be 09 61 11 3e fd 4b d4 be
       -0.31416655 -0.33451146 0.14197172 -0.41464224
0001a0 b1 1d f4 be ec c8 89 be af de 9f ba 3f c4 19 3e
       -0.47678903 -0.26911104 -0.0012197102 0.15016268
0001b0 8f 36 b4 3a 66 43 a6 ba b8 d9 17 3c ac 5d a3 be
       0.001374917 -0.0012684881 0.009268217 -0.31907403
0001c0 ec 60 88 ba f7 fd c1 be 3b 35 39 bb 2e 33 3a be
       -0.0010404862 -0.37889072 -0.0028260488 -0.18183586
0001d0 2d a3 d9 be ba b0 db be 35 02 aa 3a d6 25 b1 be
       -0.42507306 -0.4290827 0.0012970628 -0.3459918
0001e0 e4 44 85 be 64 dd b4 be 91 41 e1 3a 53 dd 62 3e
       -0.26029122 -0.35325158 0.0017185678 0.22154741
0001f0 76 26 b7 be ca ab 2e 3b 1f e2 b1 be d2 70 7a be
       -0.3577153 0.0026652687 -0.3474283 -0.244571
000200 60 77 7c 3c 7e 73 b9 be 17 b8 8d be bf 43 b2 be
       0.015409321 -0.36220926 -0.27679512 -0.3481731
000210 61 31 af be 1d 08 a6 be e3 ec bb be c7 51 b9 be
       -0.3421736 -0.32428065 -0.36704168 -0.36195204
000220 fa f7 4a bf 30 ea c2 be ab 63 2b ba 56 c6 bd be
       -0.7928463 -0.38069296 -0.0006537984 -0.3706538
000230 ae a3 bd ba e9 c3 b1 be df d5 26 38 44 d0 aa be
       -0.0014468336 -0.3471978 3.9776667e-05 -0.3336202
000240 d8 02 08 3a 99 3d 0b bf 56 a0 1f bf 0d a0 cd 39
       0.0005188412 -0.54390866 -0.6235403 0.00039219894
000250 ba 97 d0 be f1 c8 8e be 44 3f 4f be 75 07 eb b9
       -0.40740758 -0.2788768 -0.20238978 -0.0004482825
000260 5a f0 db be 4d 3a be be 9a 93 17 3f a9 fd 00 bb
       -0.4295681 -0.37153855 0.592096 -0.0019682443
000270 22 45 0c 3e 10 a1 d3 be 85 1c bd be 7e a8 e3 be
       0.13698247 -0.41333818 -0.3693582 -0.44464487
000280 6c dd c0 be ee 23 66 38 86 0e ae be 6d 60 a4 be
       -0.3766893 5.4869735e-05 -0.33995456 -0.32104817
000290 a9 39 b9 be bf b8 47 bf a0 2a 86 39 08 a4 e2 be
       -0.36176804 -0.78016275 0.0002559023 -0.4426577
0002a0 83 3c 49 bf 71 03 8d be eb 7f a0 be ab 50 8a 3b
       -0.7860796 -0.27541688 -0.31347594 0.004221042
0002b0 7c 38 a0 3a f1 6a 7b be 78 70 77 be 9d 5d a2 be
       0.0012223865 -0.24552514 -0.24163997 -0.31712046
0002c0 f0 eb 52 be 51 67 e3 be 54 5b dc b7 eb 2b b2 be
       -0.20597816 -0.44414762 -2.6268572e-05 -0.34799132
0002d0 e1 ad 9c be 57 f7 1b 3e 10 6c 3b 3b 83 6c 83 be
       -0.3060141 0.15231071 0.0028598346 -0.25668725
0002e0 05 86 50 be 7f bb 8e 39 fc 23 b7 be 43 c2 2a ba
       -0.20363624 0.00027224046 -0.3576964 -0.00065139326
0002f0 b3 99 29 3a 89 b3 3a bf 39 55 e7 be 27 98 fc be
       0.00064697413 -0.729302 -0.45182207 -0.49334833
000300 6c e2 a8 be 5a 15 b1 3e 45 2c 8b be 0e 3a b0 be
       -0.32985246 0.34586602 -0.27182212 -0.34419292
000310 6b f8 ca be a3 87 74 be 96 01 b8 be 20 26 2c 3e
       -0.39642653 -0.23879866 -0.3593871 0.16811419
000320 e1 09 e3 ba 38 06 1a 3a 90 f4 2c bb 4a 52 dc be
       -0.001732167 0.00058755605 -0.0026390888 -0.43031532
000330 34 38 a9 3a bd b2 b8 ba 3b 1e 6a be df ac ce ba
       0.0012910427 -0.0014091354 -0.22863095 -0.0015768072
000340 82 e0 41 be 86 be 21 3e a9 0f 8a be 15 a5 bd be
       -0.18933299 0.15795335 -0.26965073 -0.3704001
000350 c8 45 b3 be 70 23 14 3f f5 c2 87 be 8f c1 c8 b9
       -0.35014176 0.57866573 -0.26515928 -0.00038291185
000360 88 f7 9c 3a 02 5c de 3a 3d 27 d3 be 56 08 59 be
       0.0011975626 0.0016964676 -0.41240874 -0.21194586
000370 77 9e 4a bf 73 d6 45 bf 80 db ab be 81 6e c4 be
       -0.7914805 -0.7728035 -0.33565903 -0.38365558
000380 60 81 b4 be f9 10 0a bf 74 88 78 be 39 05 fd be
       -0.35254955 -0.5393215 -0.24270803 -0.49418047
000390 7b 8f cd be c6 7f 6d be 30 01 bc 3b ae 44 32 bf
       -0.4014853 -0.23193273 0.0057374462 -0.69636047
0003a0 1c c2 61 bf 29 0f 45 bf 9f 1b 12 bf 03 1d db be
       -0.8818681 -0.7697626 -0.57073396 -0.42795572
0003b0 04 96 5c 39 08 20 88 be eb 39 2c bf 5d 54 c5 be
       0.0002103672 -0.26586938 -0.67275876 -0.38540927
0003c0 91 3b 9a bb 1a 63 46 bf ae 60 5e be dc 00 5f be
       -0.004706808 -0.77494967 -0.21716568 -0.21777672
0003d0 ee 5c 87 3e 22 06 da ba d4 c8 50 bf 55 db 87 bb
       0.26438087 -0.0016633908 -0.8155644 -0.0041460195
0003e0 70 db 2a bf b4 79 92 ba 48 2e 96 39 1b 39 8a be
       -0.66741085 -0.0011175186 0.00028644712 -0.26996693
0003f0 2e 7f 0a 3e 92 aa 0a 3a 3c 8a b7 3c ff 39 87 3a
       0.13525078 0.0005289699 0.022404782 0.0010316967
