tests/resources/critic.pth (torch_old, 491014 bytes, 5 tensors)

fc2.weight f4 [300, 401]
0.71812814 0.106108375 -0.11532503 0.15419279 0.11420214 0.0143506825 0.14476027 -0.13910197
0.20659833 0.16326638 0.020915303 0.12922826 -0.11524475 -0.008591253 0.7918519 0.11698323
0.02708681 -0.034234047 0.18154788 -0.046062723 -0.027826535 0.032297775 0.17197298 -0.05411881
0.16951993 0.30073375 0.1626693 0.20667136 0.020057075 0.040103637 -0.03843141 -0.18611486
0.057329953 0.07248797 0.012960769 -0.1783064 0.090317786 0.071573004 0.011840036 -0.14664248
-0.05782587 0.00041732192 0.09168423 -0.15942281 0.21419398 0.008684672 0.045881633 0.033410363
0.23353484 0.1350205 0.1666604 -0.054933175 -0.006024435 0.09453951 0.3340407 0.06909944
0.114715286 -0.0032692975 0.05631126 0.183557 0.041564077 -0.057678465 0.113893725 -0.004484877
-0.0028549917 0.08950021 0.062876165 0.032917693 -0.055938087 1.1740719 0.04878957 0.17541115
0.2115497 0.12388655 -0.013257794 -0.0021634735 -0.022598982 0.04760681 0.15848483 -0.0038511194
0.07809192 0.1881604 0.061087307 0.5525233 0.08940381 0.025438786 0.17479163 -0.034977484
0.056722477 0.11645593 0.036008395 0.109520234 0.022694604 0.05751201 0.02084153 0.0073767304
0.03640568 -0.0039004446 -1.065256 -0.48240334 0.004816152 0.5139085 0.20896776 0.024379276
0.08790883 0.14939018 0.12175543 -0.011513896 0.0607788 0.9620289 0.10677767 0.035226844
-0.026229355 0.04654163 0.20183474 0.2527551 0.22193362 0.26636907 0.17658103 0.1669472
0.052430928 -0.07364132 0.038564034 0.21799515 -0.05173973 0.045429796 0.122229636 0.14532201
0.033417523 0.12440983 0.08444268 -0.11004996 0.0695369 0.065627426 0.14129703 0.066152
0.119118296 -0.035584517 0.1920467 0.4183924 0.079604685 0.14897965 -0.53453726 0.20718701
0.21848476 0.019668683 -0.2650863 0.033596523 0.045297444 -0.033850685 0.17065425 0.03800407
-0.12556374 -0.047054257 0.035044774 0.11552269 0.06226608 -0.053888775 0.03039693 0.031483144
0.007082968 0.09954518 0.2675981 0.12481286 0.14079344 -0.331656 0.0065175653 -0.45214406
0.2130011 0.15293741 -0.043733716 0.08748098 0.0047292826 0.91000956 0.052618228 0.0029504597
0.17970027 0.038723595 -0.04046479 -0.027190559 0.06213917 0.060133778 0.20815834 0.1910153
-0.047410443 0.056292694 -0.36129898 0.042004667 0.011342101 0.038802072 0.0310568 0.23383757
0.20816152 0.09035803 0.15438256 0.21814206 -0.21100424 -0.02057993 0.4290115 -0.05705723
0.055131137 0.12542398 -0.038347617 0.16263065 0.015364315 -0.091852926 0.017892342 0.02862598
0.122082844 0.14386901 0.04769405 0.20897952 -0.05268659 0.09980057 0.08579184 0.019333133
0.08871249 0.025892552 0.14827189 0.2285299 -0.01937339 0.087367535 0.04835657 0.17546956
0.16657 -0.3463277 0.18804549 0.13760214 0.09535539 -0.005515483 0.16094756 -0.04820851
-0.029901272 0.025121003 -0.005554989 2.8962307 -0.0152077675 -0.28592235 0.10128935 0.132837
-0.03375221 0.17565097 0.024799235 0.083243154 0.030570067 0.20212811 0.11994834 0.05941959
0.09442855 0.18516552 0.34867275 -0.035334796 -0.47106317 0.1398017 0.08104273 0.047426216
00000000: 3fd7 373f 594f d93d 882f ecbd b7e4 1d3e
00000010: d0e2 e93d 201f 6b3c 093c 143e bf70 0ebe
00000020: 838e 533e 4d2f 273e 9256 ab3c 6a54 043e
00000030: 7105 ecbd 54c2 0cbc ceb6 4a3f e794 ef3d
00000040: 28e5 dd3c 0039 0cbd b0e7 393e 44ac 3cbd
00000050: 79f4 e3bc ac4a 043d af19 303e afab 5dbd
00000060: a296 2d3e c6f9 993e c892 263e a8a1 533e
00000070: bc4e a43c b643 243d 416a 1dbd e594 3ebe
00000080: d0d2 6a3d 9374 943d 6859 543c f495 36be
00000090: 88f8 b83d de94 923d b6fc 413c 7229 16be
000000a0: d2da 6cbd 00cc da39 f1c4 bb3d bc3f 23be
000000b0: ab55 5b3e 284a 0e3c 61ee 3b3d 4ed9 083d
000000c0: c223 6f3e d042 0a3e 06a9 2a3e 9c01 61bd
000000d0: a068 c5bb ee9d c13d 6207 ab3e 0284 8d3d
000000e0: d9ef ea3d b641 56bb a3a6 663d 5ef6 3b3e
000000f0: 183f 2a3d 4140 6cbd 1d41 e93d e0f5 92bb
00000100: d01a 3bbb e34b b73d 38c5 803d b4d4 063d
00000110: 561f 65bd fd47 963f 92d7 473d fb9e 333e
00000120: 7ca0 583e 3bb8 fd3d 3837 59bc 10c9 0dbb
00000130: 8021 b9bc 5cff 423d d949 223e 1063 7cbb
00000140: a8ee 9f3d 1fad 403e af36 7a3d 2b72 0d3f
00000150: 5819 b73d 0065 d03c 94fc 323e 8d44 0fbd
00000160: d455 683d 7280 ee3d 8a7d 133d 254c e03d
00000170: 09ea b93c b791 6b3d dbbb aa3c 80b8 f13b
00000180: 1f1e 153d 9a9e 7fbb 4f5a 88bf 92fd f6be
00000190: d0d0 9d3b 828f 033f a5fb 553e 0cb7 c73c
000001a0: 8b09 b43d bdf9 183e e95a f93d c8a4 3cbc
000001b0: 31f3 783d 8747 763f 40ae da3d 064a 103d
000001c0: f2de d6bc 70a2 3e3d c4ad 4e3e 1e69 813e
000001d0: 9142 633e 8761 883e a8d1 343e 35f4 2a3e
000001e0: d0c1 563d 43d1 96bd 52f5 1d3d 1f3a 5f3e
000001f0: 0aed 53bd 9814 3a3d 8853 fa3d 4bcf 143e
00000200: d0e0 083d 95ca fe3d 49f0 ac3d e061 e1bd
00000210: 5d69 8e3d ac67 863d 2bb0 103e b37a 873d
00000220: 4bf4 f33d 12c1 11bd e4a7 443e 8737 d63e
00000230: c807 a33d 1f8e 183e 6fd7 08bf d528 543e
00000240: 78ba 5f3e 3820 a13c 64b9 87be 829c 093d
00000250: d089 393d 04a7 0abd fdbf 2e3e 28aa 1b3d
00000260: c893 00be f7bb 40bd 1c8b 0f3d 2997 ec3d
00000270: b80a 7f3d 7aba 5cbd fc02 f93c 78f4 003d
00000280: 3e18 e83b 58de cb3d 9e02 893e e29d ff3d
00000290: 282c 103e d1ce a9be 4d91 d53b 6d7f e7be
000002a0: f61c 5a3e a09b 1c3e 2022 33bd 3a29 b33d
000002b0: 19f8 9a3b 63f6 683f 3686 573d 805c 413b
000002c0: 5903 383e a29c 1e3d 68be 25bd bcbe debc
000002d0: a485 7e3d d64e 763d 7627 553e 8499 433e
000002e0: 7431 42bd 2b93 663d 2efc b8be 160d 2c3d
000002f0: 38d4 393c ecee 1e3d d56a fe3c 1e73 6f3e
00000300: 4b28 553e a10d b93d 7616 1e3e a260 5f3e
00000310: 7f11 58be 3e97 a8bc 65a7 db3e d8b4 69bd
00000320: 30d1 613d 256f 003e 6412 1dbd a688 263e
00000330: 9cba 7b3c 631d bcbd f692 923c 0881 ea3c
00000340: 9206 fa3d 6652 133e d65a 433d bafe 553e
00000350: e5cd 57bd 3e64 cc3d a2b3 af3d 8560 9e3c
00000360: e5ae b53d 9e1c d43c 96d4 173e be03 6a3e
00000370: f2b4 9ebc c0ed b23d 8a11 463d 4bae 333e
00000380: 5391 2a3e dd51 b1be ff8e 403e 93e7 0c3e
00000390: b049 c33d 3abb b4bb 70cf 243e 4976 45bd
000003a0: 83f3 f4bc 90ca cd3c a006 b6bb d85b 3940
000003b0: 002a 79bc 6a64 92be ca70 cf3d 6c06 083e
000003c0: c23f 0abd d9dd 333e c427 cb3c 637b aa3d
000003d0: 146e fa3c acfa 4e3e 7aa7 f53d f561 733d
000003e0: c163 c13d 089c 3d3e 3c85 b23e 38bb 10bd
000003f0: 312f f1be 2d28 0f3e bbf9 a53d fe41 423d

fc2.bias f4 [300]
0.22215849 -0.053045373 0.22261375 -0.00512645 -0.052172564 0.23707259 0.2651653 0.25484106
-0.00084322225 0.23248693 -0.073429324 0.25075215 0.24020141 -0.01631853 -0.0050214566 -0.027093997
0.26032194 -0.076276295 0.2569175 0.016845075 0.18821213 0.31057987 -0.07714308 0.27048367
0.23566093 0.25223053 -0.056957968 -0.033398107 0.295629 0.21439381 0.27226418 0.26337305
-0.029164376 -0.071872376 0.21625187 0.22150233 -0.07612881 -0.051191363 -0.040940307 0.28372997
0.2613668 0.2419481 0.022465061 0.22022025 0.0014986943 -0.033905815 -0.043579713 0.0032295876
-0.004821032 0.20046546 0.2461117 0.25700426 0.23347697 -0.0017886676 -0.054776955 -0.07804353
-0.03846653 -0.05440475 -0.0018494204 -0.0041654194 0.2311165 0.004247392 0.2774587 0.21448871
0.24861486 -0.026274413 0.1455849 0.041721463 0.27979752 0.27343252 0.016845353 -0.048591767
-0.015697297 0.25087819 0.00883461 -0.044812 -0.034632616 0.22100739 -0.05009968 0.25832778
-0.028466273 -0.007529809 -0.045377087 -0.05234686 0.24702716 0.23058228 0.279511 0.2153689
-0.0136156175 0.004377445 0.18438318 0.011632617 0.24758753 -0.08250663 0.27243376 0.28940848
0.26542765 0.20627213 0.29684755 0.24011648 0.22460066 0.2335083 0.023972567 -0.05415577
0.2986275 -0.04523783 0.28829885 0.27499267 0.022223882 0.27953336 0.3036156 0.34377825
0.28232196 -0.0347489 -0.07004038 0.23060884 0.22759409 0.21890478 0.20080413 0.20962673
0.26923263 -0.04316009 0.022009697 0.024374338 -0.058157317 0.28694886 0.26442248 -0.048426773
0.29547444 -0.080718786 -0.030853746 0.28052342 -0.06483359 -0.019178279 -0.027349422 0.28583172
0.2829932 -0.006218464 -0.00395321 -0.026079437 -0.04781574 -0.037970517 -0.039655037 0.19135188
-0.010667855 -0.056357786 -0.059166487 0.27484965 0.22890581 0.25780413 0.16938281 0.22356309
-0.018363528 -0.07567708 -0.021569302 -0.0012854658 0.27851152 0.30115148 0.26850677 -0.0108794235
-0.03326542 -0.0392498 0.02351671 -0.023484437 -0.024577692 0.27842328 0.24413231 -0.035061467
0.28822392 0.28963217 -0.008655941 -0.031837016 0.011261305 0.22609437 -0.056905977 0.20912705
0.28648537 -0.004343949 0.2698798 -0.027583757 0.08849844 0.3073176 0.2924221 0.3023733
0.30037677 0.28934842 -0.062422037 0.2452267 0.24101172 0.017888732 0.2888094 -0.046205208
-0.02248779 0.27402714 -0.016110593 0.2356284 0.24327847 -0.040767003 -0.037197765 -0.017199367
0.23361298 0.025946138 0.24853858 -0.030924853 0.2947106 -0.05604577 -0.027154721 -0.010201387
0.285191 -0.07846571 -0.011368368 -0.03344913 -0.12449372 0.21792331 -0.025648944 0.29850754
0.22816168 -0.027536068 0.2864254 0.04098877 -0.041445795 -0.0039519644 -0.048884973 0.22901723
0.24023391 0.2706181 0.2707061 0.25707713 0.2534469 -0.05350744 0.21288848 0.19578294
0.21952628 0.28499207 0.28548014 0.2436554 0.2543139 0.29199493 -0.02363465 -0.01559294
0.022904396 0.2527529 0.26332176 -0.016359199 0.21803395 -0.053167384 0.2453421 0.28786674
0.29870477 -0.03481891 0.26675874 0.2869268 0.29773867 0.019007932 0.29694566 -0.03493681
00000000: 847d 633e 1b46 59bd dcf4 633e c8fb a7bb
00000010: e6b2 55bd 28c3 723e bfc3 873e 877a 823e
00000020: b00b 5dba 0e11 6e3e 1d62 96bd 9662 803e
00000030: 5cf7 753e 70ae 85bc 088b a4bb 3bf4 ddbc
00000040: eb48 853e bf36 9cbd b18a 833e affe 893c
00000050: aeba 403e 5304 9f3e 31fd 9dbd d67c 8a3e
00000060: 1951 713e 5c24 813e c24c 69bd 74cc 08bd
00000070: af5c 973e 0d8a 5b3e 3666 8b3e d5d8 863e
00000080: 21ea eebc d331 93bd 2171 5d3e 82d1 623e
00000090: 6ce9 9bbd 09ae 51bd 06b1 27bd 0e45 913e
000000a0: dfd1 853e 3ec1 773e a608 b83c 6b81 613e
000000b0: d66f c43a d3e0 0abd a480 32bd 7da7 533b
000000c0: bff9 9dbb d146 4d3e b504 7c3e 1096 833e
000000d0: 9614 6f3e ba71 eaba cd5d 60bd 49d5 9fbd
000000e0: 158f 1dbd 84d7 5ebd 4068 f2ba 127e 88bb
000000f0: cea9 6c3e b52d 8b3b 110f 8e3e eea2 5b3e
00000100: e594 7e3e 703d d7bc 3514 153e 20e4 2a3d
00000110: 9f41 8f3e 59ff 8b3e 44ff 893c 2908 47bd
00000120: 9e97 80bc 1b73 803e 0abf 103c ca8c 37bd
00000130: eeda 0dbd c34f 623e 5235 4dbd 8a43 843e
00000140: 1a32 e9bc 9ebc f6bb 53dd 39bd a969 56bd
00000150: b0f4 7c3e c31d 6c3e 111c 8f3e aa89 5c3e
00000160: 0a14 5fbc ac70 8f3b f2ce 3c3e bb96 3e3c
00000170: 9687 7d3e 3cf9 a8bd 707c 8b3e 592d 943e
00000180: 22e6 873e 0039 533e 67fc 973e 18e1 753e
00000190: b7fd 653e cd1c 6f3e 1e62 c43c 71d2 5dbd
000001a0: b4e5 983e 4e4b 39bd e89b 933e d7cb 8c3e
000001b0: dc0e b63c ff1e 8f3e 8173 9b3e b403 b03e
000001c0: 818c 903e dd54 0ebd 5571 8fbd b924 6c3e
000001d0: 6d0e 693e 9328 603e 999f 4d3e 64a8 563e
000001e0: dcd8 893e a2c8 30bd ae4d b43c b1ac c73c
000001f0: 5e36 6ebd f6ea 923e 6262 873e 275b 46bd
00000200: 6d48 973e e44f a5bd ffc0 fcbc c4a0 8f3e
00000210: 79c7 84bd c41b 9dbc e50b e0bc 8958 923e
00000220: 7ce4 903e 42c4 cbbb ee89 81bb 8ba4 d5bc
00000230: 70da 43bd f986 1bbd 526d 22bd bff1 433e
00000240: 3ac8 2ebc 6cd7 66bd 8f58 72bd 18b9 8c3e
00000250: 4966 6a3e e7fe 833e b072 2d3e b9ed 643e
00000260: 1c6f 96bc 96fc 9abd 1bb2 b0bc 137d a8ba
00000270: 1099 8e3e 8730 9a3e b879 893e 9c3f 32bc
00000280: 5241 08bd 66c4 20bd 1ea6 c03c 6f62 c0bc
00000290: 2857 c9bc 7f8d 8e3e d2fd 793e 9d9c 0fbd
000002a0: 1692 933e ab4a 943e a6d1 0dbc 8867 02bd
000002b0: 5681 383c 4885 673e 3e16 69bd 6725 563e
000002c0: 36ae 923e af57 8ebb af2d 8a3e 55f7 e1bc
000002d0: ac3e b53d bc58 9d3e 59b8 953e acd0 9a3e
000002e0: fcca 993e 7a25 943e 40ae 7fbd b51c 7b3e
000002f0: c7cb 763e 648b 923c d3de 933e ac41 3dbd
00000300: 5038 b8bc 494d 8c3e 5dfa 83bc 9248 713e
00000310: fe1d 793e 4dfb 26bd af5c 18bd b0e5 8cbc
00000320: 3e38 6f3e ff8c d43c e680 7e3e 1e56 fdbc
00000330: 4fe4 963e 4090 65bd 9473 debc b823 27bc
00000340: 8e04 923e a1b2 a0bd 6442 3abc f401 09bd
00000350: 90f6 febd 4a27 5f3e bc1d d2bc fbd5 983e
00000360: 37a3 693e 5293 e1bc 5aa6 923e d7e3 273d
00000370: 11c3 29bd 7b7f 81bb 9c3b 48bd 7e83 6a3e
00000380: e1ff 753e 758e 8a3e fd99 8a3e 9d9f 833e
00000390: cbc3 813e 9e2a 5bbd 70ff 593e 537b 483e
000003a0: 7fcb 603e 7bea 913e 742a 923e cd80 793e
000003b0: 6e35 823e 5c80 953e 749d c1bc 8879 7fbc
000003c0: 00a2 bb3c d468 813e 1cd2 863e ba03 86bc
000003d0: 4b44 5f3e 0bc6 59bd f63a 7b3e 4563 933e
000003e0: d5ef 983e 469e 0ebd 9a94 883e 12e8 923e
000003f0: 3471 983e 86b6 9b3c 4309 983e e719 0fbd

fc3.weight f4 [1, 300]
-0.14045404 0.01788137 -0.115804136 -0.0025430687 0.007400507 -0.11226388 -1.120519 -0.12465261
-0.0052921907 -0.1387936 0.024930649 -0.12574193 -0.12348679 -0.0066371458 0.00057482417 -0.0058988035
-0.11358735 -0.026657246 -0.12862045 -0.02911683 -0.11433635 -0.28062835 0.006898176 -0.14640678
-0.12691766 -0.122154206 -0.0071872165 -0.002744733 -0.1450958 -0.13052836 -0.1254125 -0.14233445
-0.0067462386 0.030276105 -0.12948273 -0.11088058 0.0024347384 0.018357791 -0.002124679 -0.117555946
-0.13100882 -0.11738712 -0.0054335794 -0.14891203 -0.0025109746 0.019090403 -0.008893864 -0.0061517907
0.0063743377 -0.13055378 -0.12176602 -0.118148334 -0.13930827 0.029295944 -0.008536956 0.030554062
-0.0009667515 0.011529983 0.018504191 -0.007082235 -0.1316079 -0.030551426 -0.13389337 -0.13340233
-0.11884256 -0.016632905 3.0074701 -0.0053067557 -0.1242744 -0.28186634 -0.004274397 0.008415559
0.008690695 -0.12085359 -0.007889957 -0.004852231 -0.0035140815 -0.1239546 0.005424329 -0.13720497
0.013823459 -0.009589969 -0.0092107905 0.007522549 -0.12092438 -0.12984678 -0.14065745 -0.12770592
-0.01867571 0.023565331 5.6343055 -0.00534712 -0.13470028 0.0047384403 -0.12114586 -0.14653002
-0.12813744 -0.13429007 -0.1372648 -0.1200407 -0.13132544 -0.12945306 -0.0038296594 -0.0044968515
-0.27975485 0.0027450896 -0.13388416 -0.14061457 0.03399842 -0.12613657 -0.13513224 3.2453887
-0.1247035 0.029572815 -0.0304001 -0.13850558 -0.13078961 -0.13617003 -0.11969511 -0.12330539
-0.12457749 0.009217635 0.0061275787 -0.0039388374 0.028732415 -0.14037792 -0.13427465 0.025520539
-0.12969492 0.010233267 0.03207251 3.844427 0.028620178 0.027001113 -0.009874852 -0.1349804
-0.1384417 0.021161744 0.03598512 -0.0040967353 0.010956463 0.00086376234 0.025165308 -0.10975361
-0.005739375 -0.008166981 -0.039726615 -1.1212834 -0.11646646 -0.13248552 5.2572756 -0.1329089
0.02467491 0.027203737 -0.028951278 0.0030965768 -0.11821715 -0.1405412 -0.73032665 -0.008539982
-0.031155497 -0.003991648 -0.0028422826 -0.020816326 -0.005403181 -0.1251154 -0.13234504 0.026098724
-0.1343195 -0.13185258 -0.0045162737 0.009517774 -0.0059367227 -0.1316568 -0.0086802635 -0.12532158
-0.12845384 -0.010301454 -0.12876232 -0.030064577 -0.8889057 -0.14464475 -0.123676546 -0.13725302
-1.4807094 -0.13262889 -0.027139615 -1.0067906 -0.12739974 -0.005652774 -0.13458288 -0.006243469
0.023169996 -0.13097745 -0.021347133 -0.115803756 -0.1033117 -0.029241087 0.0029357527 -0.0024703841
-0.12718658 0.015083502 -0.12829259 -1.1262699 -0.12280119 -0.028747875 0.0055366755 -0.01732818
-0.13828763 -0.027088035 0.020932972 -0.010007126 -0.3813837 -0.12512976 -0.0123729 -0.14532948
-0.13381597 0.010604299 -0.12950447 -0.004341712 -0.007088381 -0.008584819 -0.005920775 -0.12576185
-0.1260086 -0.12542878 -0.10477788 -0.12073312 -0.12241859 0.038758665 -0.116898365 -0.11235487
-0.13567549 -0.11819459 -0.12315277 -0.11287436 -0.111325465 -0.14498088 -0.007215002 -0.0049090227
-0.0052617784 -0.124713734 -0.2952189 0.012812955 -0.11091857 0.027858678 -0.14440876 -0.12722711
-0.12796304 -0.0310036 -0.14477064 -0.14324506 -0.13249527 -0.0052955933 -0.12788612 -0.02497601
00000000: 2fd3 0fbe f37b 923c b82a edbd 9da9 26bb
00000010: f47f f23b 9bea e5bd 2b6d 8fbf de49 ffbd
00000020: 1d6a adbb e91f 0ebe 5c3b cc3c 7ec2 00be
00000030: a4e6 fcbd 6a7c d9bb ccaf 163a c04a c1bb
00000040: 7ca0 e8bd 4c60 dabc 14b5 03be 6b86 eebc
00000050: 2d29 eabd 85ae 8fbe 180a e23b a9eb 15be
00000060: b4f6 01be fc2b fabd be82 ebbb fae0 33bb
00000070: fe93 14be 3aa9 05be 226c 00be 1fc0 11be
00000080: 8d0f ddbb 9805 f83c 1f97 04be 5c15 e3bd
00000090: 2290 1f3b 1463 963c 333e 0bbb 2cc1 f0bd
000000a0: 2d27 06be a968 f0bd 2b0c b2bb 657c 18be
000000b0: 2a8f 24bb 7a63 9c3c 92b7 11bc f694 c9bb
000000c0: d2df d03b e4af 05be 7760 f9bd c1f7 f1bd
000000d0: d4a6 0ebe 0cfe ef3c 97de 0bbc 834c fa3c
000000e0: 986d 7dba 41e8 3c3c 1a96 973c 1812 e8bb
000000f0: 39c4 06be fc46 fabc 581b 09be 9f9a 08be
00000100: ba63 f3bd bb41 88bc 647a 4040 4be4 adbb
00000110: 9483 febd c950 90be 3e10 8cbb 6ae1 093c
00000120: 6b63 0e3c 1682 f7bd e144 01bc 77ff 9ebb
00000130: 814c 66bb e9db fdbd 92be b13b 767f 0cbe
00000140: ca7b 623c 3f1f 1dbc dbe8 16bc b77f f63b
00000150: 34a7 f7bd 8ef6 04be 8208 10be 57c5 02be
00000160: cdfd 98bc 150c c13c 3b4c b440 e536 afbb
00000170: dfee 09be eb44 9b3b 521b f8bd f70b 16be
00000180: 7636 03be 5683 09be 258f 0cbe e6d7 f5bd
00000190: 2d7a 06be 588f 04be 06fb 7abb 535a 93bb
000001a0: 073c 8fbe f6e6 333b ee18 09be 44fd 0fbe
000001b0: ed41 0b3d f229 01be 1b60 0abe 73b4 4f40
000001c0: 8c64 ffbd b042 f23c a109 f9bc 68d4 0dbe
000001d0: b6ed 05be 2870 0bbe b622 f5bd 8987 fcbd
000001e0: 7c22 ffbd 9005 173c dbc9 c83b 5d11 81bb
000001f0: 3e60 eb3c 3bbf 0fbe 4b7f 09be 7310 d13c
00000200: bfce 04be 6fa9 273c 775e 033d 180b 7640
00000210: dd74 ea3c 7031 dd3c 22ca 21bc 4d38 0abe
00000220: a9c3 0dbe 655b ad3c 2265 133d e83d 86bb
00000230: bd82 333c 1c6e 623a 7a27 ce3c 80c6 e0bd
00000240: 5e11 bcbb cdce 05bc 60b8 22bd 3786 8fbf
00000250: f885 eebd 49aa 07be 9a3b a840 4519 08be
00000260: 0923 ca3c 5fda de3c 3b2b edbc f0ef 4a3b
00000270: d51b f2bd 08ea 0fbe b0f6 3abf 48eb 0bbc
00000280: d039 ffbc 5fcc 82bb 9745 3abb 0087 aabc
00000290: 2b0d b1bb 401e 00be 7585 07be fecc d53c
000002a0: 0d8b 09be 5d04 07be 40fd 93bb 70f0 1b3c
000002b0: d788 c2bb 0ad1 06be aa37 0ebc 4d54 00be
000002c0: 6789 03be 6ec7 28bc 45da 03be fd49 f6bc
000002d0: 538f 63bf c11d 14be 214a fdbd 0e8c 0cbe
000002e0: e387 bdbf decf 07be e653 debc 84de 80bf
000002f0: 1475 02be e83a b9bb 18d0 09be 0496 ccbb
00000300: 01cf bd3c f41e 06be 2fe0 aebc 852a edbd
00000310: 1695 d3bd 018b efbc c265 403b 2be6 21bb
00000320: 333d 02be cb20 773c 225f 03be 9d29 90bf
00000330: 317f fbbd aa80 ebbc 006d b53b d4f3 8dbc
00000340: 469b 0dbe bae7 ddbc a07b ab3c eef4 23bc
00000350: b944 c3be 0422 00be b4b7 4abc 40d1 14be
00000360: 0e07 09be a7bd 2d3c d29c 04be ec44 8ebb
00000370: a645 e8bb 57a7 0cbc 0f03 c2bb b7c7 00be
00000380: 6608 01be 6770 00be c995 d6bd ed42 f7bd
00000390: 99b6 fabd 68c1 1e3d 6968 efbd 4f1a e6bd
000003a0: 84ee 0abe 0110 f2bd 8537 fcbd ac2a e7bd
000003b0: 9bfe e3bd de75 14be d36b ecbb dedb a0bb
000003c0: ff6a acbb ea69 ffbd ef26 97be 6eed 513c
000003d0: 4629 e3bd e237 e43c e4df 13be d347 02be
000003e0: be08 03be 43fb fdbc c13e 14be d5ae 12be
000003f0: d7ac 07be a886 adbb 94f4 02be 7d9a ccbc

fc1.weight f4 [400, 3]
-0.5644633 0.015951013 0.04135043 -0.09309849 0.093554705 -0.025313446 0.12547001 0.1746741
0.2863599 0.20888428 -0.5070305 0.013941102 -0.15584517 0.5993085 0.12187087 -0.04420924
-0.046505243 0.011546064 -0.4120748 0.07321619 -0.14487848 -0.6916383 1.07563 -0.28978252
-0.116264485 -0.029090194 -0.093476996 0.23669334 0.99053174 -0.07413417 -1.1024004 -0.3953806
-0.19177113 -0.34492055 0.30873182 0.073715396 -0.8420165 0.7325727 -0.20723204 0.03618748
0.015272427 -0.0021772794 -0.4426559 0.017578673 -0.0009196026 0.0006732689 0.16783272 -0.009773079
0.010120012 -0.010834448 -0.031506717 -0.021921534 0.010201938 -0.0064378865 0.21923588 -0.5073204
0.012663445 -0.0014214925 -0.008267444 -0.008438081 0.0344651 -0.029624779 -0.019784361 0.034577306
0.015000474 0.021875892 0.22028679 -0.63468146 0.016553478 0.0065713935 0.031338725 -0.029029047
-0.0062580886 -0.74928445 -0.1086339 -0.63910455 -1.0138884 -0.1843254 0.5452844 0.4796559
0.02074696 -0.48698738 0.9769061 0.08184036 0.018389102 0.02300005 -0.049140245 -0.031056035
-0.03931442 -0.034317307 -0.01930523 0.026697222 0.035296295 0.17774156 0.60395056 -0.2366687
0.033272076 -0.026194816 -0.04298689 -0.1335761 0.17132993 -0.021561524 0.040351022 -0.03426482
0.004021276 0.34539276 0.15463565 -0.22736068 -0.8564913 -0.088431545 -0.058538347 -0.10855478
0.29365352 -0.043399245 0.025084559 -0.026973877 -0.024627777 -0.5231673 0.86433345 -0.010492219
-0.072837636 0.87213403 -0.06316505 -0.040628653 0.03890184 0.022878055 0.05465925 0.6528864
-0.08178512 0.013373436 -0.63145036 -0.23513663 -0.53140754 1.142432 0.20247497 -0.042619843
-0.043431878 0.02077775 -0.06584081 0.17182416 -0.030184934 -0.5030873 1.7021056 -0.95551157
-0.029354684 -0.21866636 -0.010877626 0.3117118 -0.34557033 0.016584367 -0.29409975 0.41639024
0.08398822 0.026010413 -0.0075901262 -0.027397407 -0.03741319 0.023740005 0.016609173 -0.07116913
0.110444 -0.029698618 0.853156 -0.06484925 0.017884975 0.053756405 0.010512077 -0.036187235
0.0066980617 0.8098361 -0.04861919 -0.15342362 0.23395371 -0.047633257 -0.54308003 -0.327801
-0.17113553 -0.6635784 0.037961423 -0.17011705 0.014708642 0.034379836 0.009843916 0.008296788
0.02948976 -0.033331133 -0.14501904 0.5682385 0.115000136 0.0069031715 -0.038764685 -0.020030607
-0.015740253 -0.043558028 -0.040813856 -0.32475603 0.2409738 0.0815279 -0.004868087 0.005825227
0.03143924 -0.17403857 0.41590577 -0.053740766 0.032893483 0.03715865 -0.0342917 1.3052257
-0.37280908 -0.24777783 0.0008998737 -0.044816144 -0.0040912107 -0.37196383 -0.019505449 -0.13267894
-0.19839324 -0.022685962 -0.11184628 0.2690235 1.0369724 -0.11135192 -0.36789754 -1.7203766
-0.3699612 0.04793256 0.022759255 -0.039121337 -0.040432196 -0.038507987 -0.008083351 0.038139466
0.008459706 0.021327268 -0.28694406 0.26393807 0.089902036 0.01275548 0.03619564 -0.006409634
-0.15563805 0.22190762 -0.023482572 -0.02620903 -0.7012669 0.07462443 0.066554815 -0.00951797
-0.003782656 0.6196388 -1.2413096 -0.3131045 -0.065736726 0.2984677 -0.03069373 0.0427129
00000000: ab80 10bf b3ab 823c 125f 293d 6caa bebd
00000010: 9c99 bf3d 255e cfbc 367b 003e c4dd 323e
00000020: c49d 923e c3e5 553e c0cc 01bf 3869 643c
00000030: e095 1fbe 486c 193f 6f97 f93d bf14 35bd
00000040: 487c 3ebd b42b 3d3c 78fb d2be 5ff2 953d
00000050: 065b 14be 350f 31bf 3eae 893f 605e 94be
00000060: 131c eebd 8f4e eebc de70 bfbd bd5f 723e
00000070: 7d93 7d3f a8d3 97bd 751b 8dbf 536f cabe
00000080: a75f 44be 6d99 b0be 1912 9e3e 19f8 963d
00000090: 658e 57bf e289 3b3f a334 54be 5339 143d
000000a0: 3439 7a3c b0b0 0ebb cba3 e2be 2601 903c
000000b0: 7c11 71ba 507e 303a 57dc 2b3e 441f 20bc
000000c0: 68ce 253c f882 31bc 300d 01bd ca94 b3bc
000000d0: 0826 273c e8f4 d2bb 5f7f 603e c0df 01bf
000000e0: 577a 4f3c 6051 baba 2c74 07bc e03f 0abc
000000f0: 472b 0d3d aaaf f2bc d012 a2bc efa0 0d3d
00000100: 8cc4 753c 1235 b33c dc92 613e 7c7a 22bf
00000110: 299b 873c d854 d73b 095d 003d 53ce edbc
00000120: a710 cdbb 1bd1 3fbf 737b debd 5b9c 23bf
00000130: 18c7 81bf ccbf 3cbe c297 0b3f 7595 f53e
00000140: 87f5 a93c 6956 f9be 8516 7a3f eb9b a73d
00000150: bea4 963c 9a6a bc3c 4847 49bd 3a69 febc
00000160: 2808 21bd 4e90 0cbd 0026 9ebc 22b4 da3c
00000170: d992 103d e201 363e 819c 1a3f 4859 72be
00000180: 4d48 083d 8396 d6bc 0513 30bd 2cc8 08be
00000190: 1d71 2f3e cba1 b0bc 1d47 253d 4559 0cbd
000001a0: e8c4 833b 52d7 b03e cf58 1e3e 3dd1 68be
000001b0: 0443 5bbf 991b b5bd e8c5 6fbd f851 debd
000001c0: c159 963e 68c3 31bd 227e cd3c 52f8 dcbc
000001d0: 31c0 c9bc 4bee 05bf f544 5d3f 8ee7 2bbc
000001e0: e62b 95bd 2d44 5f3f ae5c 81bd 3b6a 26bd
000001f0: 8957 1f3d c26a bb3c 61e2 5f3d 9023 273f
00000200: f57e a7bd 421c 5b3c bba6 21bf a8c7 70be
00000210: 530a 08bf 363b 923f 9955 4f3e 2592 2ebd
00000220: a0e5 31bd 1a36 aa3c 8cd7 86bd acf2 2f3e
00000230: 6546 f7bc 54ca 00bf 99de d93f 689c 74bf
00000240: 3c79 f0bc 13ea 5fbe 1238 32bc b098 9f3e
00000250: 98ee b0be f0db 873c 3e94 96be 1a31 d53e
00000260: 0402 ac3d ca13 d53c 98b6 f8bb 8770 e0bc
00000270: 933e 19bd 667a c23c f60f 883c 1fc1 91bd
00000280: 7730 e23d 844a f3bc 6e68 5a3f afcf 84bd
00000290: 8383 923c ad2f 5c3d d93a 2c3c 1139 14bd
000002a0: 6a7b db3b 6b51 4f3f ea24 47bd 151b 1dbe
000002b0: 9091 6f3e 171b 43bd 4b07 0bbf 88d5 a7be
000002c0: 273e 2fbe 46e0 29bf 707d 1b3d 2a33 2ebe
000002d0: 84fc 703c dfd1 0c3d 6048 213c 40ef 073c
000002e0: 8294 f13c 3a86 08bd df7f 14be 1478 113f
000002f0: 3185 eb3d 0034 e23b b8c7 1ebd 3a17 a4bc
00000300: b4f1 80bc e769 32bd 6e2c 27bd 6c46 a6be
00000310: d6c1 763e 1af8 a63d 7984 9fbb 8ce1 be3b
00000320: 6fc6 003d 2b37 32be 9af1 d43e 471f 5cbd
00000330: 51bb 063d ab33 183d 7475 0cbd a311 a73f
00000340: d5e0 bebe 79b9 7dbe 80e5 6b3a 2291 37bd
00000350: 900f 86bb 0b72 bebe e4c9 9fbc fddc 07be
00000360: 9927 4bbe e9d7 b9bc aa0f e5bd 73bd 893e
00000370: 83bb 843f 7a0c e4bd 115d bcbe 4d35 dcbf
00000380: 8e6b bdbe ef54 443d 9e71 ba3c b23d 20bd
00000390: 3b9c 25bd 8dba 1dbd 0870 04bc 2138 1c3d
000003a0: 949a 0a3c 86b6 ae3c 55ea 92be e422 873e
000003b0: 8f1e b83d 5cfc 503c e141 143d e807 d2bb
000003c0: 955f 1fbe c03b 633e 865e c0bc 52b4 d6bc
000003d0: 3a86 33bf b1d4 983d e44d 883d 42f1 1bbc
000003e0: 70e6 77bb a6a0 1e3f 3ce3 9ebf 3c4f a0be
000003f0: faa0 86bd c2d0 983e 6b71 fbbc b9f3 2e3d

fc1.bias f4 [400]
-0.4940191 0.4927101 0.16202606 0.4441477 0.12062019 -0.45445186 0.59442025 -0.6963062
0.556651 -0.16237263 0.22332011 0.13364226 -0.49117318 -0.21624646 -0.45516014 0.49364161
-0.30771 -0.080426335 0.43551373 -0.31904417 -0.4999559 -0.50319576 0.5578168 -0.2594539
0.2584651 0.03972623 -0.33622688 -0.05133229 -0.5085116 -0.486234 -0.42814198 0.44123682
-0.4656543 0.4644447 -0.39327732 0.5607586 0.18451054 0.36839864 -0.3865348 -0.40837294
0.25526106 -0.2979961 0.27723777 0.2949533 0.026569838 -0.41349167 0.3919064 -0.026098287
-0.30924106 0.4520115 0.071056515 -0.22084326 -0.4410186 0.41827872 0.27579695 -0.27103382
0.30782193 0.31558424 0.54817283 0.6179026 -0.45190847 -0.5526156 0.111176 -0.41264048
-0.52523077 0.20070046 -0.31267285 0.31903648 -0.47309703 -0.88948107 -0.41408575 0.634628
0.57713145 -0.19664106 0.011207372 -0.5518018 -0.3175722 -0.19352022 0.24959442 -0.16065773
0.35195947 0.29901436 -0.22339433 -0.62043625 0.23941566 -0.35177338 0.20277892 -0.47868407
0.48088816 0.50870633 -0.3955187 0.3730935 0.045013137 0.025645046 0.292863 -0.35576844
0.1237222 -0.30763638 -1.3738304 -0.43985406 -0.3973016 -0.37160447 0.69096494 -0.35497034
-0.30731803 0.26527575 0.44925252 -0.47061455 0.28538612 -1.0686394 0.21497911 -0.32177368
-0.50709474 -0.2655806 0.38872305 -0.020056859 0.42310002 0.63582736 0.43097004 0.27340168
-0.5554082 0.12726063 -0.2883708 0.47757116 -0.42429203 -0.51661 0.41492277 -0.18415251
-0.55342025 0.5274538 0.19651397 -0.114641644 0.015634887 0.25731555 0.29410854 -0.39697
0.5426679 -0.49279177 0.6502364 -0.012950355 0.44966123 -0.115046896 -0.19238612 -0.34594664
0.48674414 -0.5191728 0.4207179 -0.55087614 -0.3290128 -0.19638059 0.596979 -0.4612951
0.09497706 -0.19889432 -0.28383428 0.4211132 0.40013045 -0.45849818 -0.26033306 -0.17065355
-0.16517259 0.27166474 0.27975515 0.4988577 0.5051045 0.04477475 0.090424486 -0.4222307
-0.0713577 0.20892198 -0.2668319 0.43046522 -0.19032966 -0.502514 -0.42648473 -0.21749228
0.38376504 -0.5023136 -0.2362197 -0.3746826 0.47495633 0.3968377 0.5368886 0.14967142
-0.26283878 -0.11165162 0.24415714 -0.5188243 -0.43852192 -0.45815623 -0.017190767 0.6031674
0.6308296 -0.07216376 0.4385463 0.64125246 0.108164854 -0.37601987 -0.24032587 -0.4388687
-0.47907776 0.5182396 -0.5609738 0.4843659 0.62014854 0.25570527 0.06840377 -0.33968544
0.24092738 -0.00777836 -0.48157954 -0.40669003 -0.3403646 0.56858706 0.2905604 0.30114916
-0.1862921 0.37685847 0.587681 -0.3954844 -0.15573755 0.2821917 0.41199985 0.6121349
0.37596613 -0.21680972 0.5491454 0.4277036 -0.45759177 -0.23067875 0.62308717 -0.36441153
-0.3021363 -0.40578958 -0.5423882 -1.9663877 -0.5607523 -0.49050155 0.46122435 0.46847165
-0.50206584 0.48241055 -0.5523998 0.1653041 -0.14572516 0.5272883 0.1962388 -0.20200834
0.50144625 0.44700024 0.043909654 -0.1004831 0.23172803 0.56985784 0.35251737 -0.37795427
00000000: 12f0 fcbe 8044 fc3e 29ea 253e 5467 e33e
00000010: b807 f73d eaad e8be ed2b 183f 2041 32bf
00000020: ae80 0e3f 0345 26be 07ae 643e 84d9 083e
00000030: 0d7b fbbe b66f 5dbe c00a e9be 98be fc3e
00000040: 2a8c 9dbe 90b6 a4bd a8fb de3e c259 a3be
00000050: 38fa ffbe 70d1 00bf 15cd 0e3f 24d7 84be
00000060: 8a55 843e f9b7 223d ee25 acbe cf41 52bd
00000070: d12d 02bf aaf3 f8be 6d35 dbbe cbe9 e13e
00000080: 3e6a eebe b2cb ed3e a55b c9be e08d 0f3f
00000090: 55f0 3c3e bf9e bc3e e4e7 c5be 4216 d1be
000000a0: 94b1 823e f292 98be 1cf2 8d3e 1e04 973e
000000b0: fda8 d93c 2eb5 d3be f5a7 c83e 13cc d5bc
000000c0: d854 9ebe 0d6e e73e 1486 913d bc24 62be
000000d0: 31cd e1be a128 d63e 4235 8d3e f2c4 8abe
000000e0: d69a 9d3e 4294 a13e 0e55 0c3f dd2e 1e3f
000000f0: 8c60 e7be 3778 0dbf 3eb0 e33d 9d45 d3be
00000100: 8675 06bf 6c84 4d3e a816 a0be c058 a33e
00000110: c639 f2be 08b5 63bf 0c03 d4be fb76 223f
00000120: e3be 133f 465c 49be 209f 373c e242 0dbf
00000130: d398 a2be 2a2a 46be ae95 7f3e 7683 24be
00000140: 0834 b43e 6918 993e 7cc1 64be e9d4 1ebf
00000150: 6129 753e a41b b4be 47a5 4f3e 1416 f5be
00000160: f936 f63e 943a 023f 6d81 cabe 1c06 bf3e
00000170: b25f 383d 8f15 d23c 24f2 953e 4827 b6be
00000180: 1162 fd3d 8482 9dbe add9 afbf 8d34 e1be
00000190: 1e6b cbbe f142 bebe 14e3 303f acbe b5be
000001a0: ca58 9dbe 39d2 873e 6d04 e63e 64f4 f0be
000001b0: 211e 923e 2dc9 88bf 7c23 5c3e 85bf a4be
000001c0: f6d0 01bf 2efa 87be b506 c73e 484e a4bc
000001d0: 91a0 d83e 95c5 223f 1ba8 dc3e 4efb 8b3e
000001e0: 3b2f 0ebf 9c50 023e 56a5 93be 3584 f43e
000001f0: ce3c d9be 8e40 04bf c270 d43e 7a92 3cbe
00000200: f3ac 0dbf 3607 073f f53a 493e 3dc9 eabd
00000210: bc14 803c ddbe 833e 6595 963e a73f cbbe
00000220: 49ec 0a3f 344f fcbe e575 263f ba2d 54bc
00000230: ff39 e63e b59d ebbd de00 45be eb1f b1be
00000240: 8736 f93e 82e8 04bf 5668 d73e 3806 0dbf
00000250: 5e74 a8be fe17 49be 9ed3 183f df2e ecbe
00000260: 5583 c23d f4aa 4bbe ba52 91be 269c d73e
00000270: e6dd cc3e 46c0 eabe 604a 85be cebf 2ebe
00000280: 0123 29be a417 8b3e 113c 8f3e 476a ff3e
00000290: 874e 013f ba65 373d 7930 b93d 9f2e d8be
000002a0: fc23 92bd a5ef 553e 319e 88be f065 dc3e
000002b0: c7e5 42be c2a4 00bf 355c dabe 4cb6 5ebe
000002c0: da7c c43e a097 00bf 94e3 71be 66d6 bfbe
000002d0: 7a2d f33e 502e cb3e 8871 093f 7743 193e
000002e0: ce92 86be 9ba9 e4bd 5404 7a3e abd1 04bf
000002f0: f285 e0be 7493 eabe a7d3 8cbc 2e69 1a3f
00000300: 0c7e 213f 98ca 93bd 2489 e03e 1f29 243f
00000310: 8985 dd3d ad85 c0be fc17 76be 66b3 e0be
00000320: ae49 f5be 5aab 043f fb9b 0fbf cffe f73e
00000330: 0ec2 1e3f cdeb 823e 4717 8c3d 40eb adbe
00000340: abb5 763e 9de1 febb 9891 f6be ad39 d0be
00000350: 4544 aebe ec8e 113f 55c4 943e 3930 9a3e
00000360: 5bc3 3ebe 98f3 c03e 4372 163f ee7c cabe
00000370: aa79 1fbe 6e7b 903e a5f1 d23e dfb4 1c3f
00000380: a27e c03e 5e03 5ebe cb94 0c3f f7fb da3e
00000390: 7849 eabe 0d37 6cbe a482 1f3f 2694 babe
000003a0: 9cb1 9abe a7c3 cfbe f4d9 0abf 98b2 fbbf
000003b0: 768d 0fbf 0523 fbbe 9925 ec3e 84db ef3e
000003c0: 6387 00bf 84fe f63e 136a 0dbf 7a45 293e
000003d0: fa38 15be 5efc 063f d3f2 483e 46db 4ebe
000003e0: c85e 003f 37dd e43e 9cda 333d 15ca cdbd
000003f0: 1d4a 6d3e 34e2 113f 287d b43e 3983 c1be
