data/checkpoint.pth (torch_old, 28405 bytes, 6 tensors)

fc1.weight f4 [64, 37]
-0.047104474 0.056026608 -0.20539579 -0.2983394 0.07727937 -0.13089056 0.14198406 0.19297147
-0.15430878 -0.3930454 -0.038361024 0.053701654 -0.6338517 -0.10021302 0.27550587 0.061579447
0.11788583 -0.36331138 -0.43992534 0.13966508 -0.11686654 0.047662467 0.43660012 -0.67643523
0.043208018 -0.24413228 0.03426432 0.1484718 -0.73377657 0.03859889 -0.17361881 0.10021974
0.23996225 -0.45031238 -0.5559023 -0.09954658 -0.06911361 -0.088730544 0.041807983 0.20056328
-0.08568417 -0.11611522 -0.096802354 -0.12657814 0.021296958 -0.18499655 -0.8081995 -0.13346994
0.096373096 0.09173074 -0.36333984 0.2416186 -0.18167906 0.0011859153 0.13711625 0.05284502
0.0996948 -0.10117783 -0.12670738 -0.16451547 -0.06431939 0.020149285 -0.15448879 -0.012097465
-0.11617884 0.08402902 -0.347921 0.036919672 0.13056055 0.074610755 -0.29317948 0.3932944
0.014870106 0.028366381 -0.101570174 -0.055265125 0.11243266 0.35673434 -0.0074588293 -1.0067717
-0.31304488 0.41050068 -0.06422415 -0.5914594 -0.2996427 -0.044115495 -0.03733834 0.020240907
0.071160845 -0.46590632 -0.0015081447 0.23201194 0.020627804 -0.0039327126 -0.5443125 -0.2278778
0.18460408 -0.013970572 0.021245375 -0.8048344 0.13364293 0.25736156 -0.40508628 -0.48036337
-0.3123545 0.028450126 -0.31666836 0.15144973 0.22380868 0.0797167 0.0004999309 0.054003693
0.28005823 0.0029458152 0.06699178 -0.34957775 0.061775815 -0.49615237 0.24378972 -0.21151648
-1.1922532 0.00032958793 -0.022769714 -0.046913102 0.037157178 -0.01171146 0.090567395 -0.041985404
-0.017388446 -0.7050396 -1.4197863 -0.06792684 0.14247589 0.060029034 0.05971857 -0.21182005
0.01116477 -0.3467797 0.43289626 -0.5829549 -1.9672949 0.31958595 -0.21025576 0.24886389
-0.9414963 -3.0057142 0.06587221 -0.027519444 -0.09739501 -0.0882755 -0.7492784 -0.18898036
-0.09729053 -0.04703185 0.14725725 -0.10373398 -0.22072412 -0.5517983 0.13919187 -0.4202363
-0.096621506 -0.573886 -0.6457626 -0.24632183 -0.24254623 -0.0067755864 0.084985465 -0.016441321
-0.17805888 -0.54777956 0.25699663 -0.36288494 -0.5317999 -0.16209337 0.34437066 -0.23144577
-0.3510878 -0.3277014 0.0237705 -0.29482967 0.24174865 -0.29333198 0.019672576 -0.011768599
0.012087137 -0.54632634 -0.6622448 -0.024184726 0.35074976 -0.20189203 0.087549135 0.19188547
-0.66450906 -0.56702197 -0.46680853 -0.20135443 -0.03853682 -0.8585727 -0.14460629 0.1657466
-0.18522345 -0.36776903 -0.6284082 0.12657316 -0.16985211 0.30746496 -0.65195394 -0.8474641
-0.83986706 -0.026808226 -0.274473 -0.4667532 -0.41884503 0.4504655 -1.0806965 -0.09407635
-0.25510055 -0.8212288 0.41147578 -1.3994068 -0.0054087588 -0.0065539908 -0.5628787 0.08159084
-0.043745976 -0.23980634 -0.74001396 -0.5611536 -0.04949138 -0.017127693 -0.11636455 0.30025545
-0.05595588 -0.44233626 0.123659074 -0.0050897487 0.5294174 -0.35258868 0.18283315 -0.047791965
-0.53159535 -0.42955822 0.023428349 -0.26586354 -0.4037936 0.08787645 0.4100355 -0.54628146
-0.049939334 -0.075753964 -0.2341723 -0.1915228 -0.34786206 -0.15747078 -0.0860891 0.11888138
00000000: 9ff0 40bd 287c 653d 4653 52be f1bf 98be
00000010: a544 9e3d 2d08 06be 4564 113e 509a 453e
00000020: 1f03 1ebe 3f3d c9be 7320 1dbd 44f6 5b3d
00000030: 1b44 22bf 7c3c cdbd 1b0f 8d3e bb3a 7c3d
00000040: 206e f13d f303 babe e53d e1be 5d04 0f3e
00000050: b957 efbd b839 433d 0d8a df3e dc2a 2dbf
00000060: e4fa 303d d0fd 79be be58 0c3d fe08 183e
00000070: c8d8 3bbf df19 1e3d 21c9 31be 0240 cd3d
00000080: aab8 753e 588f e6be 9d4f 0ebf 14df cbbd
00000090: 708b 8dbd 5cb8 b5bd d93e 2b3d 7660 4d3e
000000a0: 2f7b afbd d1cd edbd 5040 c6bd b39d 01be
000000b0: f576 ae3c bc6f 3dbe 2ae6 4ebf 58ac 08be
000000c0: 425f c53d 54dd bb3d ae07 babe de6a 773e
000000d0: 130a 3abe b770 9b3a 3468 0c3e 0574 583d
000000e0: ca2c cc3d 5236 cfbd 94bf 01be be76 28be
000000f0: e2b9 83bd 1d10 a53c 4f32 1ebe 7234 46bc
00000100: 2cef edbd 6817 ac3d b422 b2be 1539 173d
00000110: aab1 053e 86cd 983d 9f1b 96be e25d c93e
00000120: bfa1 733c 9d60 e83c 0604 d0bd af5d 62bd
00000130: 1843 e63d e2a5 b63e 3269 f4bb e5dd 80bf
00000140: 6b47 a0be 252d d23e f387 83bd e269 17bf
00000150: c56a 99be 73b2 34bd 16f0 18bd 42d0 a53c
00000160: c7bc 913d 468b eebe f0ac c5ba 8a94 6d3e
00000170: a4fb a83c fcdd 80bb 1058 0bbf cc58 69be
00000180: da08 3d3e d3e4 64bc c80a ae3c a109 4ebf
00000190: b1d9 083e e5c4 833e 7867 cfbe 30f2 f5be
000001a0: eeec 9fbe 3d10 e93c 5b22 a2be a315 1b3e
000001b0: 1a2e 653e 8242 a33d cb0d 033a fa32 5d3d
000001c0: cb63 8f3e 940e 413b fd32 893d dbfb b2be
000001d0: a308 7d3d af07 febe 03a4 793e c797 58be
000001e0: c19b 98bf 8bcc ac39 8d87 babc f427 40bd
000001f0: 2032 183d 6ce1 3fbc 667b b93d e3f8 2bbd
00000200: 3772 8ebc 7a7d 34bf 8fbb b5bf 3a1d 8bbd
00000210: 33e5 113e 01e1 753d 769b 743d 5be7 58be
00000220: 71ec 363c 1c8d b1be 94a4 dd3e 883c 15bf
00000230: 52d0 fbbf c5a0 a33e 494d 57be 2dd6 7e3e
00000240: e705 71bf 9f5d 40c0 02e8 863d 7570 e1bc
00000250: 0977 c7bd c9c9 b4bd b6d0 3fbf 1184 41be
00000260: 4240 c7bd 78a4 40bd 9bca 163e 7b72 d4bd
00000270: 8105 62be a742 0dbf 5088 0e3e 3629 d7be
00000280: 7fe1 c5bd 31ea 12bf b350 25bf ca3b 7cbe
00000290: 0a5e 78be bd05 debb dc0c ae3d f3af 86bc
000002a0: 1155 36be 483b 0cbf 1095 833e 0ecc b9be
000002b0: 0a24 08bf cefb 25be 5a51 b03e 1f00 6dbe
000002c0: c8c1 b3be 7ac8 a7be 5aba c23c eaf3 96be
000002d0: f58c 773e 9c2f 96be 6228 a13c 15d1 40bc
000002e0: 2109 463c 0bdc 0bbf e088 29bf 0c1f c6bc
000002f0: 7995 b33e c9bc 4ebe f64c b33d a07d 443e
00000300: 441d 2abf 5a28 11bf 8701 efbe db2f 4ebe
00000310: c9d8 1dbd 6ccb 5bbf ac13 14be 7ab9 293e
00000320: 37ab 3dbe 394c bcbe 5cdf 20bf 659c 013e
00000330: b6ed 2dbe 0c6c 9d3e 74e6 26bf 68f3 58bf
00000340: 8701 57bf ed9c dbbc ba87 8cbe 47fa eebe
00000350: db72 d6be 6aa3 e63e 4354 8abf 1aab c0bd
00000360: 8a9c 82be 0d3c 52bf f4ac d23e c31f b3bf
00000370: f53b b1bb dcc2 d6bb d218 10bf 1919 a73d
00000380: fb2e 33bd cb8f 75be 8e71 3dbf c3a7 0fbf
00000390: 79b7 4abd 604f 8cbc 8a50 eebd 15bb 993e
000003a0: fe31 65bd e679 e2be f840 fd3d e8c7 a6bb
000003b0: e687 073f 8186 b4be 9d38 3b3e 82c1 43bd
000003c0: a216 08bf 0eef dbbe cfec bf3c 441f 88be
000003d0: 09be cebe 91f8 b33d 2cf0 d13e 1ad9 0bbf
000003e0: 308d 4cbd e524 9bbd ddca 6fbe 8e1e 44be
000003f0: fa1a b2be 0540 21be 7b4f b0bd 1578 f33d

fc1.bias f4 [64]
0.05751034 -0.10580942 -0.27313298 0.01697844 0.07862841 -0.10846294 -0.165223 -0.07935015
-0.07991268 -0.14981118 0.045567587 0.23816538 0.42477757 0.25644234 -0.1257656 -0.17935744
-0.10315515 0.027897194 -0.015527468 -0.1950923 -0.09819934 -0.045653187 0.040679216 -0.10674429
-0.1740387 -0.04349636 -0.11397826 -0.1967621 0.2042065 0.16082148 -0.07402131 -0.075214356
0.055542845 0.030652272 -0.19115108 0.035165593 -0.08550541 -0.06299404 -0.04217295 -0.1797888
-0.036131833 0.048202757 -0.2748135 0.091218956 -0.14109789 -0.118695095 0.007364532 -0.13801408
-0.16785046 -0.030006388 -0.17457128 0.14185788 0.14657551 -0.08055042 -0.22102626 -0.06387093
0.13895953 -0.1445732 -0.1554448 -0.11845311 0.036526967 0.13732012 0.10758292 0.06361939
00000000: f68f 6b3d 9cb2 d8bd 16d8 8bbe 5f16 8b3c
00000010: ef07 a13d d121 debd 3830 29be 5582 a2bd
00000020: 42a9 a3bd 1a68 19be 14a5 3a3d a0e1 733e
00000030: 727c d93e 694c 833e b3c8 00be 7aa9 37be
00000040: 0243 d3bd a888 e43c ec66 7ebc 47c6 47be
00000050: bc1c c9bd d6fe 3abd 409f 263d c09c dabd
00000060: 3337 32be 3d29 32bd 6f6d e9bd 017c 49be
00000070: 821b 513e 63ae 243e 7c98 97bd fc09 9abd
00000080: e580 633d 791a fb3c 1cbd 43be cc09 103d
00000090: 761d afbd 0503 81bd 8bbd 2cbd 8e1a 38be
000000a0: f9fe 13bd 4170 453d 5bb4 8cbe 01d1 ba3d
000000b0: f77b 10be 6a16 f3bd 2c52 f13b 9053 0dbe
000000c0: fee0 2bbe f5cf f5bc d0c2 32be 3143 113e
000000d0: e417 163e 9ef7 a4bd b554 62be c3ce 82bd
000000e0: 684b 0e3e ff0a 14be ec2c 1fbe 8b97 f2bd
000000f0: 4d9d 153d a59d 0c3e 6f54 dc3d e24a 823d

fc2.weight f4 [64, 64]
0.17945892 -0.033241317 0.24943748 0.31826922 0.011250322 0.14145838 0.006001046 -0.042013157
0.12841018 -0.15483336 -0.11568391 -0.10270379 -0.056683164 0.013260333 -0.0031144156 0.047919188
0.06506976 -0.49024147 0.15546021 -0.04247047 0.26737148 0.07070016 0.39823088 0.18199277
-0.38519096 -0.089789614 0.12894632 0.08114733 -0.10284017 -0.07088831 0.06562902 0.32104897
0.030787177 0.1963785 0.112350896 0.13202457 -0.86107874 -0.07464095 0.07553356 -0.007862769
-0.32340798 0.083211884 0.0109052155 -0.1373731 0.060760558 0.0026297213 0.059334554 0.04187918
0.04938896 0.055784322 -0.2329054 -0.24235675 -0.48602524 0.46972036 0.464518 0.06464641
-0.64450854 -0.03388482 0.09371103 -0.1063672 0.17890827 -0.032800123 -0.49794364 -0.10781804
0.056664687 0.116735205 0.12052501 0.2199129 0.021575082 0.06592765 -0.019143723 -0.047172636
-0.09480106 0.018371135 0.243923 0.3433652 -0.26954588 0.10756686 -0.10778268 0.18459758
-0.14084148 -0.1329663 -0.04204063 0.27694353 -0.035470866 0.13650955 -0.08694267 0.17231128
0.018901315 0.21734156 0.05573692 -0.17562968 0.27638328 -0.15731287 0.08947204 0.20509964
-0.06940857 -0.09757195 -0.014544286 0.6868377 -0.5506663 0.028408067 0.13351671 0.07014564
-0.18674724 0.12666316 -0.21325585 -0.54475415 0.13135351 -0.008609165 0.14242347 -0.058418952
-0.052566104 -0.04233208 -0.13132142 0.41743365 -0.049578037 -0.29110524 -0.07327504 0.03742767
-0.23208606 -0.1186285 0.24178617 0.19556315 -0.060719874 0.094339006 0.21831265 0.0037322305
0.19361138 -0.015584553 0.15013747 0.1382262 -0.47175685 0.39928052 0.07627052 -0.018796965
-0.14625303 0.18316767 0.04556019 -0.15671997 -0.015262891 -0.04954271 0.14114322 0.07501854
0.37712184 0.0068321503 0.31083918 0.17854778 -0.48582157 -0.2857157 0.0612245 -0.34542763
-0.17930497 -0.22792068 -0.34044513 0.00019806175 0.11789725 -0.15401287 0.15925844 0.00038950017
-0.08227058 0.08877147 -0.27443692 -0.119921006 -0.22205561 -0.02664744 -0.522952 -0.08577794
0.09932582 -0.40236115 0.58603686 0.048890978 -0.039481964 -0.048237506 -0.31218547 -0.015965926
-0.47031862 -0.031047419 0.14214629 -0.09600585 -0.54105437 0.33818665 0.31556603 0.35308832
-0.27390435 -0.15392224 0.3367111 0.36791098 0.20122628 -0.0035800713 0.10920264 0.17313182
-0.32042846 -0.22778526 -0.031182075 -0.06646857 -0.051973823 0.3399438 -0.14787102 0.24863318
0.1470417 0.018122401 -0.085561395 -0.082983315 -0.18011151 0.03696965 0.035985075 -0.14610338
-0.22131677 -0.5899278 0.30256933 -0.24837396 -0.23411097 0.31193772 -0.051908787 -0.2647363
-0.13623106 -0.017250355 0.25303578 0.1852792 0.08906515 -0.37028903 -0.16667122 -0.19282988
0.03779877 0.013235468 -0.08415475 0.5678111 -0.2401542 -0.31699058 1.0488725 0.18744385
-0.6216272 -0.101150565 0.3322187 -0.0940908 -0.030023405 0.07414028 0.33648476 -0.55046964
0.038706206 -0.025211185 0.0023260666 -0.35441285 -0.017464498 -0.39734548 -0.19624299 0.10527801
0.0630269 -0.2646749 0.09218484 -0.1484234 0.026332958 -0.04611415 0.020481681 0.069483064
00000000: 14c4 373e 0c28 08bd 8a6c 7f3e 2ff4 a23e
00000010: 4553 383c 77da 103e 6ca4 c43b fd15 2cbd
00000020: f57d 033e a38c 1ebe b0eb ecbd 5d56 d2bd
00000030: 9b2c 68bd de41 593c 391b 4cbb e946 443d
00000040: 4b43 853d ee00 fbbe f630 1f3e 84f5 2dbd
00000050: eae4 883e 3fcb 903d ebe4 cb3e 505c 3a3e
00000060: c037 c5be 9ee3 b7bd 810a 043e 9230 a63d
00000070: de9d d2bd e42d 91bd 8268 863d 8860 a43e
00000080: 6435 fc3c 7217 493e 3a18 e63d 7331 073e
00000090: a86f 5cbf 5bdd 98bd 57b1 9a3d d8d2 00bc
000000a0: bb95 a5be fe6a aa3d caab 323c 89ab 0cbe
000000b0: 10e0 783d 6757 2c3b ca08 733d 8189 2b3d
000000c0: 144c 4a3d 1a7e 643d c17e 6ebe 5e2c 78be
000000d0: 4dd8 f8be 307f f03e 4ed5 ed3e 5665 843d
000000e0: 83fe 24bf cfca 0abd 92eb bf3d 0cd7 d9bd
000000f0: bb33 373e 6c59 06bd 78f2 febe b4cf dcbd
00000100: 3b19 683d de12 ef3d d1d5 f63d d930 613e
00000110: 3abe b03c 1305 873d 4cd3 9cbc 1838 41bd
00000120: 0f27 c2bd 107f 963c f3c6 793e 90cd af3e
00000130: eb01 8abe 044c dc3d 2abd dcbd 2607 3d3e
00000140: c038 10be 5128 08be cc32 2cbd 8bcb 8d3e
00000150: e649 11bd 29c9 0b3e 000f b2bd 5e72 303e
00000160: eed6 9a3c c98e 5e3e 664c 643d 44d8 33be
00000170: 1c82 8d3e a016 21be 1e3d b73d a405 523e
00000180: 1526 8ebd cdd3 c7bd 284b 6ebc 98d4 2f3f
00000190: 77f8 0cbf 09b8 e83c 9bb8 083e 84a8 8f3d
000001a0: ab3a 3fbe fdb3 013e be5f 5abe 0275 0bbf
000001b0: 8981 063e 750d 0dbc 75d7 113e b648 6fbd
000001c0: 8e4f 57bd 6764 2dbd 1f79 06be ddb9 d53e
000001d0: 5712 4bbd bf0b 95be 3911 96bd c24d 193d
000001e0: f8a7 6dbe 80f3 f2bd cb96 773e b541 483e
000001f0: 67b5 78bd cf34 c13d 5a8d 5f3e 7098 743b
00000200: 1042 463e 5a56 7fbc a3bd 193e 2b8b 0d3e
00000210: 1d8a f1be 7f6e cc3e b833 9c3d 18fc 99bc
00000220: 5bc3 15be 4e90 3b3e 529d 3a3d 337b 20be
00000230: 3411 7abc 4ced 4abd d987 103e 52a3 993d
00000240: 1d16 c13e 3be0 df3b 5026 9f3e 3bd5 363e
00000250: 9bbd f8be 5449 92be 8bc6 7a3d e4db b0be
00000260: b99b 37be 0a64 69be d34e aebe ccae 4f39
00000270: 1d74 f13d 8db5 1dbe a514 233e d435 cc39
00000280: 7a7d a8bd d1cd b53d ff82 8cbe 2599 f5bd
00000290: 8c62 63be bb4b dabc 2fe0 05bf 58ac afbd
000002a0: 566b cb3d 4802 cebe 8306 163f e841 483d
000002b0: d7b7 21bd b194 45bd c6d6 9fbe f9ca 82bc
000002c0: 9acd f0be 2857 febc cc8e 113e b79e c4bd
000002d0: 8a82 0abf cd26 ad3e df91 a13e fec7 b43e
000002e0: 313d 8cbe cb9d 1dbe 6665 ac3e d45e bc3e
000002f0: 430e 4e3e a19f 6abb a2a5 df3d 7849 313e
00000300: 330f a4be 8a40 69be 8d71 ffbc ac20 88bd
00000310: 81e2 54bd 1d0d ae3e 806b 17be b299 7e3e
00000320: 1992 163e 6e75 943c d03a afbd 28f3 a9bd
00000330: 276f 38be 7d6d 173d 1665 133d 209c 15be
00000340: dda0 62be 8205 17bf 5eea 9a3e be55 7ebe
00000350: c9ba 6fbe 4db6 9f3e 4f9e 54bd 848b 87be
00000360: 2880 0bbe 9e50 8dbc e88d 813e d5b9 3d3e
00000370: ca67 b63d 8696 bdbe dcab 2abe 3275 45be
00000380: e2d2 1a3d 94d9 583c 5359 acbd 115c 113f
00000390: fcea 75be 974c a2be 7441 863f 48f1 3f3e
000003a0: f622 1fbf 0728 cfbd 9218 aa3e adb2 c0bd
000003b0: a5f3 f5bc dcd6 973d bb47 ac3e 94eb 0cbf
000003c0: 668a 1e3d b087 cebc ec70 183b 9a75 b5be
000003d0: b511 8fbc de70 cbbe ecf3 48be ff9b d73d
000003e0: 3f14 813d 7883 87be 68cb bc3d 4efc 17be
000003f0: 37b8 d73c 31e2 3cbd 33c9 a73c 234d 8e3d

fc2.bias f4 [64]
0.1169488 -0.011331011 0.044878278 -0.04935354 0.47641703 -0.15241976 -0.040268328 0.0007892139
0.5660943 0.7822954 -0.12098488 0.16612324 0.19451772 -0.16546842 -0.19618528 0.10637649
0.4648814 -0.13752988 -0.21394947 0.472957 0.44740212 0.50127476 -0.41715237 -0.15893635
-0.073978454 -0.29070392 -0.007583214 -0.0073488047 -0.032432433 0.10948988 -0.010984522 0.007439903
-0.016771594 0.23159264 0.06855095 -0.069078915 0.13241133 -0.27675936 0.04996398 0.07728132
-0.13613124 0.8200616 0.6857123 -0.1811283 0.11306709 -0.2141637 0.66288126 -0.1428085
0.12078026 -0.11787356 0.06867689 0.7536026 0.14296812 -0.18139787 0.21610963 -0.10178726
-0.23018292 -0.10226059 -0.20692877 0.086842656 0.1342056 0.5596268 -0.11996346 0.04206416
00000000: da82 ef3d b4a5 39bc 49d2 373d f026 4abd
00000010: efec f33e ed13 1cbe 67f0 24bd 40e3 4e3a
00000020: 8eeb 103f 8344 483f ecc6 f7bd 361c 2a3e
00000030: a72f 473e 8e70 29be cbe4 48be ebdb d93d
00000040: ef04 ee3e a2d4 0cbe 9215 5bbe 6b27 f23e
00000050: e411 e53e 8b53 003f ff94 d5be 36c0 22be
00000060: 0482 97bd 25d7 94be 9c7c f8bb 3ece f0bb
00000070: dfd7 04bd 3b3c e03d 6df8 33bc 6eca f33b
00000080: 9564 89bc 9f26 6d3e 7164 8c3d 3f79 8dbd
00000090: d696 073e 67b3 8dbe 08a7 4c3d ab45 9e3d
000000a0: fd65 0bbe 8fef 513f d78a 2f3f b279 39be
000000b0: b88f e73d bb4d 5bbe 96b2 293f 643c 12be
000000c0: a45b f73d b167 f1bd 78a6 8c3d 1aec 403f
000000d0: 3c66 123e 5dc0 39be d84b 5d3e d775 d0bd
000000e0: 12b5 6bbe 006e d1bd 23e5 53be 90da b13d
000000f0: 316d 093e b443 0f3f 67af f5bd 784b 2c3d

fc3.weight f4 [4, 64]
0.22404222 0.006326595 0.2131067 0.1670862 0.20226792 0.32190198 0.33098796 -0.1157742
0.21392964 0.2298756 -0.22273916 0.11306756 0.10666101 -0.29046354 -0.33057025 0.057129167
0.09810307 -0.14707324 -0.15866019 0.17653437 0.05401993 0.28215572 -0.10655105 -0.19045492
-0.007902477 -0.35102043 -0.34661692 -0.14532876 0.35474345 0.5017648 -0.4144892 -0.011052364
0.3284885 0.35030815 0.0757786 -0.013964721 0.20288002 -0.24274193 0.23348519 0.24009046
-0.51399577 0.21822943 0.21550518 -0.25381154 0.4798762 -0.28556514 0.27436107 0.11460899
0.17275777 0.26685998 0.29418212 0.2130568 0.1531022 -0.069751315 0.050814327 -0.08998316
-0.4207164 -0.18383397 -0.15790495 0.11581456 0.32200876 0.21652146 -0.097128734 0.033411626
0.30414015 0.253307 0.01620941 -0.15494618 0.29792133 0.361281 0.28710228 0.07307178
0.18538366 0.2613795 -0.23920791 -0.1750063 0.13354696 0.02007538 -0.16254494 0.009834767
0.12684603 0.08049331 -0.21126376 0.15591513 0.1954685 0.28255162 -0.13453726 -0.046692904
-0.040254034 -0.14278825 -0.20209375 -0.21865714 0.28093204 0.49387792 0.068965256 0.12818992
-0.11911042 0.21982789 0.05231417 0.024579808 0.22936414 -0.2876477 0.17835703 0.11009631
0.2775436 0.2779891 0.11957744 -0.08691537 0.53981024 0.08284257 0.26145613 0.16425985
0.087433204 0.42634708 0.1592656 0.18903863 0.12574305 0.16191477 0.07023127 -0.12599573
-0.257582 -0.2337265 -0.10178662 0.029008705 0.31300154 0.086086534 -0.09964469 0.16531879
0.29930177 0.34509692 0.24143757 0.7212938 0.25715056 0.49890468 0.21129592 -0.18832788
0.1004454 0.20391066 -0.23951252 0.15012406 0.21452618 -0.43662223 -0.10349307 0.2764571
0.17075641 0.23592876 -0.110990256 0.12724549 0.08456252 0.21390161 -0.2275029 0.017474012
0.28137615 0.030960727 -0.26910412 -0.47526568 0.3896028 0.22434723 -0.1843072 -0.15480508
-0.74779624 0.16171524 0.14315931 0.41472077 0.11628056 0.11058262 -0.1701638 -0.0844257
-0.1344388 0.30047873 0.2804443 -0.25031495 0.2658428 -0.28586584 0.23132446 0.3150308
0.25491935 0.3835074 -0.18924066 0.33418202 -0.08607299 0.17509401 0.1504215 0.19923618
-0.60134685 -0.25113368 -0.056188352 0.052338816 -0.3142852 0.22692925 -0.42386302 -0.21803421
0.37247035 0.39068863 0.31074578 -0.23986146 0.14752057 -0.26652443 0.21908838 0.15488183
0.22353858 0.2800588 0.018072605 -0.15281472 0.2429397 -0.5785884 -0.49140748 0.279164
0.3120146 0.21506785 -0.4273702 0.24224095 0.109401554 0.18070205 -0.19287457 -0.09227138
0.2114169 0.1782291 -0.13959263 -0.13089696 -0.15157107 0.39762184 -0.25734445 0.09763955
-0.052432355 0.12233062 -0.05346122 0.24503425 -0.0832758 0.26815954 0.43331614 0.3185827
-0.3659525 0.27163416 0.2114768 -0.01825391 0.38182762 -0.2887487 0.22433183 0.04901914
0.08203251 0.23804435 -0.111272216 0.19703275 0.035730734 -0.45199487 -0.03691469 0.23215252
-0.45891735 -0.7774721 -0.24277098 -0.050624736 -0.46071348 0.17156796 -0.0022786388 0.049243044
00000000: 536b 653e 534f cf3b a538 5a3e a518 2b3e
00000010: 521f 4f3e 56d0 a43e 4177 a93e 061b edbd
00000020: 5f10 5b3e 8264 6b3e bc15 64be f78f e73d
00000030: 1671 da3d a3b7 94be 8140 a9be 4600 6a3d
00000040: 43ea c83d 5e9a 16be d177 22be 6dc5 343e
00000050: 0144 5d3d b776 903e 7037 dabd 9d06 43be
00000060: 6479 01bc f3b8 b3be c677 b1be 10d1 14be
00000070: efa0 b53e a873 003f ee37 d4be f914 35bc
00000080: a52f a83e 975b b33e d031 9b3d 49cc 64bc
00000090: c8bf 4f3e 5791 78be be16 6f3e 46da 753e
000000a0: 3a95 03bf 8977 5f3e 64ad 5c3e 96f3 81be
000000b0: 55b2 f53e 9835 92be 0e79 8c3e 1eb8 ea3d
000000c0: 6ae7 303e dfa1 883e 0a9f 963e 902b 5a3e
000000d0: d3c6 1c3e c7d9 8ebd af22 503d 1749 b8bd
000000e0: 2468 d7be f93e 3cbe d6b1 21be 2f30 ed3d
000000f0: 55de a43e cdb7 5d3e 6eeb c6bd a1da 083d
00000100: 42b8 9b3e 75b1 813e 99c9 843c 36aa 1ebe
00000110: 2589 983e d3f9 b83e 12ff 923e a8a6 953d
00000120: 37d5 3d3e 89d3 853e ebf2 74be da34 33be
00000130: 89c0 083e 2075 a43c 2e72 26be 0122 213c
00000140: ede3 013e add9 a43d 8755 58be 37a8 1f3e
00000150: e528 483e 9baa 903e 23c4 09be 0f41 3fbd
00000160: 6ae1 24bd 1537 12be aaf1 4ebe a8e7 5fbe
00000170: 53d6 8f3e 91dd fc3e a83d 8d3d 3844 033e
00000180: 2af0 f3bd 901a 613e 6247 563d 985b c93c
00000190: 6fde 6a3e 8f46 93be 3aa3 363e 2d7a e13d
000001a0: 321a 8e3e 9654 8e3e 04e5 f43d af00 b2bd
000001b0: 0131 0a3f 5ea9 a93d 94dd 853e bc33 283e
000001c0: 2e10 b33d 2a4a da3e 8516 233e 5893 413e
000001d0: c9c2 003e fccc 253e 69d5 8f3d 0605 01be
000001e0: cae1 83be 0056 6fbe 8175 d0bd aaa3 ed3c
000001f0: bd41 a03e 234e b03d 8412 ccbd 5449 293e
00000200: 153e 993e 8bb0 b03e 693b 773e b6a6 383f
00000210: 3da9 833e 6f70 ff3e f55d 583e 06d9 40be
00000220: 51b6 cd3d f5cd 503e c542 75be 1fba 193e
00000230: c0ac 5b3e f38c dfbe 2df4 d3bd c98b 8d3e
00000240: c5da 2e3e 4f97 713e dc4e e3bd a44c 023e
00000250: 1d2f ad3d 0609 5b3e 85f6 68be a925 8f3c
00000260: 8910 903e 5aa1 fd3c 04c8 89be 0656 f3be
00000270: 057a c73e 48bb 653e 07bb 3cbe 3985 1ebe
00000280: 936f 3fbf ae98 253e 5b98 123e 4856 d43e
00000290: 8124 ee3d 2479 e23d 6b3f 2ebe 62e7 acbd
000002a0: 53aa 09be 59d8 993e 6596 8f3e 4829 80be
000002b0: 8c1c 883e 025d 92be 52e0 6c3e b84b a13e
000002c0: ca84 823e 155b c43e 4ec8 41be e819 ab3e
000002d0: 0947 b0bd d84b 333e 1808 1a3e 9204 4c3e
000002e0: def1 19bf 9894 80be c225 66bd 3a61 563d
000002f0: fde9 a0be 2460 683e 9304 d9be 5c44 5fbe
00000300: 6fb4 be3e 5708 c83e 121a 9f3e 3e9e 75be
00000310: a20f 173e e475 88be b458 603e 5899 1e3e
00000320: 4ce7 643e de63 8f3e 000d 943c 767b 1cbe
00000330: 2fc5 783e 5f1e 14bf c399 fbbe 95ee 8e3e
00000340: 61c0 9f3e bf3a 5c3e 44d0 dabe 030e 783e
00000350: ec0d e03d f509 393e e980 45be c7f8 bcbd
00000360: ac7d 583e b081 363e 5ff1 0ebe da09 06be
00000370: 7235 1bbe 1795 cb3e a7c2 83be 3ff7 c73d
00000380: 4fc3 56bd 7a88 fa3d 27fa 5abd 42ea 7a3e
00000390: 818c aabd 354c 893e 9ddb dd3e 461d a33e
000003a0: 205e bbbe a213 8b3e 608d 583e 3989 95bc
000003b0: e97e c33e dfd6 93be 3eb7 653e 4bc8 483d
000003c0: a900 a83d e6c1 733e b0e2 e3bd f4c2 493e
000003d0: 645a 123d df6b e7be dc33 17bd 64b9 6d3e
000003e0: 37f7 eabe 6908 47bf f598 78be e25b 4fbd
000003f0: a3e2 ebbe 83af 2f3e 3755 15bb 13b3 493d

fc3.bias f4 [4]
0.6302345 0.5013721 0.383534 0.39861014
00000000: 0c57 213f ec59 003f 925e c43e a116 cc3e
