data/checkpoint.pth (torch_old, 28405 bytes, 6 tensors)

fc1.weight f4 [64, 37]
-0.059417687 0.08437146 -0.1814463 -0.25073192 -0.13368428 -0.11392384 -0.06003427 0.27430654
-0.25874308 -0.48736712 0.039237246 0.10138913 -0.61608255 -0.22800687 0.1883631 0.10366748
-0.10798285 -0.011842216 -0.37771788 0.113438495 0.13086082 0.050349522 0.1467074 -0.21446179
0.10999844 0.015894834 -0.0030488188 0.043355435 -0.6474317 -0.18436135 -0.17589137 0.063266605
0.17217524 -0.24212946 -0.2927674 0.03022303 -0.06945295 0.032230765 0.15938443 0.14322568
0.010151586 -0.12583207 0.1082668 -0.3263564 -0.02366137 -0.03900745 -0.6644597 0.05036226
0.0040931506 0.064694345 0.030912243 0.22311494 0.04419594 -0.02970194 0.08707083 0.12174988
0.009832398 -0.12321117 -0.028094722 -0.019833826 -0.16576223 -0.02887951 0.030804737 0.08086585
-0.110602185 -0.16156115 -0.10194644 -0.037694417 0.10750881 0.18614507 0.14005154 0.13737069
0.017842384 -0.007007552 -0.080818266 0.10034711 0.2117209 0.15327664 0.2908367 -0.8315573
0.07466592 0.325887 -0.23293623 -0.37216696 -0.28275394 0.085655905 -0.11223778 0.08549537
0.079627834 -0.33612236 0.23281348 0.11443679 -0.007073089 0.21112807 -0.23482867 -0.1982328
0.047148775 0.2450049 -0.22557704 -0.73647517 0.20164874 0.18883382 -0.17042018 -0.30212638
-0.34329474 0.15681711 -0.14530008 -0.074026376 0.24723715 -0.04783815 -0.03577823 0.061073553
-0.34998974 0.100380756 0.22848476 -0.5671696 -0.0025761265 -0.2139169 0.11310084 0.002689455
-0.09762759 -0.14168982 -0.12134002 0.13619448 0.06782966 -0.047509924 0.051210362 -0.27361834
0.002811825 -0.36688262 -0.38889533 -0.020942312 0.12942812 -0.044874966 0.08648726 0.09717844
0.018381702 -0.12434064 0.20052007 -0.15403417 -0.17085202 0.3141048 -0.1121545 -0.08672404
-0.61716294 -1.2622212 0.09387685 -0.019821893 0.053615868 -0.31389087 -0.50918055 0.12918253
-0.15850559 0.066457935 0.08921288 -0.099273786 -0.022652667 -0.5088447 0.057684556 0.021523535
-0.07962106 -0.34253097 -0.32350603 -0.015708037 -0.1417852 -0.22439404 0.015391971 0.051745307
0.04000281 -0.48046687 0.04493925 0.0064920248 -0.2692648 -0.016695378 0.085463986 0.14630276
-0.15683405 -0.34461772 -0.04168504 0.024575537 0.10908054 0.08379291 0.08723309 -0.04481142
0.022592934 -0.12515193 -0.064482845 -0.040414523 -0.0632396 0.08498269 0.050569493 0.39285213
-0.4290384 -0.30483043 -0.31610495 -0.23250255 0.10868215 -0.7058462 0.09932442 0.1403511
-0.100708924 0.13285244 -0.2202022 -0.00518514 -0.0041453256 0.10030885 0.031963125 0.0017804385
-0.29330388 0.10380665 -0.060828377 -0.13851216 -0.020496588 0.0966643 -0.12579928 0.10179801
-0.061171677 -0.4188632 0.07720964 -0.7222642 -0.0062266407 -0.074659266 -0.21476069 -0.04358147
-0.06254054 0.03184116 -0.25721473 -0.2311938 -0.14112155 -0.08358927 0.15001571 0.4518312
-0.08851863 -0.16009626 0.093179606 0.21363705 0.3955105 -0.3374327 0.12307532 -0.013845851
-0.3404695 -0.17899558 -0.0698472 -0.22369976 -0.08027803 0.08827676 0.20924471 -0.1902338
0.06823951 -0.04484704 -0.5236623 0.033584557 -0.000962117 -0.08952042 -0.16129696 0.11640629
00000000: f65f 73bd f2ca ac3d 0fcd 39be ef5f 80be
00000010: 88e4 08be e750 e9bd 7fe6 75bd e871 8c3e
00000020: f979 84be 2f88 f9be 3cb7 203d 1ba5 cf3d
00000030: 96b7 1dbf a27a 69be 42e2 403e 9e4f d43d
00000040: 1d26 ddbd db05 42bc 3d64 c1be 7152 e83d
00000050: 6100 063e 4d3b 4e3d 773a 163e df9b 5bbe
00000060: dd46 e13d e235 823c b1ce 47bb 7895 313d
00000070: 15be 25bf 39c9 3cbe de1c 34be ec91 813d
00000080: b54e 303e c9f0 77be 9ce5 95be 4a96 f73c
00000090: 593d 8ebd 6804 043d ac35 233e c1a9 123e
000000a0: d652 263c 1fda 00be fcba dd3d 3018 a7be
000000b0: 7dd5 c1bc 47c6 1fbd 081a 2abf a848 4e3d
000000c0: d61f 863b 787e 843d ac3b fd3c 3e78 643e
000000d0: cd06 353d 7c51 f3bc 3152 b23d 0058 f93d
000000e0: 1118 213c 2356 fcbd e726 e6bc 8c7a a2bc
000000f0: 93bd 29be b994 ecbc 375a fc3c ff9c a53d
00000100: 6683 e2bd 4970 25be 4cc9 d0bd 7665 1abd
00000110: 942d dc3d d09c 3e3e ac69 0f3e e7aa 0c3e
00000120: 312a 923c 9b9f e5bb 0c84 a5bd c982 cd3d
00000130: 5dcd 583e 8df4 1c3e 8ce8 943e f0e0 54bf
00000140: 72ea 983d a9da a63e d686 6ebe ab8c bebe
00000150: 20c5 90be 5d6c af3d ecdc e5bd 3218 af3d
00000160: eb13 a33d 3b18 acbe a866 6e3e d65d ea3d
00000170: 5fc5 e7bb f531 583e ed76 70be 8afd 4abe
00000180: 131f 413d 91e2 7a3e abfd 66be a389 3cbf
00000190: 027d 4e3e a75d 413e a182 2ebe 4fb0 9abe
000001a0: 54c4 afbe aa94 203e 8bc9 14be 249b 97bd
000001b0: bc2b 7d3e f0f1 43bd 318c 12bd 4328 7a3d
000001c0: db31 b3be 6d94 cd3d e9f7 693e 0732 11bf
000001d0: 3bd4 28bb 080d 5bbe 6aa1 e73d 9141 303b
000001e0: f9f0 c7bd 2317 11be 1e81 f8bd 9176 0b3e
000001f0: 47ea 8a3d c499 42bd f5c1 513d b417 8cbe
00000200: 9846 383b 0ad8 bbbe 4a1d c7be 368f abbc
00000210: ce88 043e d0ce 37bd 3c20 b13d 7d05 c73d
00000220: 3995 963c 4ea6 febd 2255 4d3e 22bb 1dbe
00000230: d5f3 2ebe 58d2 a03e 42b1 e5bd 609c b1bd
00000240: 64fe 1dbf 7790 a1bf 8242 c03d 8661 a2bc
00000250: 509c 5b3d 4eb6 a0be a859 02bf 6d48 043e
00000260: 4a4f 22be 191b 883d 3eb5 b63d 0e50 cbbd
00000270: 1692 b9bc a543 02bf a446 6c3d 2052 b03c
00000280: 5e10 a3bd 3860 afbe 95a2 a5be 24ae 80bc
00000290: 2430 11be 8dc7 65be 9b2e 7c3c e3f2 533d
000002a0: fdd9 233d c1ff f5be 3812 383d 0dbb d43b
000002b0: 13dd 89be bfc4 88bc be07 af3d 64d0 153e
000002c0: 1b99 20be bc71 b0be efbd 2abd a352 c93c
000002d0: 9e65 df3d 9e9b ab3d 43a7 b23d 2e8c 37bd
000002e0: d114 b93c d427 00be 950f 84bd b389 25bd
000002f0: c383 81bd 680b ae3d f521 4f3d ea23 c93e
00000300: ecaa dbbe bc12 9cbe 82d8 a1be 2615 6ebe
00000310: bf94 de3d 56b2 34bf 9a6a cb3d 33b8 0f3e
00000320: 7b40 cebd 780a 083e af7c 61be 1be8 a9bb
00000330: 83d5 87bb ba6e cd3d c4eb 023d 9a5d e93a
00000340: ed2b 96be 9598 d43d 2d27 79bd 22d6 0dbe
00000350: 76e8 a7bc eff7 c53d 87d1 00be 7a7b d03d
00000360: 278f 7abd 3d75 d6be 1620 9e3d 4ee6 38bf
00000370: d908 ccbb f5e6 98bd 3aea 5bbe 7c82 32bd
00000380: 4115 80bd e06b 023d a6b1 83be 11be 6cbe
00000390: 2b82 10be da30 abbd b89d 193e 6b56 e73e
000003a0: 4149 b5bd 46f0 23be f3d4 be3d acc3 5a3e
000003b0: 5a80 ca3e fbc3 acbe ea0e fc3d b5d9 62bc
000003c0: 0552 aebe 9e4a 37be 0c0c 8fbd 8d11 65be
000003d0: cf68 a4bd 72ca b43d 3f44 563e a6cc 42be
000003e0: 28c1 8b3d 88b1 37bd bc0e 06bf f68f 093d
000003f0: 9436 7cba 7b56 b7bd 082b 25be 6c66 ee3d

fc1.bias f4 [64]
0.07448318 -0.025001692 -0.20504838 -0.06692718 0.15703481 -0.11605037 -0.16868353 -0.0016329573
-0.02076024 -0.18514082 0.03841323 0.21399704 0.35884497 0.21292086 -0.09386221 -0.1192047
-0.06099913 0.027618272 0.043731462 -0.11725091 -0.121276066 0.050940163 0.030583482 -0.11094507
-0.18865052 -0.020848718 -0.094852 -0.18157151 0.14071569 0.16631936 -0.06612473 -0.096568465
0.07951013 0.036657657 -0.06882375 0.08605053 -0.05937516 0.020657422 -0.013367386 -0.12698947
-0.022872861 0.039591685 -0.16401789 0.11597117 -0.010272671 -0.13900211 0.016182369 -0.1045614
-0.10879544 0.029600367 -0.15007344 0.13544297 0.020089991 -0.05676771 -0.22680748 0.021150358
0.12580137 -0.09993289 -0.15229385 -0.17638306 0.023327442 0.13850583 0.039480958 0.05440178
00000000: a38a 983d 59d0 ccbc 34f8 51be 1e11 89bd
00000010: bccd 203e d1ab edbd 60bb 2cbe f408 d6ba
00000020: 6111 aabc 8e95 3dbe 3157 1d3d 0a22 5b3e
00000030: 87ba b73e ed07 5a3e d53a c0bd 9821 f4bd
00000040: 39da 79bd b73f e23c c31f 333d 3f21 f0bd
00000050: 965f f8bd a2a6 503d 368a fa3c 2b37 e3bd
00000060: 9a2d 41be eeca aabc c441 c2bd e2ed 39be
00000070: c617 103e 9f4f 2a3e 676c 87bd b0c5 c5bd
00000080: 35d6 a23d 5726 163d 77f3 8cbd 433b b03d
00000090: 5e33 73bd c139 a93c e102 5bbc 8709 02be
000000a0: de5f bbbc e42a 223d 4ef4 27be 4b82 ed3d
000000b0: b44e 28bc 9256 0ebe e390 843c 4a24 d6bd
000000c0: 25d0 debd 787c f23c daac 19be 90b1 0a3e
000000d0: c493 a43c 4285 68bd 3840 68be 8443 ad3c
000000e0: 13d2 003e 9da9 ccbd ebf2 1bbe c39d 34be
000000f0: 3119 bf3c 79d4 0d3e c9b6 213d 67d4 5e3d

fc2.weight f4 [64, 64]
-0.04995487 -0.01873122 0.17155513 0.060657706 -0.08433071 -0.039704926 -0.13263565 -0.031951904
0.10491224 0.13472971 -0.16278486 -0.052964725 -0.09765264 0.03908906 -0.023386454 0.018976986
-0.22883187 -0.6010849 0.17410907 -0.10161879 -0.055433914 0.050351046 0.4331024 -0.24750121
-0.25470355 -0.14369684 0.109643266 -0.03775094 0.01471472 -0.22135788 0.25169945 -0.024521617
0.054505162 0.16501273 0.065554865 -0.22458583 -0.4129673 0.23411068 0.21594606 -0.10654695
-0.3364703 0.020175785 0.075207174 -0.093352355 0.09294209 0.17895061 -0.035996456 0.060931053
-0.023406506 -0.03707765 -0.044348527 -0.15001154 -0.24073644 0.52172863 0.111431815 0.101897836
-0.3708218 -0.15464114 -0.10559415 -0.09266258 0.043050025 0.043606304 -0.44842848 -0.36136532
0.048342325 -0.001725206 -0.19203515 -0.026379194 -0.099908195 -0.02166268 -0.0174174 -0.0030716986
-0.032432225 -0.19635876 0.071802765 0.38376832 -0.22865668 0.103513025 -0.02224326 0.23981363
-0.1329207 -0.21011236 -0.22536828 0.34968323 0.13917574 0.0787147 -0.14550473 0.057436638
-0.1464092 -0.1030756 -0.0341466 -0.12917043 0.14514042 -0.14984307 0.08077482 4.585237e-05
-0.2204711 -0.14337188 -0.1269541 0.12223834 -0.32137153 -0.10886902 -0.102729134 -0.1492884
-0.2803976 0.26690024 -0.09864034 -0.14085035 0.0029742424 0.00807056 -0.22534545 -0.1426768
-0.22756004 0.13092744 -0.07236888 0.34644967 -0.1475508 -0.34962404 0.024038209 0.088774264
-0.18682516 -0.0962073 0.052721333 -0.13604882 0.0900281 -0.02079467 -0.021385057 -0.30203757
0.08081209 -0.15059559 -0.012882436 -0.29065958 -0.022861304 0.20635766 -0.2480511 -0.049895346
-0.11355272 -0.030405588 0.032805763 -0.14601739 0.046218503 0.03697293 -0.1436964 -0.09181264
0.051749505 0.075503156 -0.1059085 0.044830713 -0.38197184 -0.05045328 0.09926006 -0.43243104
-0.24850613 0.100710854 -0.19543776 0.06395404 -0.0040288805 -0.030880058 0.21071856 0.023281554
-0.059315704 -0.17162412 -0.1911604 -0.12627743 -0.29441604 -0.05231263 -0.29244453 -0.2498286
0.19406116 -0.2747375 0.41669086 -0.01136102 0.10453287 -0.28833544 -0.10437967 0.03322595
-0.29669178 -0.03836973 -0.1928124 -0.22081621 -0.34283763 0.3710682 0.14432828 0.045811217
-0.33142164 -0.29057813 0.090022914 0.15779471 -0.08077725 0.017249871 0.055452127 0.09460136
-0.09742111 -0.18643562 -0.12301078 -0.31155717 -0.12976766 0.18062694 -0.25443333 0.16522211
0.058785312 0.113824755 -0.11877864 0.071057394 -0.13977668 0.01460098 -0.020551533 -0.026394287
0.017046524 -0.536148 0.076848924 -0.23382312 -0.12609787 -0.080059126 -0.37887082 0.056805514
0.034846086 -0.22716014 0.48956823 -0.065680645 0.031862218 -0.32183093 -0.36629274 0.018861203
-0.0045232624 0.07173876 0.014780524 0.24986373 -0.3438181 0.05560755 0.9502421 -0.027438542
-0.44186348 0.037994467 0.07631552 -0.020614872 0.017808473 0.14323768 0.08362665 -0.29761997
0.058676623 0.019141225 -0.10703584 0.01009465 0.03629658 -0.40686512 -0.25641802 0.10894216
-0.3314788 -0.09569309 -0.14544408 0.06292716 -0.15536277 -0.036863115 -0.3486606 0.0057154973
00000000: 7a9d 4cbd 3772 99bc 26ac 2f3e 3774 783d
00000010: 94b5 acbd a2a1 22bd a4d1 07be 00e0 02bd
00000020: 3adc d63d 96f6 093e 13b1 26be 8af1 58bd
00000030: 1bfe c7bd da1b 203d f394 bfbc a075 9b3c
00000040: e752 6abe b3e0 19bf a649 323e 831d d0bd
00000050: ac0e 63bd e63c 4e3d 99bf dd3e f570 7dbe
00000060: 8168 82be 4425 13be a68c e03d bba0 1abd
00000070: 0216 713c a4ab 62be c0de 803e 8fe1 c8bc
00000080: ce40 5f3d 19f9 283e a141 863d d4f9 65be
00000090: 7370 d3be b6ba 6f3e f720 5d3e 4a35 dabd
000000a0: d645 acbe b047 a53c 3806 9a3d 852f bfbd
000000b0: 6c58 be3d d43e 373e 0571 13bd d792 793d
000000c0: 00bf bfbc bcde 17bd cda6 35bd a09c 19be
000000d0: 9d83 76be 0290 053f 5d36 e43d d0af d03d
000000e0: 5bdc bdbe 3f5a 1ebe bf41 d8bd e1c5 bdbd
000000f0: 3955 303d 869c 323d 6b98 e5be e004 b9be
00000100: 9a02 463d 4f20 e2ba dda4 44be 2e19 d8bc
00000110: ab9c ccbd ef75 b1bc efae 8ebc 8d4e 49bb
00000120: a7d7 04bd 4512 49be 540d 933d 487d c43e
00000130: fa24 6abe a3fe d33d 7f37 b6bc b491 753e
00000140: 5d1c 08be b227 57be f1c6 66be ae09 b33e
00000150: 1684 0e3e 2c35 a13d 31ff 14be ae42 6b3d
00000160: 4bec 15be 4d19 d3bd 4edd 0bbd 4145 04be
00000170: b19f 143e 7670 19be 456d a53d 9b51 4038
00000180: 2dc3 61be 14d0 12be 4100 02be 1858 fa3d
00000190: cf8a a4be b9f6 debd a763 d2bd 0fdf 18be
000001a0: 4690 8fbe 26a7 883e f203 cabd 133b 10be
000001b0: 82eb 423b 623a 043c f5c0 66be de19 12be
000001c0: 8005 69be d811 063e 2336 94bd da61 b13e
000001d0: 8f17 17be ec01 b3be c7eb c43c 48cf b53d
000001e0: 184f 3fbe 5508 c5bd 53f2 573d 6250 0bbe
000001f0: a760 b83d 9559 aabc b72f afbc aba4 9abe
00000200: cf80 a53d bb35 1abe da10 53bc 55d1 94be
00000210: a147 bbbc 6c4f 533e 1c01 7ebe 105f 4cbd
00000220: 548e e8bd 2415 f9bc 565f 063d 9585 15be
00000230: 9d4f 3d3d ed70 173d 2625 13be 4408 bcbd
00000240: 4af7 533d 66a1 9a3d 8ee6 d8bd 69a0 373d
00000250: d091 c3be 19a8 4ebd dc48 cb3d 9a67 ddbe
00000260: 6478 7ebe 7e41 ce3d d620 48be 56fa 823d
00000270: b304 84bb 2df8 fcbc 9bc6 573e f5b8 be3c
00000280: 06f5 72bd 3cbe 2fbe 8dbf 43be df4e 01be
00000290: b3bd 96be c545 56bd 4abb 95be 12d3 7fbe
000002a0: f8b7 463e 65aa 8cbe 8158 d53e 9223 3abc
000002b0: 5415 d63d b4a0 93be 02c5 d5bd ef17 083d
000002c0: fce7 97be 9429 1dbd 9d70 45be a51d 62be
000002d0: 6a88 afbe a7fc bd3e cbca 133e 8ba4 3b3d
000002e0: 19b0 a9be a8c6 94be ef5d b83d f094 213e
000002f0: 8b6e a5bd 9a4f 8d3c c521 633d 5cbe c13d
00000300: b884 c7bd fbe8 3ebe 13ed fbbd 6c84 9fbe
00000310: d0e1 04be 45f6 383e 1645 82be fc2f 293e
00000320: dec8 703d f41c e93d 3742 f3bd 8a86 913d
00000330: 9e21 0fbe f338 6f3c b05b a8bc d538 d8bc
00000340: 27a5 8b3c ff40 09bf f862 9d3d 546f 6fbe
00000350: cd1f 01be 0af6 a3bd 5bfb c1be e6ac 683d
00000360: c5ba 0e3d ab9c 68be b0a8 fa3e 9383 86bd
00000370: f581 023d 06c7 a4be b98a bbbe cf82 9a3c
00000380: e037 94bb c5eb 923d 032a 723c 47dc 7f3e
00000390: ed08 b0be bec4 633d 1143 733f cbc6 e0bc
000003a0: ee3b e2be 16a0 1b3d 504b 9c3d 85e0 a8bc
000003b0: 13e3 913c e6ac 123e 7344 ab3d a561 98be
000003c0: e656 703d 0fce 9c3c 9b35 dbbd 0864 253c
000003d0: b9ab 143d a050 d0be 3949 83be 111d df3d
000003e0: 97b7 a9be bdfa c3bd 4bef 14be f4df 803d
000003f0: 6b17 1fbe c7fd 16bd a483 b2be 1149 bb3b

fc2.bias f4 [64]
0.04080135 -0.05013262 0.060421955 -0.027407687 0.31913444 -0.11851472 -0.059456423 0.059734162
0.3925515 0.58941126 -0.07124232 0.11198097 0.14995018 -0.103416964 -0.15980797 0.056304302
0.30985725 -0.09031984 -0.16162576 0.2811343 0.32662302 0.47077835 -0.29080454 -0.08752825
-0.09295512 -0.21357459 0.0108445315 -0.06290542 -0.050557934 0.06357895 0.042742267 0.020088255
0.010777387 0.12969217 -0.0021369446 -0.093388505 0.019122561 -0.20753948 0.06201299 0.040786855
-0.058655664 0.6194327 0.4957121 -0.10593995 0.10096466 -0.18050805 0.46536586 -0.120979704
0.12127305 -0.10404603 -0.006294149 0.5589528 0.087710984 -0.18161903 0.15956603 -0.06394423
-0.16100194 -0.0762717 -0.15590048 0.020514661 0.073955044 0.38000566 -0.072809815 0.016522152
00000000: 511f 273d dd57 4dbd 037d 773d 1686 e0bc
00000010: 9765 a33e d8b7 f2bd 9488 73bd cfab 743d
00000020: 83fc c83e a8e3 163f 7ee7 91bd 4756 e53d
00000030: 8a8c 193e 46cc d3bd b3a4 23be 579f 663d
00000040: 9ca5 9e3e 9cf9 b8bd 3981 25be d6f0 8f3e
00000050: 223b a73e dc09 f13e 55e4 94be 0342 b3bd
00000060: 415f bebd 4cb3 5abe 43ad 313c 8fd4 80bd
00000070: d615 4fbd ae35 823d 8412 2f3d 2090 a43c
00000080: a393 303c 06ce 043e fb0b 0cbb 7942 bfbd
00000090: eba6 9c3c 3b85 54be 5501 7e3d 1e10 273d
000000a0: ec40 70bd 2493 1e3f facd fd3e 0bf7 d8bd
000000b0: 8fc6 ce3d 1ad7 38be 6f44 ee3e 35c4 f7bd
000000c0: 015e f83d 1616 d5bd 263f cebb 8817 0f3f
000000d0: d1a1 b33d 57fa 39be 4765 233e 31f5 82bd
000000e0: b1dd 24be 5634 9cbd 60a4 1fbe 5d0e a83c
000000f0: be75 973d 1a90 c23e 501d 95bd 7759 873c

fc3.weight f4 [4, 64]
0.1186176 0.113569446 0.24543789 0.15991497 0.22468705 0.3278625 0.42043453 -0.06456494
0.17731246 0.17794164 -0.14794856 0.028138114 0.033029098 -0.1559451 -0.3087741 -0.11978412
0.098505996 -0.18995476 -0.17812318 0.15455629 0.07599901 0.26147088 -0.22604553 -0.14002277
0.04453015 -0.37448674 -0.32460517 -0.35129422 0.2944455 0.56486034 -0.584622 0.023030382
0.034313478 0.38290527 0.036628842 -0.00016740306 0.28035426 -0.29124755 0.32016665 0.27131927
-0.5048292 0.17318574 0.17002374 -0.07451804 0.49462566 -0.11423087 0.23135847 0.23811074
0.04443191 0.24581826 0.32795697 0.1710036 0.22221114 -0.0036375965 0.09374408 -0.007594313
-0.41537687 0.05026901 -0.21835946 0.14094229 0.2737065 0.19139463 -0.030951994 0.08838076
0.15508544 0.101445615 0.10346929 0.29813278 0.16882582 0.4843073 0.4534868 0.015394397
0.12161164 0.22191179 -0.17345984 -0.027403926 -0.017952664 0.12780517 -0.035819698 0.13652301
0.08549355 0.16318631 -0.16391113 0.15274297 0.10717193 0.17152111 -0.25019193 -0.14570963
0.0993032 0.047029182 -0.07823674 -0.3525134 0.28917262 0.5705661 -0.10143853 0.11182741
0.052208476 0.29938054 0.1091285 -0.05947222 0.22485122 -0.37511885 0.30307555 0.1838416
-0.028996052 0.20485218 0.12598401 -0.0091604395 0.51462966 -0.124490604 0.251214 0.26307
0.12687542 0.2663571 0.40840912 0.15041974 0.15382037 0.17950971 0.1431392 -0.0985621
-0.13030852 -0.33551753 -0.24883658 0.1449756 0.10771244 0.092251986 -0.15176572 0.06280804
0.24188766 0.27649933 0.09322745 0.5531474 0.2150572 0.41678602 0.31802264 0.018417303
0.07612898 0.16082379 -0.35244876 0.33909294 0.18913344 -0.5146713 -0.07751402 0.18064997
0.0832569 0.01028657 0.1614881 0.13850303 0.09848628 0.2815332 -0.2104878 0.035778
0.35688648 0.093706146 -0.16715649 -0.38515583 0.5530205 0.2992962 -0.17370561 -0.05337177
-0.42303258 0.10528125 0.23331438 0.09803186 0.14537778 -0.23810211 0.13747084 0.13656227
-0.33502582 0.24156545 0.21237922 -0.28398478 0.2001803 -0.23278041 0.20103107 0.4418601
0.19926065 0.3109201 0.13528152 0.27476498 0.027877552 0.27979887 0.16532615 0.03495747
-0.79931784 -0.28384194 -0.094579205 0.15331362 -0.29010305 0.15915692 -0.36641634 -0.15486513
0.46582982 0.5215152 0.13300708 0.07747564 0.10415345 -0.0062368796 0.2670677 0.14374207
0.19305176 0.2289868 0.28800943 -0.14139718 0.18235533 -0.48934573 -0.6585809 0.074256554
0.2222852 0.17798449 -0.43520677 0.21465325 0.086982846 0.24747136 -0.23816136 0.13520558
0.1523791 -0.0045565357 -0.0874289 -0.12946074 0.18168858 0.44547468 -0.29792255 0.1641687
-0.25708482 0.14322327 0.06316372 0.01553345 0.06577125 -0.023026604 0.56387866 0.41624066
-0.21770662 0.22695339 0.16938931 -0.038985856 0.6130249 -0.30872956 0.18580237 0.13257448
0.08106178 0.19768834 0.09618975 0.1465023 0.05678349 -0.04675354 0.0100209825 0.26155424
-0.13086298 -0.37651995 -0.29577065 -0.04410446 -0.3534989 0.09152501 -0.09477931 0.10244338
00000000: c9ed f23d 1997 e83d 1254 7b3e c0c0 233e
00000010: 5d14 663e 98dd a73e 3243 d73e a03a 84bd
00000020: 6691 353e 5536 363e d47f 17be e781 e63c
00000030: 8549 073d 13b0 1fbe a417 9ebe 6051 f5bd
00000040: 83bd c93d 8083 42be ec65 36be 0144 1e3e
00000050: 5ea5 9b3d 83df 853e 7b78 67be 2162 0fbe
00000060: 3f65 363d babc bfbe a632 a6be d6dc b3be
00000070: 90c1 963e b09a 103f caa9 15bf 36aa bc3c
00000080: 4a8c 0c3d 290c c43e 2008 163d eb88 2fb9
00000090: 988a 8f3e 661e 95be e2ec a33e 5cea 8a3e
000000a0: 7d3c 01bf 9a57 313e b41a 2e3e ea9c 98bd
000000b0: 933f fd3e e0f1 e9bd 3ce9 6c3e 4dd3 733e
000000c0: 3cfe 353d c8b7 7b3e fae9 a73e 911b 2f3e
000000d0: 518b 633e be64 6ebb e5fc bf3d b7d9 f8bb
000000e0: 47ac d4be e1e6 4d3d 9f99 5fbe 2d53 103e
000000f0: 4223 8c3e f4fc 433e 098f fdbc f900 b53d
00000100: b8ce 1e3e b8c2 cf3d b5e7 d33d dca4 983e
00000110: ade0 2c3e 20f7 f73e 6c2f e83e c838 7c3c
00000120: 860f f93d d83c 633e 759f 31be 337e e0bc
00000130: 7711 93bc 5cdf 023e adb7 12bd b0cc 0b3e
00000140: 3e17 af3d 501a 273e 52d8 27be a768 1c3e
00000150: f57c db3d 3ba3 2f3e 2819 80be e834 15be
00000160: 7a5f cb3d aca1 403d 953a a0bd a37c b4be
00000170: 6f0e 943e 9f10 123f 01bf cfbd c505 e53d
00000180: 8ed8 553d 6848 993e c37e df3d 2499 73bd
00000190: 663f 663e 940f c0be b82c 9b3e f940 3c3e
000001a0: 2189 edbc c5c4 513e f401 013e ab15 16bc
000001b0: c5be 033f eef4 febd 1f9f 803e 1cb1 863e
000001c0: a1eb 013e f55f 883e 001b d13e a207 1a3e
000001d0: 1683 1d3e 65d1 373e 1593 123e edda c9bd
000001e0: 996f 05be f4c8 abbe 04cf 7ebe 7c74 143e
000001f0: 5798 dc3d 9cee bc3d 7968 1bbe 80a1 803d
00000200: 66b1 773e 5291 8d3e 09ee be3d 119b 0d3f
00000210: f437 5c3e fa64 d53e ddd3 a23e e2df 963c
00000220: 83e9 9b3d feae 243e 2a74 b4be 979d ad3e
00000230: 32ac 413e 80c1 03bf acbf 9ebd 4efc 383e
00000240: 9882 aa3d 0089 283c 235d 253e bdd3 0d3e
00000250: 2db3 c93d 1f25 903e 1d8a 57be f48b 123d
00000260: d3b9 b63e 02e9 bf3d 122b 2bbe 2533 c5be
00000270: c092 0d3f 5a3d 993e e2df 31be 5b9c 5abd
00000280: ba97 d8be b29d d73d f7e9 6e3e eec4 c83d
00000290: eadd 143e 0ad1 73be 28c5 0c3e fbd6 0b3e
000002a0: 8188 abbe ef5c 773e f079 593e 7466 91be
000002b0: 11fc 4c3e fd5d 6ebe 17db 4d3e 7d3b e23e
000002c0: fc0a 4c3e eb30 9f3e 3d87 0a3e ffad 8c3e
000002d0: 775f e43c cc41 8f3e 424b 293e 902f 0f3d
000002e0: 18a0 4cbf bb53 91be beb2 c1bd 3ffe 1c3e
000002f0: 6388 94be 08fa 223e ec9a bbbe f794 1ebe
00000300: 3f81 ee3e 0582 053f 0233 083e 8cab 9e3d
00000310: 674e d53d bd5e ccbb 19bd 883e 1f31 133e
00000320: 5caf 453e 847b 6a3e f975 933e 6cca 10be
00000330: 5bbb 3a3e 868b fabe c298 28bf d213 983d
00000340: bb9e 633e 9141 363e 6cd3 debe 10ce 5b3e
00000350: 1024 b23d 2269 7d3e 92e0 73be 5573 0a3e
00000360: 4409 1c3e fe4e 95bb ec0d b3bd 5b91 04be
00000370: 920c 3a3e 4215 e43e 4e89 98be d71b 283e
00000380: 9fa0 83be 1fa9 123e fb5b 813d 0380 7e3c
00000390: 14b3 863d 4aa2 bcbc 5a5a 103f 7f1d d53e
000003a0: 7cee 5ebe 7866 683e 6474 2d3e a2af 1fbd
000003b0: 33ef 1c3f cd11 9ebe fa42 3e3e 9bc1 073e
000003c0: b803 a63d d06e 4a3e 22ff c43d b304 163e
000003d0: ce95 683d a480 3fbd 0c2f 243c 70ea 853e
000003e0: f200 06be 39c7 c0be 406f 97be e1a6 34bd
000003f0: cffd b4be 7771 bb3d a81b c2bd d6cd d13d

fc3.bias f4 [4]
0.4402338 0.39906177 0.24163455 0.28228843
00000000: 5366 e13e d351 cc3e 0c6f 773e 1c88 903e
