data/ContinuousControlActor.pth (torch_old, 89008 bytes, 10 tensors)

fc1.weight f4 [128, 33]
00000000: 5c69 6c3e 4708 e7bd d07b 493d f1f3 d33d
00000010: 7e29 7e3d 4e2f 3bbc 80cc 9abd af67 eebc
00000020: 3f28 513c 7f5d c73d 1a94 513b aa3f 503c
00000030: 4304 963b b26c 91bd 311c 1e3d 7fdd 42bd
00000040: bdd9 e33a 668e 1cbc 3a46 b43d 0e3c fa3c
00000050: e4c9 0ebd 419f a9bc 9bd0 f63c 9725 1ebe
00000060: 0241 babc e707 9bbc ce20 8ebd fcc4 3a3e
00000070: ff9b 893c a9c8 14bd 6a2d 5bbe 00a3 f13b
00000080: 1535 643b 6e3e d2bd 4514 0e3e a5d2 bf3d
00000090: a4ed 2dbc 9d5f 88bb 8929 423d 8f89 f2bc
000000a0: 08fc 663d 6ad2 1d3c 58aa 2dbd 2e2b d3bd
000000b0: 6293 613d e800 433c 14bf fc3d b925 4abc
000000c0: 104d 683d 519f 07bc 179a 4a3d 315f 20bd
000000d0: e959 07bc fe0d 403d 06e5 17bd 6cae c0bb
000000e0: 9a7f a73d 53b5 2cbc 0112 5ebb fc43 8ebc
000000f0: 6f6b 7f3e e714 cbbd 5668 703d a2d7 b3be
00000100: e050 aebb 6078 b3bb b0ad 7c3c 35b7 78bd
00000110: f2ff f1bc cc4f a0bc a405 02be 2d9f 11bd
00000120: 9dd2 783d 4351 de3d b8fe b13d b1a9 873c
00000130: 81eb 4f3d e243 4d3d a5be b4bd efdd 4ebe
00000140: 1c6d e5bd c45b cfbc d978 dc3d 85be 5dbc
00000150: 6cdb 503d 39a1 0f3d e9c1 02bd e8be 3bbd
00000160: ce87 493b aa85 11be 0e16 ae3c 6aa8 b0bd
00000170: a8a4 ffbc 246c 0b3c cbe9 cc3c b8c9 49bd
00000180: 5b2c f8bd d619 e6bc d8ac a9bd c44b 5ebd
00000190: 0d0b e23d 8d24 ba3c d305 77bb 2029 69bc
000001a0: bdbc 3b3e f0af 2d3d ac60 983c fdc0 56be
000001b0: 8760 64bd e0e7 2cbc 1e01 743d 283a 6f3c
000001c0: 380a 3fbd 67dd 32be cbc6 d03c d6c6 d63b
000001d0: f4b3 a53c 1951 18be dc12 7f3c bd24 893d
000001e0: f2da 473d 8993 6dbd 83b8 18bd 9330 99bd
000001f0: 9f65 45bc 627c 043e 5b21 c93c 66ae 903d
00000200: 099e 81bd 160f 9bbd 7fc0 98bd 95a0 ed3c
00000210: 2919 c6bd 9620 25bd 0ad9 ce3d ee62 d8bc
00000220: 2e25 973d f04f cfbd 007b 03bd ff58 1d3d
00000230: a893 043e 179b f2bd 2baf e5bd e9b4 05be
00000240: fe58 2fbd d3f9 41bc a5d2 fabd 7f1a efbd
00000250: 65ef febd 78dc 893b dbf8 233d 267a 44bd
00000260: d63d a0bc 5186 09bd 1e1f ddbd 7349 b7bb
00000270: b5da ffbd d4fb 063d b7c9 083e d782 8dbd
00000280: 1807 4d3c a741 81bd b911 343d 0af6 3e3d
00000290: 31a6 383d 769c 6e3b 9ba2 4abd 5dcd 2d3e
000002a0: 1c33 7dbb 736d fc3a 9375 62bb 5bfe 513d
000002b0: 2518 6f3d d3ff 52bd 2d31 383d 4063 5d3d
000002c0: bdd0 74bd a4de ccbc 8023 d53d 8371 04bc
000002d0: 03ae 91bc f506 0ebd 706b 1d3c fd11 a7bd
000002e0: 3d8a 983d 4838 22bc b596 54bc f580 0bbd
000002f0: fa22 ab3d bcde 7d3c 8144 11bd f308 c8bd
00000300: 1908 663d 6203 9abd 9888 593c e3aa 0b3a
00000310: 36dc 713d 98d5 783e f887 0abe fb91 7c3c
00000320: e1ae a73d f711 783c 4992 67bd 4e0b 6dbc
00000330: d014 8bbd 4bbc 30bd d596 4dbd fb02 64bd
00000340: 94c1 393b d88e 1a3c c86e b53d 31ee 8f3d
00000350: 972c e3bd 3809 80bd 8ec8 d3bd 81ec 3cbd
00000360: 3157 ad3c 1b3a a7bd 7cbf 083c ee01 c5bc
00000370: d05c abbd a5f0 5cbd b19d a9bb ad47 b7bb
00000380: f899 093e b15e 103e cfc5 9bbc ce5d 793d
00000390: 37e6 79be fc67 9fbd 5df9 0e3e 3376 3bbd
000003a0: 0a52 f53c 17bf 023e 9d63 aebc 7f59 18bd
000003b0: c069 8bbd 2515 c4bd f767 2c3d af8c c23d
000003c0: 971f 033e b41c db3c 5d21 103d eacd c03d
000003d0: d0f7 813d 74ef da3d 2f00 51bd 5a4d 563c
000003e0: 2e70 233d 9250 643d be77 1fbd edbf b0bd
000003f0: dd59 30bc 7375 933c f3b8 933d ad1c 843c
0.23087066 -0.11280876 0.049190342 0.103492625 0.06205129 -0.011424853 -0.075585365 -0.029102175
0.012765943 0.0973463 0.0031979145 0.012710491 0.0045781448 -0.0710081 0.038601104 -0.047574516
0.0017383617 -0.009555435 0.08802457 0.030546214 -0.034860507 -0.020705821 0.030128768 -0.15444027
-0.022736076 -0.018924667 -0.06939851 0.18239206 0.016798018 -0.036324177 -0.21404043 0.0073741674
0.0034821678 -0.10265814 0.1387492 0.09366349 -0.01061574 -0.0041617886 0.047402892 -0.029606609
0.0563927 0.009632686 -0.04239878 -0.1031097 0.055072196 0.011902072 0.12341133 -0.012338095
0.056714118 -0.00827773 0.049463358 -0.03915328 -0.008261182 0.046888344 -0.03708365 -0.0058801677
0.08178635 -0.010541278 -0.0033885243 -0.017366402 0.24943326 -0.09916096 0.058693253 -0.35125452
-0.0053196996 -0.0054769963 0.01542227 -0.060721595 -0.02954099 -0.0195693 -0.12697464 -0.035552192
0.06074773 0.10855343 0.08691162 0.016560407 0.050761703 0.050113566 -0.08825425 -0.20201848
-0.112024516 -0.025312312 0.10765237 -0.013534193 0.050990507 0.035065863 -0.03192321 -0.04583636
0.0030751112 -0.14211145 0.02125075 -0.086258724 -0.031206444 0.008509669 0.025013825 -0.04926464
-0.12117835 -0.028088491 -0.082849205 -0.054271474 0.11037264 0.022722507 -0.003769268 -0.014230996
0.18333717 0.042404115 0.018600784 -0.20972057 -0.05575612 -0.01055333 0.059571378 0.014601268
-0.046640605 -0.17467271 0.025485417 0.006554465 0.02022741 -0.14874686 0.015568461 0.066964604
0.048792787 -0.05800203 -0.03728534 -0.07479968 -0.012048154 0.12938073 0.024552038 0.07064514
-0.06328971 -0.07571237 -0.07458591 0.029007236 -0.09672768 -0.04031428 0.10099991 -0.02641436
0.07380138 -0.10122669 -0.032099724 0.03841495 0.12946951 -0.11845987 -0.11215051 -0.13057293
-0.04280948 -0.011839348 -0.122472085 -0.116749756 -0.12448005 0.00420719 0.04003225 -0.047968052
-0.019560736 -0.03357536 -0.10796951 -0.0055934726 -0.12492887 0.032955006 0.13358198 -0.06909721
0.012513898 -0.0631135 0.043962214 0.04662136 0.045080367 0.0036409176 -0.04947148 0.16972871
-0.00386352 0.0019258693 -0.0034554943 0.051267963 0.058372635 -0.051513504 0.044968773 0.05404973
-0.05976938 -0.025008507 0.10407162 -0.008083704 -0.01778317 -0.034674603 0.009608135 -0.08157728
0.07448242 -0.009901114 -0.0129753845 -0.03405853 0.083562806 0.015494999 -0.03546572 -0.09767332
0.056160066 -0.075201765 0.013277195 0.00053278933 0.0590479 0.2430023 -0.1352843 0.015415664
0.081876524 0.015141002 -0.056535993 -0.014468027 -0.06791079 -0.04314832 -0.050192673 -0.055666905
0.0028344141 0.009433471 0.088590205 0.07027853 -0.11092489 -0.06251758 -0.10340987 -0.046123985
0.02115974 -0.081653796 0.008346435 -0.024048772 -0.08367312 -0.053940434 -0.005176269 -0.005593261
0.1343764 0.14098622 -0.01901522 0.060880475 -0.24404226 -0.07783505 0.13962312 -0.04576702
0.029946346 0.12768207 -0.021287734 -0.037194725 -0.068072796 -0.095743455 0.042091336 0.094994895
0.1280502 0.026747085 0.035188068 0.09414275 0.063460946 0.10690203 -0.051025566 0.0130799655
0.039901905 0.0557409 -0.038932554 -0.08630357 -0.010763613 0.01800034 0.07213011 0.016126955

fc1.bias f4 [128]
00000000: 8dcb 62bd 1f6c 30be 467a dc3d b69e 003e
00000010: fa8b 8bbc b0bb 853c ba68 8ebe cacb 08be
00000020: ff85 113d de06 25bd 9303 6cbe acb2 20be
00000030: ce9b 6abe 66c2 45bd 107b 31be d355 51be
00000040: f79b 5fbd e43e 76be f759 843c a7ca a23d
00000050: b634 82bd 177a cc3c 3e6c 803d b85f b4bd
00000060: 8c72 29bd 7ec4 0a3e db5b b2bd 0ec7 b8bc
00000070: a8ef 3abd a93b 44be bfb4 9dbe 7366 e2bc
00000080: 45a9 eb3c a002 f03c 7af8 78be 0c10 21bc
00000090: f0e2 82be ffcc c4be b609 27bd 1621 27be
000000a0: 3042 4ebe 6193 69be 3fbc febc ee20 a4bd
000000b0: d704 8cbd b175 f2bd 1756 8dbd 46f7 a4bd
000000c0: aaaa 58be 4d70 ab3d c238 c8bd a76a 03be
000000d0: 5555 22be a049 53be da38 153c 8d52 75be
000000e0: d89a 82be 1fc3 e1bd 761a 01be f6aa f53d
000000f0: 12e4 343d d420 27be 60e3 d83a 79ee 473d
00000100: 1ecc dcbd 65ac 38bd aef9 b9bd f3cc 3ebe
00000110: 7356 c8bd e811 dbbd 9e5a 34be 2997 b4bd
00000120: 15d7 153e 1d34 be3d a9e6 97bd 7022 d2bd
00000130: 64cb 71bd 8aae 09be bd5c 0e3d 988f 59be
00000140: f954 bbbd 8933 09be 4270 643d f945 58be
00000150: 067b 89bc 8cbb 03be a697 acbd 6574 e2bd
00000160: 3bda 84bd 9479 c5bc 1af9 d3bd e06c cfbd
00000170: a9d0 f1bd 24cb cf3d 25b3 78be b004 e23d
00000180: 4ca0 a6bc fe7b 13be 11b3 11be 577b dbbd
00000190: 90ad 3e3e 2888 893d 687e 223e 1741 85be
000001a0: 199e b43d e68e 10be 79ec 2ebd 7cc2 2c3e
000001b0: 9123 4bbe e140 60bd 5d23 96bc 46e5 b13c
000001c0: 7a35 8abe 9898 8bbd 32fc 1b3d 91a4 b4be
000001d0: d29e 99bd 13b9 173e 32b8 25bd f242 b6be
000001e0: 0d4e 6dbe 7d94 9ebe 39f8 083e c4b8 1bbe
000001f0: 55a0 28bd 1e4d 4cbe 788e 7ebd c1f9 4bbd
-0.055369902 -0.17228745 0.10765509 0.12560543 -0.01703452 0.016324848 -0.27814275 -0.1335899
0.03552818 -0.040289752 -0.23048238 -0.15693158 -0.22910997 -0.048281096 -0.17332101 -0.20442896
-0.0545921 -0.24047428 0.01615618 0.07948809 -0.0635771 0.02496056 0.062706456 -0.088073194
-0.041369006 0.13551518 -0.08708926 -0.022555854 -0.04563871 -0.19163384 -0.3080196 -0.027636742
0.028767237 0.029298127 -0.24313536 -0.009830486 -0.25563765 -0.3843765 -0.040780745 -0.16321215
-0.20142436 -0.22810127 -0.031095622 -0.08014093 -0.068368606 -0.11838854 -0.06901186 -0.08054976
-0.21158853 0.08371029 -0.09776451 -0.12833653 -0.15852864 -0.20633554 0.009107793 -0.23957272
-0.2550876 -0.110235445 -0.1260775 0.11995499 0.044162817 -0.16321117 0.0016547255 0.04881141
-0.1078112 -0.045086283 -0.09080826 -0.1863287 -0.09782114 -0.10696775 -0.17612693 -0.08817894
0.14632829 0.092872836 -0.07417042 -0.10260475 -0.05903186 -0.13445488 0.03475641 -0.21246183
-0.091470666 -0.13398565 0.05577112 -0.21120442 -0.016782295 -0.12864512 -0.08427362 -0.11057357
-0.06486937 -0.024105825 -0.10350247 -0.10128188 -0.11807377 0.10146168 -0.24287088 0.1103605
-0.020340107 -0.14402768 -0.14228465 -0.107168846 0.18620896 0.06715423 0.15868533 -0.26026222
0.08819217 -0.14117011 -0.042705987 0.16871065 -0.19837786 -0.054749373 -0.01832741 0.021715771
-0.26993924 -0.06816214 0.03808231 -0.35281804 -0.07500996 0.14816694 -0.040458865 -0.3559795
-0.23174305 -0.30972663 0.1337594 -0.15207201 -0.04116853 -0.19951293 -0.062147588 -0.04979873

bn1.weight f4 [128]
00000000: c9d7 f53e cde7 323f 8bfa 893f fe29 4c3f
00000010: 93d6 043f 7f67 3d3f fae8 8d3e 977a cf3e
00000020: 2394 343f f202 ed3e 1fe4 853f 51d1 643f
00000030: 4f76 7d3f 1119 2e3f a673 263f c03d 413f
00000040: 7b74 2b3f 61e3 193f 2846 3139 b9bf 863f
00000050: 6b60 8b3f 0872 9e3e c786 013f ac72 a23e
00000060: 1b55 213f 28d1 9a3f 6e7d 743f 20e6 253f
00000070: 6eeb 523f 9a9c 403f a1e7 543f 1c50 bd3e
00000080: bccd 473f b8bb d13e 71bc dc3e 7478 0e3f
00000090: c462 2b3f e1f3 dd3e a868 353f a045 3e3f
000000a0: a460 033f 821a 573f 352c 883f 477b 2c3f
000000b0: edc5 033f 34e3 ba3e 3edb b23e 535e b53e
000000c0: 291d f43e 0651 0d3f 5751 6a3f f7e6 733f
000000d0: d99e 923f 8fd8 943f 4e25 103f ffb0 1e3f
000000e0: 49b9 483f 10c3 d53e 88f8 773f 8f07 2a3f
000000f0: 820f cd3e a602 cc3e 7e11 d03e 4621 573f
00000100: 0586 843f dda2 893f 4942 c93e 723a d73e
00000110: 37ba 0a3f 965c 9c3e 8a18 1a3f c277 ae3e
00000120: 6c87 663f 5aa8 d33e e38c d83e ea92 7a3f
00000130: 47dd e03e 4055 473f 928b 893f 39ac 8d3f
00000140: 63a9 633f 7190 073f 20e2 6e3f 4cc6 123f
00000150: 664e 263f 9e27 3b3f f5ec 483f 682b 623f
00000160: 9ac3 5f3f 5a14 7c3f 9a2c 3b3f a7be 213f
00000170: ce5e 683f 8936 323f cbf3 883e b06c 393f
00000180: 2bc4 f03e 3966 bc3e f989 633f d934 323f
00000190: c717 373f f1a9 2a3f 58b7 543f 0f50 923f
000001a0: 69ad 423f 4714 4d3f 5fe5 aa3e 1060 6b3f
000001b0: 80a6 3e3f 26c7 5f3f 6a81 683f 295e 303f
000001c0: 1c66 263f 68d1 893f 17bd 6f3f f60c f23e
000001d0: 4add 803f 3c15 903f 1313 5d3f 93c6 cb3e
000001e0: ca1f 673f 2d10 203f 9793 863f 3a37 f5ba
000001f0: a3d2 353f 9390 2c3f 85d4 423f c454 513f
0.48016194 0.6988495 1.0779585 0.79751575 0.51889914 0.7398605 0.2771681 0.40523216
0.7053854 0.4629131 1.0460242 0.8938189 0.9900865 0.68007 0.65020216 0.7548485
0.6697461 0.6011258 0.0001690617 1.0527259 1.08888 0.30946374 0.5059628 0.31728113
0.63020486 1.209508 0.9550389 0.6480427 0.8239049 0.75238955 0.8316594 0.3697518
0.780483 0.4096353 0.4311252 0.55652547 0.6694758 0.43350127 0.7086282 0.7432499
0.51319337 0.8402482 1.0638491 0.67375606 0.51473886 0.36501467 0.34932894 0.35423526
0.47678497 0.55201757 0.91530365 0.952743 1.1454726 1.1628588 0.5630692 0.61988825
0.7840772 0.41750383 0.96863604 0.66417783 0.40050894 0.3984577 0.40638345 0.84035146
1.03534 1.0752827 0.39308384 0.42036778 0.5419039 0.30539387 0.60193694 0.34075743
0.9005039 0.4133938 0.42294988 0.97880423 0.4391882 0.77864456 1.0745718 1.1068183
0.8893034 0.52954775 0.9331379 0.57333827 0.64963377 0.73107326 0.7848657 0.8834748
0.8740784 0.98468554 0.7311493 0.6318154 0.9076966 0.69614464 0.267485 0.7243147
0.47024664 0.3679674 0.88882405 0.6961189 0.71520656 0.6666556 0.8309226 1.1430682
0.7604585 0.80109066 0.3337812 0.91943455 0.7447281 0.8741325 0.9082247 0.68893677
0.64999557 1.0767031 0.93647903 0.47275513 1.0067532 1.125648 0.8635723 0.39799938
0.9028288 0.6252468 1.0513791 -0.0018708475 0.7102453 0.674081 0.7610553 0.8176997

bn1.bias f4 [128]
00000000: 9205 b83d 7047 6abc 7210 a23d eb91 453e
00000010: f029 7c3e 0e8a 2c3e 92fb 513e c358 113e
00000020: c24b 3f3e dfeb 443e 3f47 2f3d d3e4 823e
00000030: 4158 94b9 36cf 2c3e a846 1c3e b7e6 083d
00000040: a96e 6c3e 8134 ddbb cd39 16bc 7223 093e
00000050: dd31 ce3d 8273 3c3e 8e32 543e 49f9 fa3c
00000060: faec 3c3e fa8a bd3e e3f3 993d cb46 5d3e
00000070: ccf3 173e cfd4 f93c 6354 cb3c 0a87 d43d
00000080: 641c c53d 5656 9b3e d8f2 093e 8a3e 473e
00000090: 0874 833c 68e5 feba f70d ce3d fdca 8b3d
000000a0: 5e6b 6a3d f824 9c3d 13bf 553e ff55 643e
000000b0: 6668 033e 99bf c83d bda1 ee3d 69de 043e
000000c0: d576 143e 981c 663e 4200 5d3e 23cc 663e
000000d0: e3dd 1f3e 2672 e43d 923b 253e f146 0c3e
000000e0: 7a5e c23d 1837 703d 3fc7 293e e9b5 b03e
000000f0: 4247 243e 6dcd 183e a5ad 5e3c 87a7 c73d
00000100: 1932 8a3e 78b3 f83d 089f 833c b64a 2f3e
00000110: 253a e63c 7118 413b e758 9d3d 05ba f23d
00000120: e2be 8f3e 0368 683e 78ee e23d 7bc1 033d
00000130: 64e9 fa3d 3a8a 473e 79d5 8a3e aff6 613d
00000140: 0ea1 7f3d 7c08 eb3d 3206 473e 9d7e dabd
00000150: 1871 323e 967e 503e 304e 1c3e 7444 e23c
00000160: 6679 593e c918 803e 4081 903b 441a ad3d
00000170: d1cf b03d 72cf 8c3d 1523 bc3d dec3 203d
00000180: 3d20 263e a9cd 8ebd 7a00 133e 45b7 ce3c
00000190: 95b4 4a3e a448 893e 43c9 983d 5e4f b13d
000001a0: 257c a93e cd58 083e 1bc0 093e 335f 3b3e
000001b0: 122e 063d 0a44 213e 4e68 403e 1f92 743e
000001c0: 3c6e 453c 6314 75bd 29ca 973d 0ef9 d7ba
000001d0: a5ed 7c3d 8b37 453e 2876 0c3e 9f6d b73d
000001e0: d6c2 433e 7e7a d13d 80c1 353e 47bb 7fbc
000001f0: b42d 833d 4c7c d23d ed23 2a3e 64d2 613d
0.089854375 -0.014299259 0.07913293 0.19293945 0.24625373 0.16849539 0.20506123 0.14194016
0.18681243 0.19230603 0.042792555 0.25565204 -0.00028294514 0.1687592 0.15261328 0.03342315
0.23089088 -0.0067506437 -0.009169054 0.13392428 0.100681044 0.18403438 0.2072241 0.030636447
0.18449774 0.37020093 0.07517221 0.21609037 0.14839095 0.030496983 0.024820512 0.10377319
0.09624556 0.30339307 0.13471544 0.1945745 0.016046539 -0.001944703 0.10061257 0.06825826
0.0572313 0.07624239 0.2087367 0.2229843 0.12832794 0.09802169 0.11651943 0.12975468
0.14498456 0.22471845 0.2158213 0.2253881 0.15611987 0.111545846 0.16136006 0.13698937
0.09490676 0.05864629 0.16579913 0.34513786 0.16042808 0.14922114 0.013591205 0.0974875
0.26991346 0.12143606 0.016067043 0.17118344 0.028103897 0.002946403 0.076829724 0.11851887
0.2807532 0.22695927 0.110806406 0.03216694 0.12251547 0.19486323 0.27115992 0.055166896
0.062409453 0.11476228 0.19435957 -0.10668681 0.17425954 0.20360789 0.15264201 0.027620532
0.21237716 0.2501891 0.004409939 0.084522754 0.08633388 0.068755046 0.09186379 0.039249294
0.16223235 -0.0697282 0.1435565 0.025233874 0.19795449 0.26813233 0.074602626 0.08657716
0.33102527 0.13315125 0.13452189 0.18298034 0.03275878 0.15748611 0.18789789 0.23883866
0.012050208 -0.059833895 0.07411606 -0.0016477422 0.061750073 0.19259469 0.13716948 0.089564554
0.19117293 0.10228442 0.17749596 -0.015608615 0.064052016 0.10277614 0.16615267 0.055132285

bn1.running_mean f4 [128]
00000000: 7c34 233e 54d2 da39 79c5 303f 7219 e63e
00000010: 84e3 123f b08e 8a3e 3aa5 573e e652 253d
00000020: a1e6 e03e 2745 9d3e d619 3d3e 058b 8f3d
00000030: 0d0d 5239 f6a9 d43e fe61 893e 4435 e43e
00000040: 7fdd 883e 1709 103a dfaf f43d 75c9 643e
00000050: f8f9 703e 8af3 473d 8e03 113e 319d 483d
00000060: 7b32 953e 418d fb3e 63ad 553e f348 243f
00000070: 549f 963e 2b70 d13e cd05 073b 07a0 0f3e
00000080: 52d8 2f3e 3fa4 c53e e687 b42e 7c7b 023d
00000090: 3d3b 8b39 8850 8f32 daeb 073e a579 b23d
000000a0: 299a c939 b70f 8e3c bb6e 263f 2f30 a83d
000000b0: edd4 853d 3afe 9d3c d910 fd3d 98b3 3d39
000000c0: 5b16 db3d e152 1c3e 5224 623e 4670 233e
000000d0: 662a 453d a1d6 073d 89be 033e dd96 2d3e
000000e0: 23fb 583e d439 943e 3f8a dd3e 144a 6c3f
000000f0: 3694 fc3d 3ad6 da3d a462 983a 6dd4 0d3e
00000100: 9461 443e 814a 353e e7e9 df3b f753 8a3e
00000110: 26c6 b03c ab4b 3739 e9cc 813e daa3 d93d
00000120: f0a9 b63f a0ba e73e ef93 9b3e d799 443f
00000130: 330e ca3d 4c76 443e 90e4 bb3e aeb9 e53d
00000140: 61e0 293e ed04 633e d55b 283e e87d 9b3c
00000150: edd1 083e 540b cb3e d724 993d b116 853d
00000160: a878 7c3e dc25 ee3d 574f 853d 0058 513e
00000170: 0d0b c13d 498b f03e 3cba 513e 2e20 c43e
00000180: e384 7c3e f475 e23d dd6f 0c3d 99e4 153f
00000190: 406c 933e 881f 293e e5b3 033f cebe 043e
000001a0: 20d1 403f 4e25 643e 0f4f bd3c 5ecd 2f3e
000001b0: 7667 043d 9e21 243e 9296 153e 93f8 623e
000001c0: 4260 c23c 28cf d53d 9c48 5d3e f344 9239
000001d0: f51d 7a3e 7964 413f e31d 113e 0ded 8937
000001e0: 98a7 083e fc99 083e 3ee6 7c3e bbc9 c73d
000001f0: ae69 b53c e53e b63e ad91 1f3e 4e2f 1b3d
0.1593799 0.00041736907 0.6905132 0.44941288 0.5737841 0.27061987 0.21059123 0.04036226
0.43925956 0.30716822 0.18466887 0.07008938 0.00020032022 0.4153592 0.26832575 0.44571888
0.26731488 0.00054945186 0.11947607 0.22342475 0.23532856 0.04881624 0.14161512 0.048978034
0.29140076 0.49131206 0.20866923 0.6417381 0.29418433 0.4090589 0.0020602823 0.1402589
0.17172363 0.38601872 8.209593e-11 0.031856045 0.00026556282 1.6684012e-08 0.13273564 0.08714608
0.00038452566 0.017341478 0.6501271 0.08212315 0.06534753 0.019286264 0.12356729 0.00018091348
0.10697623 0.15265991 0.22084168 0.15960798 0.048136137 0.03316367 0.12865652 0.16952081
0.21189551 0.2895037 0.43269536 0.92300534 0.123329565 0.10685392 0.0011626077 0.13850565
0.19177848 0.17704202 0.0068333033 0.27017185 0.02157886 0.00017480429 0.25351647 0.10626955
1.4270611 0.4525957 0.30386302 0.7679724 0.098659895 0.19185752 0.36697817 0.11217056
0.165895 0.22169848 0.16441281 0.018980935 0.1336133 0.3965708 0.0747773 0.06498469
0.24655402 0.11628315 0.065092735 0.20443726 0.09425936 0.46981266 0.20481199 0.383058
0.24660067 0.11057654 0.03428637 0.5855194 0.28793526 0.16515934 0.5144637 0.12963411
0.753191 0.22279856 0.023108987 0.17168185 0.03232523 0.16028449 0.1460822 0.22165136
0.02372754 0.104399025 0.2160973 0.0002789866 0.2442549 0.75543934 0.14171557 1.6442058e-05
0.13345182 0.1333999 0.24697205 0.09755274 0.022145119 0.3559486 0.15582915 0.03788691

bn1.running_var f4 [128]
00000000: 219b 5b3d 59ea 1b39 ca74 213f d01c 813e
00000010: 45f2 9b3e 3a5d a83d c12f df3d 1439 643c
00000020: c38c 4c3e 27fd e63d 3ec2 f93d a58e a63c
00000030: d2d2 4b38 1940 073e c167 1c3e 25b2 ba3e
00000040: bae5 e23d 5a12 9b39 55ee 223d 0abe e03d
00000050: fdaa e23d 4900 d53c fab5 3c3d 54ea ae3c
00000060: 921f db3d 8d9c e23d 3995 ca3d aa55 fb3e
00000070: 0fb4 e83d 707b b63e a041 2b3a e365 4b3d
00000080: 1fac c23d 645f 973d f517 4f2d 86c3 e43b
00000090: cb22 6d38 262e 1b2f aa6c 963d a843 233d
000000a0: a689 2239 cd70 9c3b 6948 953e 6e79 d83c
000000b0: f429 093d 9eea e63b da55 283d 6d74 a238
000000c0: 5fb0 633d 947f 053d d20a 773d 1192 f43c
000000d0: a648 2b3c dc2e df3b 3cde 413d 29da e53d
000000e0: 2d18 0d3e 6d86 553e 307f 5d3e 3514 043e
000000f0: e777 833d b822 1e3d 0953 b73a 442a a83d
00000100: e214 223d 86a4 4b3d 8723 b73a f293 013e
00000110: 46eb 433c 9154 0238 06f7 1c3e 60b5 7e3d
00000120: 805a c13f 6227 b13e af1a 503e 6b7e 263f
00000130: 9c72 003d 67b3 093e 7eab f83d 5d02 463d
00000140: 7dba 653d 6834 da3d 9b2a 0d3d b8b6 e03b
00000150: f973 263d 33b7 2f3e e1b3 133d b520 dc3c
00000160: 1848 db3d ca3b cf3c c52c d63c e261 d73d
00000170: 3c2a e13c 2c05 9b3e f3b9 be3d 1cdb 0d3e
00000180: 6663 433e db61 103d 2fa4 1c3c fde5 ec3e
00000190: a810 9a3d d8e9 ab3d 56bd f13e 1917 243d
000001a0: f5ca fd3d 3538 023e e7ec a03b d58e 7f3d
000001b0: 21d5 4f3c b7da 503d 3bd8 6b3d 03f3 b43d
000001c0: 5259 e33b f190 2c3d 853c c73d 7579 8a38
000001d0: 017f 103e bea4 443e 24a5 623d 4383 f636
000001e0: 75c5 cb3d fd46 633d 6f69 8c3d e549 ff3c
000001f0: 2fac f53b 170a 813e 1578 a93d 6224 1c3c
0.05361474 0.00014869253 0.6306883 0.25217295 0.30458274 0.082209066 0.1089778 0.013929624
0.19975571 0.11278754 0.12195252 0.02033169 4.8595313e-05 0.13208045 0.15273954 0.36464038
0.11078973 0.00029577577 0.039778072 0.10973747 0.1106777 0.026001113 0.046071984 0.02135197
0.10699381 0.11065016 0.09891743 0.49088794 0.113624685 0.3564105 0.0006532911 0.049657714
0.09505486 0.07391241 1.1771907e-11 0.006981316 5.6537607e-05 1.4113563e-10 0.07344945 0.039859444
0.00015500802 0.004774189 0.29156807 0.02642509 0.033487275 0.0070470115 0.0410975 7.746448e-05
0.055588122 0.03259237 0.060313053 0.029854806 0.010454332 0.006811006 0.04733108 0.112232514
0.13778754 0.2085206 0.2163055 0.12898333 0.06419354 0.03860733 0.0013986538 0.082111865
0.039570697 0.04971745 0.001397238 0.12654093 0.011957949 3.1073174e-05 0.15328607 0.06218469
1.5105743 0.3460036 0.20322679 0.6503665 0.0313593 0.13447343 0.121420845 0.048342098
0.056086052 0.10654527 0.03446446 0.0068577193 0.040637944 0.17159729 0.036060218 0.026871065
0.1070711 0.025297064 0.026144395 0.105167165 0.02748596 0.30277383 0.09312811 0.13853115
0.19080886 0.035249572 0.009560629 0.46269217 0.07522708 0.083942115 0.47214764 0.04006109
0.123922266 0.12716754 0.0049110535 0.062392075 0.012685091 0.050989833 0.05757926 0.08835413
0.006938138 0.042130414 0.0972834 6.602976e-05 0.14110948 0.19203469 0.05533327 7.346652e-06
0.09949771 0.05548762 0.06856047 0.031163165 0.0074973325 0.2520301 0.08274857 0.009530159

fc2.weight f4 [128, 128]
00000000: fd27 2ebe b511 ba3d ea87 68bd 61cb 5ebe
00000010: e782 f33b d61b 533e 160e 173e 0de3 5d3e
00000020: 753e 21bb 4b20 193e 69db 93bd 505f c8bd
00000030: d136 1c3c ac6b 443d 8811 b73d 8944 48be
00000040: ba27 163d 11c3 ed3d 8792 a93d 0b69 0f3c
00000050: 113f bc3d 659b 77be bbe7 dc3c 706f 4bbd
00000060: b06e 91be 4e87 afbe bae0 623d d400 7dbd
00000070: 2882 28bc be3a 31be 460a 013e de03 743d
00000080: 3159 63bd a7b3 05bc 5efe 853e af5a eebd
00000090: e145 a6bc 6b4c 84bd 413c c4bd 9eb1 b6bd
000000a0: 5243 2cbc 715c 9f3d 02a5 24bd 1100 4f3e
000000b0: 0dcd fdbd 526c 043e af0c a9bd 6f10 a4bb
000000c0: 95b8 6bbe 466b 163e 7230 fabc 77fa 03be
000000d0: 24a3 2cbd 781d 573d 3cca 443e 240e b5bd
000000e0: 4d73 f0b9 4c1d 453e 26ac dabd 9bdd 4b3e
000000f0: df4d fe3d e4da 06be 142e 973d 1b99 11bd
00000100: e953 183e 9684 91be 6c55 00be bc0e 123e
00000110: 4a8d 853e 69f6 68bc 2a3e d53d f60a 57be
00000120: b83c ff3c 1c6b cabd d723 353e 2f8c 3dbe
00000130: a840 0e3e e55a bc3d 328e 93be 9316 503d
00000140: b826 00be b801 0fbd f1b9 10be 4ea7 84bc
00000150: 16ff 5abe 3ae5 0f3e cfdc d83d 9655 123d
00000160: 147d 0c3e 5675 4dbd cf8b 093d 9065 ff39
00000170: 6e64 8ebd 8295 32be 8d0d 6b3e 5efc b33d
00000180: 9bbe e93c 2ccd 233e 0731 783d ca75 41bd
00000190: 0fcd d0bc 076e 213d 7cf1 f0bd 356c 0d3e
000001a0: d5f9 0bbe 1f08 833d 5550 19be 1cf6 09bd
000001b0: 4839 4f3d 5062 103e 7099 b7bd c985 91bd
000001c0: 30d0 7b3e 1c79 debc b9e5 c73c fab0 bcbb
000001d0: 78d3 9f3d c466 883d 027c d2bd fc3a f4bc
000001e0: 0034 99bd e322 b8bd 7dfb 8bbc 3bda 3fbd
000001f0: dc97 3bbd 14d4 dd3c 20e9 22bd fcd7 583d
00000200: 06ad 4bbd 08da 843c 2dc0 a2be 0c83 153e
00000210: 6e93 b13c e476 ac3c a760 d73d faed aabd
00000220: 6883 edbd c754 4c3e 50ce d7bd 71f5 fcbd
00000230: 4c0f 07bc cbc1 2dbe 8437 eebe d39d b9bc
00000240: b12e 85be bfb9 2f3e 1d7e 923d a73a 28be
00000250: 8e3b bbbc 3d8c adbd 96c4 cb3d 27bf 5fbe
00000260: 95b6 813c fd7c 30bd 36ed a6bd 4435 2fbe
00000270: f6bb 913d ae20 9b3d c692 78be 39fb 0dbc
00000280: 541c 603d d739 2a3e 1682 673d 4d52 95be
00000290: 6fc6 853d 57d9 983c de7d 1c3e 997b 75bd
000002a0: 4eb3 103e 6fcb 0e3d eb9e d53d 8a58 65bd
000002b0: f5b3 b2be b81d de3d 93f5 2abe 647a 773d
000002c0: 941f 123e b60c a93d 5458 79be 481b 4ebd
000002d0: fbb2 953e 8e5b 943e 048f 1f3d 9b41 4cbe
000002e0: 07a7 e1bd e887 f0bd 1c03 afbc 9003 e33c
000002f0: 5a72 0dbe 0d83 4d3e ae68 2e3d 069d e1bd
00000300: d05b 4c3e 2ff6 c0bc bd8c 043d a62b bc3d
00000310: 2eb5 49be 6ab9 8f3d b967 b0be 3028 38be
00000320: 592d 8c3d afbc c0be d20a 033e 4d05 92be
00000330: c2cc 51bc c305 edbd ad6f 193e 311f ec3d
00000340: 6757 fc3d fd2b 8c3d 6bfb 4dbd c63a b3bd
00000350: cd75 80bc cb78 083e 7b20 0e3c 89e5 f63d
00000360: 7b0b 94be 25dc 88bb 0abc 4fbd aa93 5e3d
00000370: 663a fe3d 1d5f c5bc b5d9 4dbe 6800 b93d
00000380: 3329 f0bd 8100 02be d5bc bebd 19c1 0cbe
00000390: 8351 c7bc 06ce d3be f382 b13d c222 aa3e
000003a0: 8bf8 f8bd b0b8 bbbd ec05 653d 8f28 01be
000003b0: 2329 19bd dba0 54be 98b1 8dbd f58f 293e
000003c0: 70d0 863d 8a1a ed3d 883e 2abe 6624 1dbd
000003d0: 480d 0abe 6a66 8d3d 4b32 85be fc67 ab3d
000003e0: 16d8 733d f9d2 9a3d 0245 9e3c 0ecd 1f3d
000003f0: 6e91 09be 1d21 323e 9697 993d 21ab e43d
-0.17007442 0.090854086 -0.056770243 -0.2175727 0.0074313763 0.20616087 0.14751467 0.21668644
-0.0024603878 0.14953725 -0.072195835 -0.097838044 0.009534554 0.047954246 0.08938891 -0.19557394
0.03665898 0.116094716 0.08279901 0.008753072 0.091917165 -0.24180372 0.026965966 -0.049666822
-0.2840476 -0.34282917 0.055390097 -0.061768368 -0.010284938 -0.17307565 0.12601575 0.059574
-0.05550498 -0.008160508 0.2617063 -0.1163839 -0.020296993 -0.06459888 -0.09581805 -0.089205965
-0.010514097 0.07781304 -0.040196426 0.20214869 -0.12392626 0.12931946 -0.08254372 -0.005006842
-0.23019631 0.14689359 -0.030540679 -0.12888514 -0.04214777 0.052518338 0.19217771 -0.08840588
-0.00045862273 0.19249457 -0.10677366 0.19908755 0.124171965 -0.13169438 0.073818356 -0.035546403
0.14875759 -0.28421468 -0.12532586 0.14263433 0.26084358 -0.014218905 0.104122475 -0.21000275
0.031156883 -0.09883711 0.17689453 -0.18510507 0.13891852 0.09197024 -0.28819424 0.05080278
-0.1251477 -0.03491375 -0.14133431 -0.016193058 -0.2138637 0.14052287 0.10588991 0.035726152
0.13719589 -0.05016073 0.033580597 0.0004871306 -0.06952749 -0.17439845 0.22954388 0.087883696
0.02853327 0.15996236 0.06059363 -0.047231473 -0.025488405 0.03941157 -0.117648095 0.13810809
-0.13669522 0.06398033 -0.1497205 -0.033681974 0.050591737 0.14100003 -0.08964813 -0.071055956
0.24591136 -0.027157359 0.024401532 -0.005758402 0.07804006 0.06660226 -0.10277559 -0.029813282
-0.07480621 -0.08991029 -0.017087692 -0.04683898 -0.04579912 0.027078666 -0.039773107 0.052940354
-0.049725555 0.016217247 -0.31787243 0.14600772 0.021676745 0.021052785 0.10516482 -0.08346172
-0.115973294 0.19954215 -0.10537398 -0.12351502 -0.008243393 -0.16968457 -0.4652673 -0.022658264
-0.26012185 0.171607 0.071529604 -0.16428624 -0.022855546 -0.08474014 0.09949605 -0.21850263
0.015834132 -0.043087948 -0.08150713 -0.17110163 0.07115929 0.075745925 -0.2427474 -0.008665853
0.054714516 0.16623627 0.056520544 -0.29164353 0.06531989 0.018658323 0.1528239 -0.059932325
0.141309 0.03486198 0.10430702 -0.05599264 -0.3490292 0.10845512 -0.16695242 0.060419455
0.14269859 0.082543775 -0.24350101 -0.050318986 0.29238114 0.289761 0.03895475 -0.19946902
-0.11018186 -0.11744672 -0.021363787 0.02771166 -0.13813153 0.20069523 0.0425803 -0.11016278
0.19956899 -0.02355489 0.03236078 0.09188013 -0.19698021 0.07017787 -0.34454134 -0.1798408
0.06844587 -0.37643954 0.12797096 -0.2851967 -0.012805166 -0.115733646 0.14984007 0.11529387
0.12321358 0.068443276 -0.0502886 -0.087514445 -0.015681172 0.13327329 0.008674736 0.12055499
-0.2891501 -0.004176634 -0.050716437 0.054340042 0.12413482 -0.024093205 -0.2010258 0.090332806
-0.11726608 -0.12695505 -0.093133606 -0.13745536 -0.02433086 -0.4136812 0.08667555 0.33229643
-0.12156781 -0.09166086 0.05591385 -0.12613128 -0.037392747 -0.20764486 -0.06918639 0.16558821
0.06582725 0.115773275 -0.16625416 -0.03836479 -0.13481629 0.069042996 -0.26014933 0.08369443
0.059532247 0.07559771 0.019320015 0.039013915 -0.13434383 0.17395444 0.07499616 0.11165453

fc2.bias f4 [128]
00000000: fac0 603c b48f fbbc d701 603d 9198 75bd
00000010: 4ab2 0c3d 1985 31be 993f b93c c917 68bc
00000020: 5cbe 49bd 4e3d ac3c adca 833d d04f 52bc
00000030: 7920 b13d 2969 1d3e 055b 87bd 56e9 93bd
00000040: c7c3 a13c 3536 7bbd 027a 64bd ae47 cc3d
00000050: 3022 e03d 7f20 553d 80ae e0bb c8f6 d13c
00000060: 6d97 19bd 596f 4ebd d139 82bd 538a 443c
00000070: ce45 143d b7aa 1abd 1b66 e2bd 74fd 8abd
00000080: 1cac aebd c133 b23d af05 803b d78d 1f3e
00000090: 3bc4 ccbd f7c7 67bd 5651 e23d bffb b0bd
000000a0: 8546 f9bd a4f7 443a 89f6 2ebc 276d 193e
000000b0: afc6 143e 301e 1cbc 304f da3d 1370 043e
000000c0: 6d1a 37bd f578 a43d c582 5fbd c14a b3bd
000000d0: 11c7 73bc feca b7bd d931 7abd 6aa2 e1bd
000000e0: 8de8 ac3c cb99 a4bd 4b01 103d 01f2 323d
000000f0: 8bca 0cbe 1928 793d d468 903d d751 573d
00000100: a091 83bc 0e16 8d3d d18c efbc 890c 763d
00000110: e9ce 40bd a840 4c3d b8ec f4bd 9430 753c
00000120: b35c b83d cbf1 31bd cf01 b63d 4b5e 173b
00000130: 8f86 913d f5bb e03d 0204 cd3d 24dc a0bd
00000140: 7c52 0abe 4e89 293d fbe7 6f3d 20f0 d33d
00000150: c5bb d93d a93d 1d3b 0183 f7bc b5c7 fbbd
00000160: 9549 3bbc 8e86 28bd e9e2 b9bd 48c4 26bd
00000170: dc14 df3c 6059 20be cdc6 a53d ed8e 60bc
00000180: 31bd 1cbe 64c5 203e df4e b2bb f911 b13b
00000190: 5fd8 203d 9b87 7d3d 5293 943c 63ee d73b
000001a0: d8cd 09bd 62db b4bd c30c 003e f703 8b3c
000001b0: 4667 eb3b 47aa 5f3d 948f 3fbb e6e5 fb3b
000001c0: f500 60be c393 7c3d 84ee 2abd b104 09bc
000001d0: d140 e0bb f468 24bd fae2 2ebe e625 99bb
000001e0: f6d1 d8bc 0067 603d a402 123a ea93 8ebd
000001f0: 7962 88bc 16fd e1bc 1694 a93d 76a6 ab3d
0.013717884 -0.030708171 0.054689255 -0.05995995 0.034349717 -0.17335929 0.022613334 -0.014165827
-0.049253806 0.021025326 0.06435142 -0.012836412 0.08648772 0.15372147 -0.066091575 -0.0722224
0.019746674 -0.061330993 -0.05578042 0.09974609 0.10944021 0.052032944 -0.0068567395 0.02563037
-0.037497927 -0.05039916 -0.06358684 0.01199587 0.036199383 -0.037760463 -0.11054631 -0.067866236
-0.08528921 0.087012775 0.0039069275 0.15581451 -0.099983655 -0.056587186 0.1105067 -0.08641767
-0.12171654 0.0007513708 -0.010678896 0.14983045 0.14528917 -0.009528682 0.10659635 0.12933378
-0.044702936 0.08030883 -0.05456807 -0.087544926 -0.014879004 -0.089742646 -0.061082695 -0.11017306
0.021106983 -0.08037146 0.035157483 0.043687824 -0.13749139 0.060829256 0.070512444 0.052568283
-0.01606065 0.06888972 -0.029241951 0.06007055 -0.047072325 0.04986635 -0.11959213 0.014965195
0.09002056 -0.043443482 0.08887064 0.0023096974 0.07105743 0.1097335 0.1001053 -0.078544885
-0.13508028 0.04139071 0.058570843 0.103485346 0.10631517 0.002399305 -0.030213835 -0.122939505
-0.011431118 -0.041143946 -0.09076483 -0.040714532 0.027231626 -0.15659094 0.08094559 -0.013705951
-0.15306546 0.15700299 -0.005441531 0.005403754 0.039268848 0.0618969 0.018136654 0.006589697
-0.033643574 -0.088309065 0.12504868 0.016969664 0.007183942 0.05460575 -0.0029229866 0.007687318
-0.21875365 0.061664354 -0.041731372 -0.008362935 -0.006843664 -0.040139154 -0.17078772 -0.0046737073
-0.026467305 0.05478573 0.00055698515 -0.06961806 -0.016648518 -0.027586501 0.08280198 0.08381359

fc3.weight f4 [4, 128]
00000000: 0f10 1c3d c9b0 c1bd af95 0d3f 4923 053e
00000010: 1caa a3bd 8538 133f 1ec7 4f3e ea0a 61be
00000020: 4234 a53e a1e2 29bd 6b29 f4bd f211 323b
00000030: c005 2bbe ada2 7b3d 683e 933e 5aa1 4b3c
00000040: dd69 823d d845 acbd b276 a23e a196 6cbc
00000050: 3b44 183e 7c85 783e bd18 f3bd 4119 1abe
00000060: 54f7 913e 9077 a3bd 3511 6abe bd59 e73e
00000070: 4b46 5abc 2dd8 ce3d e093 7a3e 81a2 b4bd
00000080: b027 b4be 481d bf3d 217c d63d 2334 14be
00000090: 82ff 47bd 866c 803e decf b0bd fa92 3e3b
000000a0: 20d5 d23e e0b9 12be 230a 0abe 4e39 fbbc
000000b0: ac24 82bd bc08 3d3e c818 06bf 1b94 813e
000000c0: c025 25bb 0f64 96bc dace 51be c1fe 84be
000000d0: d647 ae3d e8a2 683e ff5f c83c f241 9ebb
000000e0: 306f 63bd ec7a 11be 75e2 7abd a6bc 4bbe
000000f0: 7845 dabd 1eaf 0fbe be85 123d 0dba cdbe
00000100: 0731 a93e 83b0 ebbb 9864 0fbe 4a52 aebd
00000110: 1cf8 26be 4aec 83bd bb27 223e cbf6 abbd
00000120: 1010 9d3d 47b4 65be a951 e8bc 2d96 82bd
00000130: 2c45 863b 12fc aabb 9acb 6cbd f5c7 a1bd
00000140: 1684 243e eab3 d2bc f613 39be aef2 543e
00000150: 572b 0ebe 6ae3 523d 4227 613e 42d3 dfbd
00000160: b963 6a3e 62e6 4fbc 9f53 3d3e 628b a0bc
00000170: 2c90 303d 4237 0a3e 38a7 813e 4377 abbd
00000180: ef71 773e 1447 71bd ba44 f03c eb72 a13d
00000190: 70d9 03bd 2a5d 543e 2f4f cbbd 7195 dabc
000001a0: 1f58 783e 00cf d13d df3e 16bd 5715 cc3c
000001b0: 8f59 b03e f9ce f8bd 2203 0c3e d170 9cbd
000001c0: dcb8 0e3e 5bd3 c23d a264 0abe 635a 46be
000001d0: fc51 783e fac3 a3bd 4753 60bc 7875 bb3d
000001e0: 956f acbb 81dc d53e 3be8 ae3c 6dc9 81be
000001f0: 5ec4 ac3d 12ec 623d 29c8 91bc b8d7 703e
00000200: 7de6 94bd 09f4 063d fbec 803e 222e 68bd
00000210: 0f5f 86bd 3d6b 1e3c ae46 b33d 25bc bfbd
00000220: 4d76 3c3e 6edd abbd 8553 9f3d 7a7a 1c3d
00000230: d612 0cbe 6b9f a13e 34ae 9dbe bcdd 97be
00000240: 05e1 e93e 2949 753d 2c8d e8bc cf0a 333e
00000250: be4b f0bc 8587 843d 073c 19bd 3d4c 03be
00000260: a694 fe3d 74d3 41be 84ce 753c 1944 abbd
00000270: 3c35 583e c051 8e3e 02f8 873d dad6 a43d
00000280: f2db 273d 1cea 97bd 5e66 033f fdc4 8f3e
00000290: ef2c b3be aee2 0e3e 2c55 ce3e 7af2 e4bd
000002a0: b205 8b3e ab0a b5bd 6903 babd b3bc 0b3e
000002b0: dfb0 1bbe fbd8 883d 5270 d93c 30ef 103d
000002c0: 60b8 873d c784 f83e 74ec 2e3d b4a0 57be
000002d0: 55a9 d13c a0de 44be 9610 adbd 3902 5ebd
000002e0: e769 9a3e 6c29 763d 3747 413e 5049 0e3d
000002f0: 769a 7c3e 9c75 85bd d7d7 f73c 09c3 3dbe
00000300: 0fdc 5fbe 886c 18bd e992 06be 5ce3 223e
00000310: 7342 593d 559f 67be feb3 08bd ed94 fcbd
00000320: 0c07 b3be 020e bb3d 6fea f83d 57b1 203e
00000330: b6c8 3f3d ff5b f9bd 6644 f2bd 83b6 363e
00000340: 35dd 10bf 8eb1 17be d14c 123d 963a 1939
00000350: b068 623d 5986 ddbd 5e3d 483e bcf6 47be
00000360: 07a4 69bd f699 8c3e 555a 1bbc b12e f03c
00000370: f669 473e ae17 94bd b95e 72bd c3ce 433d
00000380: a9a4 2d3d f88b 973e 9929 903d 5564 98bd
00000390: c94d c53d 76b6 163e 8372 7f3d ca92 933c
000003a0: 84a1 a53d a843 ebbe a8ce f1be bb64 283e
000003b0: 6f7f de3d 00d0 653c 2a4d d6bd 0190 6e3e
000003c0: 8e0b 103e 68a4 26bc 4fa0 04be fd6f 203e
000003d0: 60b1 5c3e 5141 16bd 9ccf 8bbe be4d 31be
000003e0: edb3 963e 5d4c 313e 9d1d 35bc cb9c 0ebe
000003f0: cdd9 c33e 7331 433e 141f 3dbe f3a6 913e
0.038101252 -0.09457547 0.55306524 0.13001741 -0.0799143 0.57508117 0.20290801 -0.2197682
0.32266432 -0.041475896 -0.11921962 0.002717134 -0.16701412 0.061434437 0.2875855 0.012428606
0.06367848 -0.08411759 0.31731182 -0.01444021 0.14869778 0.2426967 -0.11869953 -0.15048696
0.2850901 -0.07981789 -0.22858126 0.45185652 -0.013322423 0.10099826 0.24470472 -0.08820058
-0.3518653 0.09331757 0.104728945 -0.14473014 -0.048827656 0.25082797 -0.086333975 0.0029079304
0.41178226 -0.14328718 -0.1348043 -0.030666973 -0.06354651 0.18460363 -0.52381563 0.25308308
-0.0025199503 -0.018358259 -0.20489064 -0.25975612 0.08509795 0.22718394 0.024459837 -0.0048296386
-0.05552596 -0.14207047 -0.061251123 -0.19896182 -0.10657781 -0.14031646 0.035772078 -0.40181008
0.33045217 -0.0071926727 -0.14003217 -0.08511789 -0.16305584 -0.06441553 0.15835468 -0.083966814
0.07669079 -0.22432052 -0.028359251 -0.063763 0.0040976014 -0.0052180374 -0.057811357 -0.07899467
0.16066012 -0.025720555 -0.1807402 0.207957 -0.1388372 0.05148641 0.21987632 -0.10928966
0.22889604 -0.012689205 0.1848893 -0.019597713 0.043106243 0.13497642 0.2532289 -0.08372357
0.24164556 -0.058905676 0.029329646 0.07883247 -0.032189786 0.20738664 -0.099272124 -0.026682587
0.24252366 0.1024456 -0.036681052 0.02491252 0.34443328 -0.12148852 0.1367307 -0.076387055
0.13937706 0.09512969 -0.13514951 -0.19370417 0.24250025 -0.07996364 -0.01369173 0.09153265
-0.005262325 0.41769794 0.02135097 -0.25348988 0.084358916 0.055400915 -0.01779564 0.2351979
-0.07270525 0.032947574 0.25180802 -0.05668462 -0.065611 0.009669122 0.087537155 -0.093620576
0.18404503 -0.08391844 0.07779602 0.03820274 -0.1367906 0.3156694 -0.3079697 -0.29661357
0.4567949 0.059884224 -0.028387628 0.17484592 -0.029332992 0.06471161 -0.037410762 -0.12822051
0.12430696 -0.18928319 0.01500285 -0.08362598 0.21114057 0.27796745 0.066391006 0.08048792
0.04098124 -0.074177 0.51328075 0.28079978 -0.3499522 0.13953659 0.40299356 -0.11179061
0.27152783 -0.088399254 -0.09082682 0.13646202 -0.1520419 0.06682011 0.026542816 0.035384357
0.066269636 0.485388 0.042705968 -0.21057397 0.02559344 -0.1922555 -0.08450429 -0.05420134
0.30158922 0.060098097 0.18874823 0.034737885 0.24668297 -0.06516573 0.030254288 -0.18531431
-0.2186129 -0.03721288 -0.1314198 0.15907043 0.053041887 -0.22619374 -0.03337478 -0.12333093
-0.34966314 0.09133531 0.1215409 0.1569265 0.046822272 -0.1217575 -0.11829452 0.1784306
-0.56587535 -0.14813825 0.03571779 0.00014613042 0.05527562 -0.108166404 0.1955466 -0.19527715
-0.057041194 0.27461213 -0.009481986 0.02931914 0.19474015 -0.07231079 -0.059172366 0.047804605
0.04239336 0.29598975 0.07039184 -0.07441012 0.09633977 0.14718041 0.062365066 0.01801433
0.08087447 -0.45950055 -0.4722798 0.16444676 0.1086415 0.014026642 -0.104639366 0.2329712
0.14066908 -0.010171033 -0.12951778 0.1566772 0.21552038 -0.036683384 -0.2730683 -0.17314813
0.29434147 0.17314287 -0.011054424 -0.13927 0.38252106 0.19061832 -0.18468887 0.28447685

fc3.bias f4 [4]
00000000: 3ed8 9cbd 9726 6f3d 0100 eabc e3f6 9b3a
-0.076584324 0.05838641 -0.028564455 0.001189914
