data/ContinuousControlCritic.pth (torch_old, 89507 bytes, 9 tensors)

fc1.weight f4 [128, 33]
0	0x3da3f1ef	0.080051295
1	0x3cd30e2a	0.02576359
2	0x3debbd42	0.115107074
3	0xbc440863	-0.01196489
4	0xbca4b278	-0.020104632
5	0xbd3f7364	-0.046740904
6	0x3d275e21	0.040861253
7	0x3c19adda	0.009379828
8	0xbe40d5f8	-0.18831623
9	0x3e4efcbb	0.20213597
10	0x3d4c34e7	0.04985514
11	0x3d1787ac	0.03699462
12	0xbcb94c18	-0.022619292
13	0x3b80a9b5	0.0039264807
14	0x3d1ab21f	0.037767526
15	0xbd4014a0	-0.04689467
16	0x3cc1c2ef	0.023652522
17	0x3dc1b190	0.094576955
18	0x3d44306c	0.04789774
19	0x3d27d97d	0.040978897
20	0xbc8b675e	-0.017017063
21	0xbc1f502d	-0.009723705
22	0xbc069cc5	-0.008216088
23	0xbd839035	-0.0642399
24	0x3d8edc2b	0.069755875
25	0xbe1b467c	-0.15163606
26	0xbcd3ced1	-0.025855454
27	0xbd0b17ae	-0.03395813
28	0xbda47cb3	-0.08031597
29	0xbd9e9f8d	-0.07745276
30	0x3d016632	0.0315916
31	0xbd857ec0	-0.06518316
32	0xbc744c20	-0.014910728
33	0xbceecbb3	-0.029149866
34	0xbcf80d3d	-0.03027975
35	0xbd55cce9	-0.05219737
36	0xbd523d97	-0.051328268
37	0x3c8afd0c	0.016966365
38	0x3cdaf5f7	0.026728613
39	0xbc2f8056	-0.01071175
40	0xbcc84e6b	-0.024451455
41	0xbd19347b	-0.037403565
42	0x3dc2fdc6	0.0952106
43	0xbcd9fcaa	-0.026609737
44	0x3c1b11f2	0.009464728
45	0xbce2be4e	-0.027678635
46	0x3d4520c3	0.048126947
47	0x3dd40472	0.103524104
48	0xbd20a260	-0.039217353
49	0x3d6663a8	0.056247383
50	0xbc5fa6db	-0.013650621
51	0x3da22843	0.079178356
52	0x3c026848	0.007959433
53	0x3c86b06d	0.016441548
54	0x3af8e503	0.0018989149
55	0x3bb557b4	0.0055341367
56	0x3d21a234	0.03946133
57	0x3cfadf9c	0.030624203
58	0xbcd143cc	-0.025545023
59	0x3d740458	0.059574455
60	0x3e8f28b2	0.27960736
61	0xbc9b60f5	-0.018967131
62	0x3da3328b	0.07968625
63	0xbe5a10d8	-0.21295488
64	0x3d555982	0.052087314
65	0xbefafe9f	-0.49022385
66	0xbde6e464	-0.11274031
67	0x3df7d992	0.12102045
68	0x3df62952	0.120196
69	0xbc9a4fc3	-0.018836861
70	0x3b60f442	0.0034325277
71	0xbccf87f6	-0.025333386
72	0xbd41fca2	-0.04736007
73	0x3cb268d8	0.021778509
74	0xbd0c415b	-0.034242015
75	0xbdb721ab	-0.089419685
76	0xbce62be0	-0.028097093
77	0x3d73e8e3	0.05954827
78	0x3d9a6d25	0.07540349
79	0x3d08fd6f	0.033444818
80	0xbc0d9a2d	-0.008642715
81	0xbc92b0fd	-0.01790666
82	0x3d13c76b	0.03607885
83	0x3ce6457b	0.028109303
84	0xba05cdcd	-0.0005104214
85	0xbd0dc30a	-0.034609832
86	0x3bc4c588	0.006004993
87	0x3901f058	0.00012391934
88	0xbcbd39e7	-0.023098899
89	0x3dac6993	0.08418574
90	0xbbdb978e	-0.0067014163
91	0xbc7506db	-0.014955248
92	0x3de96a7a	0.11397262
93	0x3deb5988	0.11491686
94	0xbe0b3f63	-0.13598399
95	0xbd8a9845	-0.06767324
96	0xbde37292	-0.11105837
97	0xbd1fc75a	-0.039008476
98	0xbdf4839f	-0.11939167
99	0x3dcc0a85	0.09962944
100	0xbb5a17cc	-0.0033278344
101	0x3d192935	0.037392814
102	0x3cba661f	0.022753773
103	0xbda29e15	-0.07940308
104	0xbcf3bcd1	-0.02975312
105	0x3d173e59	0.036924694
106	0x3bfa27f6	0.0076341582
107	0x3c676c95	0.014125009
108	0x3deea2cf	0.11652147
109	0x3c1c8269	0.009552577
110	0xbd0e2caa	-0.034710564
111	0x3aef4bf7	0.0018256892
112	0x3c71f971	0.014768944
113	0x3c45e2b6	0.012077978
114	0xbc998304	-0.01873923
115	0x3d04f912	0.032464094
116	0xbc8fe9ed	-0.0175676
117	0x3d027cf6	0.031857453
118	0xbda10867	-0.07862931
119	0xbaccfeda	-0.0015639917
120	0x3c9a2e10	0.018820792
121	0xbc74d9d4	-0.014944512
122	0x3d6ef9bd	0.058343638
123	0x3b2db3c1	0.0026504847
124	0x3d46eb4e	0.048564248
125	0xbd40f218	-0.04710588
126	0x3d7c8daa	0.06165854
127	0x3dd15a3d	0.1022229
128	0x3c6f7c80	0.014617085
129	0x3c050259	0.0081182355
130	0x3d518422	0.051151402
131	0xbeee4ec6	-0.46544474
132	0x3e0e8d7e	0.13921162
133	0x3ccfb15a	0.025353123
134	0x3d44abd5	0.048015434
135	0x3da9572d	0.082685806
136	0x3d84d118	0.06485194
137	0x3ca68dab	0.020331224
138	0xbd93e054	-0.072205216
139	0x3cef19bb	0.029187074
140	0x3d808a8f	0.06276428
141	0x3cc7e40c	0.024400733
142	0x3b703203	0.0036650903
143	0x3d4e3291	0.050341193
144	0xbb70bf9c	-0.0036735302
145	0x3bf80733	0.0075692176
146	0x3d6bd2fa	0.05757425
147	0x3d99ea09	0.07515342
148	0xbe1c2537	-0.15248571
149	0xbb25f136	-0.0025320775
150	0xbdb9e1ae	-0.09076248
151	0x3c642d5f	0.013926833
152	0xbd42a0dc	-0.04751669
153	0x3d18535b	0.03718887
154	0x3d951030	0.07278478
155	0xbda53703	-0.08067133
156	0x3ca24dea	0.019812543
157	0x3cc468e2	0.023975793
158	0xbe29b31e	-0.16572234
159	0x3bc54d68	0.0060211904
160	0x3cf9de31	0.030501457
161	0x3c32f4f8	0.010922663
162	0x3da0e9af	0.078570716
163	0xbd09ddbe	-0.033658735
164	0x3dcef6e8	0.101056874
165	0x3e589a43	0.21152596
166	0x3d34a9ce	0.04410725
167	0x3c2fb07f	0.010723232
168	0xbd153534	-0.03642769
169	0xbd531763	-0.051535975
170	0x3de22cc6	0.11043696
171	0x3c277743	0.010221305
172	0x3c2d213c	0.010567006
173	0xbe357600	-0.17720795
174	0x3ded28bb	0.11580034
175	0xbbb726ce	-0.0055893427
176	0x3d6316c6	0.05544164
177	0xbba608d4	-0.0050669704
178	0xbc9bb8b0	-0.019008964
179	0x3d31e744	0.043433443
180	0xbcc93753	-0.024562513
181	0xbdad80a9	-0.084718056
182	0x3c8418d8	0.016125128
183	0xbd7de86b	-0.06198923
184	0xbc06abea	-0.008219698
185	0x3d86222e	0.06549488
186	0x3d36d8c1	0.044640306
187	0xbd944544	-0.07239774
188	0xbd6c9778	-0.05776164
189	0xbd11f1b2	-0.03563089
190	0xbde18249	-0.11011178
191	0xbd8d6606	-0.06904225
192	0x3c10ef00	0.008846045
193	0xbd126e85	-0.03574993
194	0x3cd258a8	0.02567704
195	0x3d0e397b	0.034722786
196	0xbd6e49d6	-0.058175884
197	0x3e0fa3bd	0.14027305
198	0x3de05a80	0.109547615
199	0x3d043b6b	0.032283228
200	0x3d851401	0.06497956
201	0xbca83942	-0.020535115
202	0xbd8387f4	-0.064224154
203	0x3e207a39	0.15671624
204	0xbd417e31	-0.047239486
205	0xbdd0c9da	-0.1019475
206	0x3bd85524	0.0066019464
207	0xbe30426a	-0.17212835
208	0xbc12fc1e	-0.008971242
209	0x3d8c8fd4	0.068633705
210	0x3c713937	0.014723114
211	0x3c0596bb	0.008153613
212	0x3cf00f97	0.029304309
213	0xbc31df9d	-0.010856536
214	0xbdcffcd8	-0.10155648
215	0xbc377ddf	-0.011199444
216	0xbd1134d9	-0.03545079
217	0x3cd6d055	0.026222387
218	0xbc90a6a3	-0.017657584
219	0x3c454586	0.012040501
220	0x3e190cfb	0.14946358
221	0xbd3d9698	-0.046286196
222	0x3ce2521f	0.027627049
223	0xbccf5fa4	-0.02531416
224	0xbdcc4627	-0.09974318
225	0xb895326f	-7.114268e-05
226	0xbd7b45a2	-0.061345704
227	0x3dae56e1	0.085126646
228	0xbde9c357	-0.11414211
229	0xbd6df668	-0.05809632
230	0x3e35d2a8	0.1775614
231	0x3d0c5d1c	0.034268484
232	0xbd506a9b	-0.050882917
233	0x3dd925d1	0.10602916
234	0xbba53922	-0.005042211
235	0xbc1d5a47	-0.009604043
236	0xbc86a930	-0.016438097
237	0x3d8bd8b1	0.0682844
238	0xbd83e34d	-0.064398386
239	0x3d58dc65	0.05294456
240	0x3de3658f	0.11103355
241	0xbcf7cacd	-0.03024807
242	0xbc9375fb	-0.018000593
243	0xbbc5783b	-0.0060262955
244	0xbd8e845c	-0.06958839
245	0x3d01164e	0.031515412
246	0xbddf7fcf	-0.109130494
247	0x3cda5f6d	0.02665683
248	0x3b8fe1f7	0.004390951
249	0xbc86ccea	-0.016455133
250	0x3cdc8305	0.026917944
251	0xbcb35066	-0.021888923
252	0x3b88cac2	0.0041745612
253	0x3cfa1c53	0.030531084
254	0xbd64459d	-0.05573045
255	0xbafd5413	-0.0019327424

fc1.bias f4 [128]
0	0x3cd1526f	0.025552003
1	0xbd72b299	-0.059252355
2	0x3d8793f0	0.06620014
3	0x3d8ebc9e	0.069695696
4	0xbd3f10c8	-0.046646863
5	0x3d428253	0.047487568
6	0xbe19ee43	-0.15032296
7	0xbdb9bf97	-0.09069746
8	0x3e15265b	0.14565413
9	0x3ce5e148	0.028061524
10	0xbdf91afe	-0.121633515
11	0xbd8e96af	-0.06962334
12	0xbe46e154	-0.19421893
13	0x3e752aa2	0.23942044
14	0xbd8ffab9	-0.070302434
15	0xbdb5601b	-0.08856221
16	0xbdd540ed	-0.10412774
17	0x3d72327e	0.059130184
18	0xbdec022f	-0.11523854
19	0x3e1311fa	0.14362326
20	0xbdae5584	-0.085124046
21	0xbcc37f96	-0.023864549
22	0xbe32ab32	-0.17448118
23	0xbdbf2121	-0.09332491
24	0xbdd88c0b	-0.10573586
25	0x3e1f0bf9	0.15531911
26	0x3d02a5c6	0.031896375
27	0xbdb71d24	-0.08941105
28	0xbe0ba635	-0.13637622
29	0xbe75e766	-0.24014053
30	0xbdd23dc8	-0.1026569
31	0x3b9e3af6	0.004828806
32	0x3e170b94	0.1475051
33	0xbd66ee59	-0.05637965
34	0xbd7d160d	-0.061788607
35	0x3d479d62	0.048734076
36	0xbe0fed80	-0.14055443
37	0xbe4bff46	-0.19921598
38	0xbb901b79	-0.0043978062
39	0x3d9afcd9	0.07567758
40	0xbe11137c	-0.14167589
41	0xbc963af5	-0.01833866
42	0xbd7ab6ef	-0.061209615
43	0xbd113da5	-0.03545918
44	0x3e5b93d3	0.21443109
45	0xbe44b995	-0.19211419
46	0xbd0d0ea7	-0.0344378
47	0xbd58a187	-0.05288842
48	0xbe088292	-0.13331059
49	0x3e01da98	0.12681043
50	0xbe84381c	-0.25824058
51	0xbe10485d	-0.14090104
52	0xbe343017	-0.1759647
53	0xbd8eabd1	-0.06966365
54	0x3d90b1b4	0.07065144
55	0xbdca3f99	-0.098754115
56	0xbdc88ea9	-0.09792835
57	0x3cc287e1	0.023746433
58	0xbe3fa573	-0.18715458
59	0xbd16ef94	-0.036849573
60	0x3cc6d42e	0.024271097
61	0xbdfa3a80	-0.12218189
62	0xbd29fc2f	-0.041500267
63	0x3d161f78	0.036651105
64	0xbd5b357e	-0.05351781
65	0x3d9c2806	0.07624821
66	0x3dadaaee	0.08479868
67	0xbdf93291	-0.12167848
68	0x3d37f708	0.04491332
69	0xbe0673f6	-0.13130173
70	0xbd9f7b73	-0.07787218
71	0xbd7cec9f	-0.061749097
72	0xbe2f54df	-0.1712222
73	0x3dfa3ccb	0.122186266
74	0x3d3eedca	0.046613492
75	0xbd178550	-0.03699237
76	0xbb0087df	-0.0019612235
77	0xbe0065b8	-0.12538803
78	0x3be31b41	0.006930739
79	0xbc999f84	-0.01875282
80	0x3c3be5eb	0.011468391
81	0xbd9efaa1	-0.077626474
82	0xbd56af42	-0.052413233
83	0xbe16b06b	-0.14715736
84	0x3d200bd4	0.03907378
85	0xbe76f3a9	-0.24116386
86	0x3c64d2f0	0.013966307
87	0xbc8b957b	-0.017039051
88	0xbe11c4b3	-0.14235191
89	0xbc851b10	-0.016248256
90	0x3d478f29	0.048720513
91	0xbd0b813b	-0.03405879
92	0x3cdb955c	0.026804619
93	0x3db1b62a	0.08677323
94	0xbe2208a9	-0.15823616
95	0x3e301811	0.1719668
96	0xbc3b84cb	-0.0114452345
97	0x3d1ee490	0.038792193
98	0x3d89b562	0.06724049
99	0xbdb23252	-0.08701004
100	0x3cf0ef70	0.029411048
101	0x3d34779f	0.044059392
102	0x3e217fbd	0.15771385
103	0xbd1ad2ad	-0.037798572
104	0xbd16bd93	-0.036801886
105	0xbdc478ec	-0.095933765
106	0x3da5fe89	0.08105189
107	0x3d93b3ae	0.072120056
108	0xbe147e82	-0.14501384
109	0x3ce3f14d	0.027825022
110	0x3dbef2de	0.09323667
111	0x3e0fa18a	0.14026466
112	0xbd9d536c	-0.07681927
113	0xbd00caeb	-0.031443518
114	0xbd1c3b9e	-0.038142793
115	0xbe61c6fd	-0.22048564
116	0x3ce103ec	0.02746769
117	0x3d01ed13	0.031720232
118	0x3d5a66d0	0.053320706
119	0xbe4a6dc1	-0.1976843
120	0xbdb3350e	-0.08750354
121	0xbe192a37	-0.1495751
122	0x3cbc4338	0.022981271
123	0xbe30eb95	-0.17277367
124	0xbdee3442	-0.11631061
125	0xbddf19da	-0.10893603
126	0x3d749d0c	0.059720084
127	0x3d01d276	0.03169485

bn1.weight f4 [128]
0	0x3e8c0f23	0.27355298
1	0x3f1f3a1c	0.6219804
2	0x3f5c7718	0.8611922
3	0x3f2342f8	0.6377406
4	0x3e881acb	0.2658294
5	0x3ef43299	0.47694853
6	0x3e1c89e0	0.1528697
7	0x3ea18015	0.3154303
8	0x3eaf7cf7	0.34275028
9	0x3e836591	0.25663427
10	0x3f4bc668	0.7959962
11	0x3f2bb954	0.67079663
12	0x3f591ab2	0.8480636
13	0x3e906374	0.28200877
14	0x3edf9c2a	0.4367383
15	0x3eec0941	0.4610081
16	0x3ea3fd20	0.32029057
17	0x3eadea02	0.33967596
18	0x3dcca99b	0.09993287
19	0x3f5d0a2d	0.8634365
20	0x3f43dbcc	0.7650726
21	0x3d203fc7	0.039123323
22	0x3eb28bf5	0.34872404
23	0x3e77210b	0.24133699
24	0x3f02221e	0.5083331
25	0x3f2e6fff	0.6813964
26	0x3f0554ee	0.5208272
27	0x3ebe42cc	0.37160337
28	0x3f3366e4	0.70078874
29	0x3f2c354c	0.67268825
30	0x3f2987c3	0.6622278
31	0x3e6852e0	0.22687864
32	0x3f0428be	0.5162467
33	0x3e3b7627	0.1830679
34	0x3e16b177	0.14716135
35	0x3eb1677d	0.34649268
36	0x3ef17dce	0.47166294
37	0x3e25a269	0.16175236
38	0x3f250158	0.64455175
39	0x3ef8eeff	0.4861984
40	0x3ec48bdf	0.38387963
41	0x3f23485c	0.63782287
42	0x3f315ccf	0.6928224
43	0x3edacd71	0.42734864
44	0x3e8431d1	0.25819257
45	0x3e9e2be8	0.30892873
46	0x3df209ff	0.11818313
47	0x3eacbd77	0.337383
48	0x3e589ab1	0.2115276
49	0x3ea9af5d	0.33141604
50	0x3f2ed9ba	0.68300974
51	0x3f397d92	0.7245723
52	0x3f45723c	0.7712743
53	0x3f5d196b	0.8636691
54	0x3ec1cc07	0.37850973
55	0x3e9e4d14	0.3091818
56	0x3ec36934	0.381662
57	0x3e52caf8	0.20585239
58	0x3f312a62	0.69205296
59	0x3ef1301e	0.47107023
60	0x3e660c2d	0.22465582
61	0x3e40b634	0.18819505
62	0x3e412c36	0.18864521
63	0x3f1010a0	0.5627537
64	0x3f3a95a5	0.7288459
65	0x3f2f9c1a	0.6859757
66	0x3eaccfca	0.3375228
67	0x3e98bcbe	0.298315
68	0x3e811c4c	0.252169
69	0x3e2ed76b	0.17074363
70	0x3ee5eda2	0.44907862
71	0x3e47faed	0.19529314
72	0x3f5443f9	0.8291622
73	0x3dee50d6	0.11636512
74	0x3e648d67	0.22319566
75	0x3f58df03	0.8471529
76	0x3e8e4a98	0.27791286
77	0x3f1ab220	0.6042805
78	0x3f2e4c96	0.6808561
79	0x3f61b5fc	0.8816831
80	0x3f3e48de	0.74329937
81	0x3ee1133d	0.4395999
82	0x3f1a4be2	0.6027204
83	0x3ef7c127	0.4838955
84	0x3ecc5e6d	0.3991579
85	0x3ef8b5ad	0.48576108
86	0x3f0e88b0	0.5567732
87	0x3f3f5fa5	0.74755317
88	0x3f24fcb6	0.64448106
89	0x3f3c53af	0.7356519
90	0x3ee1fa86	0.44136447
91	0x3ed6e8a2	0.4197436
92	0x3f32b6ca	0.69810164
93	0x3f0ad15e	0.5422572
94	0x3e3cf07c	0.18451113
95	0x3f007d6a	0.50191367
96	0x3e90b69e	0.28264326
97	0x3e445ea0	0.19176722
98	0x3f1d35b1	0.6141005
99	0x3f163890	0.5868006
100	0x3f0000ef	0.50001425
101	0x3e875ef5	0.26439634
102	0x3f1e58dd	0.61854345
103	0x3f4adffc	0.79248023
104	0x3f2ecf9a	0.68285525
105	0x3f1cefbb	0.613033
106	0x3e169bad	0.14707823
107	0x3f50b3a5	0.81524116
108	0x3f0d1246	0.5510601
109	0x3f1fdc63	0.6244566
110	0x3f3b9db7	0.7328753
111	0x3ec88a83	0.39168176
112	0x3ee28f58	0.44249988
113	0x3f6cdd38	0.92525053
114	0x3f66c33c	0.90141654
115	0x3e6bb0e2	0.23016694
116	0x3f638eee	0.8888997
117	0x3f69e8ed	0.9137104
118	0x3f236d3a	0.6383854
119	0x3e2e4256	0.17017493
120	0x3edded61	0.43345168
121	0x3ecadedc	0.39623153
122	0x3f3a11a9	0.726832
123	0xbe0d4acd	-0.13798065
124	0x3f249934	0.6429627
125	0x3ef8ec08	0.48617578
126	0x3eda7ac5	0.4267179
127	0x3f26a49f	0.6509494

bn1.bias f4 [128]
0	0xbe03efa1	-0.1288438
1	0x3a2df49e	0.0006635877
2	0xbd9e887f	-0.07740878
3	0xbd1c1915	-0.038109858
4	0xbe4f3b88	-0.20237553
5	0xbe137cf4	-0.14403135
6	0x3bec7308	0.007215861
7	0x3d0a9f9b	0.033843618
8	0x3dd80ff5	0.105499186
9	0x3dc840e5	0.09778003
10	0x3e32c3f0	0.17457557
11	0xbc5ac39e	-0.013352303
12	0xbd44c6a5	-0.048041005
13	0xbe071fee	-0.13195774
14	0x3d73aee0	0.059492946
15	0xbdac1e6f	-0.08404242
16	0x3d3d1cbc	0.04616998
17	0x3d1e5e34	0.038664058
18	0xbd9a69e6	-0.0753973
19	0x3d14f9da	0.03637109
20	0xbcf637fc	-0.030055992
21	0x3e307fc4	0.17236239
22	0xbe19ffc7	-0.15038978
23	0x3dbf7af0	0.0934962
24	0xbd7b084e	-0.061287217
25	0xbda7dfdc	-0.08196995
26	0xbe354807	-0.17703258
27	0xbd0d154d	-0.034444142
28	0xbbd32261	-0.0064433073
29	0xbcec82be	-0.028870936
30	0x3d4000fd	0.046875942
31	0xbbe58e52	-0.0070054913
32	0xbcf7d9c8	-0.030255213
33	0xbd7110fc	-0.05885409
34	0xbe3a4e6c	-0.18193978
35	0xbc827054	-0.015922703
36	0x3d64de68	0.055876166
37	0xbd1fffc8	-0.03906229
38	0xbc79995f	-0.01523432
39	0xbdf52d29	-0.11971504
40	0xbd58500c	-0.052810714
41	0x3db5acbc	0.08870837
42	0xbd8450d1	-0.06460727
43	0xbd19a24f	-0.037508305
44	0x3e4e3b55	0.20139821
45	0x3d2ca168	0.042146116
46	0x3e4949ad	0.19657011
47	0xbb41f25a	-0.0029593916
48	0xbe1aa3fe	-0.1510162
49	0xbd10776a	-0.035270132
50	0xbd61a9a1	-0.05509341
51	0xbd3e62f1	-0.046481077
52	0x3e32991f	0.17441224
53	0x3cdf394d	0.027249003
54	0x3bc8378a	0.0061101364
55	0xbdd39bc8	-0.10332447
56	0xbd86010a	-0.06543167
57	0xbca0241c	-0.019548468
58	0xbdec769f	-0.11546063
59	0x3dbe3658	0.09287709
60	0xbd9267c7	-0.071487
61	0x3cebd25f	0.028786836
62	0xbd778b99	-0.060435865
63	0xbda9fe55	-0.08300463
64	0xbe284d30	-0.16435695
65	0x3cbc84eb	0.023012599
66	0x3d8795ae	0.06620346
67	0x3bbb5fcd	0.0057182075
68	0x3e2252a9	0.15851845
69	0xbd48dd2d	-0.049039055
70	0xbb18bfbe	-0.0023307647
71	0xbc4ec32b	-0.012619774
72	0x3cab9365	0.020944307
73	0x3db74391	0.08948434
74	0xbd1de53f	-0.038548704
75	0x3cbad5aa	0.022806961
76	0xbd02af3b	-0.031905394
77	0xbd507cbc	-0.050900206
78	0xbdcf2cef	-0.10115992
79	0xbbd83aa0	-0.0065987855
80	0xbd3d098e	-0.04615169
81	0xbdf536c0	-0.11973333
82	0xbda8bc06	-0.082389876
83	0xbd658b8a	-0.056041278
84	0xbd37a796	-0.044837557
85	0xbb9ba824	-0.0047502685
86	0xbd47c940	-0.04877591
87	0xbd1e2a1a	-0.03861437
88	0x3d4a80fa	0.049439408
89	0xbd2f6f8e	-0.042830996
90	0xbdaf8c3e	-0.08571671
91	0xbdfad9f1	-0.122486
92	0xbd6ec788	-0.058295757
93	0x3ca28ce9	0.019842582
94	0xbc37e774	-0.011224616
95	0xbc8963a4	-0.016771145
96	0x3d53f5e3	0.051748168
97	0xbda767a9	-0.081740685
98	0xbd107b4d	-0.03527384
99	0xbd2f0f9e	-0.042739503
100	0xbd306a39	-0.04307005
101	0xbe16c6f4	-0.14724332
102	0xbd482344	-0.048861757
103	0x3bc52cc3	0.006017299
104	0xbd151311	-0.036395136
105	0xbd0b6c8e	-0.034039073
106	0xbd2f072f	-0.04273146
107	0xbcb92e15	-0.022604981
108	0xbdecaed0	-0.1155678
109	0xbc106759	-0.0088137025
110	0x3dc9b3b2	0.09848727
111	0xbd5e189b	-0.054222684
112	0xbdfa44e2	-0.122201696
113	0xbdada198	-0.08478087
114	0xbd1e4470	-0.038639486
115	0x3d5be0fd	0.053681362
116	0x3cedaa0e	0.029011752
117	0x3cc0fa75	0.023556927
118	0xbc4985ef	-0.012299999
119	0xbd13a63c	-0.036047205
120	0xbe06c7e3	-0.13162188
121	0x3d87a985	0.0662413
122	0xbc24bdf7	-0.010055057
123	0xbbaee67f	-0.005337536
124	0xbd9f6d1c	-0.07784483
125	0x3d9e4287	0.07727533
126	0xbc6aaa43	-0.01432282
127	0x3d775d5b	0.060391765

bn1.running_mean f4 [128]
0	0x3e7a6bbc	0.2445516
1	0x3d1fb5ed	0.038991857
2	0x3e266ea6	0.16253147
3	0x3ea19199	0.31556395
4	0x3eb11276	0.34584397
5	0x3e1e012a	0.15430132
6	0x3d882ad7	0.06648796
7	0x3db0e30d	0.086370565
8	0x3edb213b	0.4279879
9	0x3ef08204	0.46974194
10	0x3e985499	0.29752043
11	0x3e1e8566	0.15480575
12	0x3e1f1ef6	0.15539154
13	0x3f993506	1.1969306
14	0x3e47fcad	0.19529982
15	0x3e6c8e8a	0.2310125
16	0x3e099fad	0.13439818
17	0x3e71aa1b	0.23600046
18	0x3e8a75b8	0.27042937
19	0x3dec47c9	0.115371294
20	0x3f451739	0.7698856
21	0x3d28ef65	0.04124393
22	0x3e008ecb	0.12554471
23	0x3d85409d	0.06506465
24	0x3e023f04	0.12719351
25	0x3defe1ec	0.11713013
26	0x3e5770ff	0.21039198
27	0x3d5acb48	0.05341652
28	0x3d015fc1	0.03158546
29	0x3c9701c5	0.018433461
30	0x3ef3530e	0.47524303
31	0x3d5cf75c	0.053946838
32	0x3d1c4c15	0.038158495
33	0x3e1da39c	0.15394443
34	0x3e8de281	0.2771187
35	0x3e6cdc04	0.23130804
36	0x3e957585	0.29191223
37	0x3b3c416e	0.0028725523
38	0x3cdcd418	0.026956603
39	0x3d3ce978	0.04612109
40	0x3cbb7b5c	0.02288597
41	0x3e99675d	0.29961672
42	0x3e0f0e5a	0.13970318
43	0x3e0aa12b	0.13538043
44	0x3f041427	0.5159325
45	0x387c1562	6.0101396e-05
46	0x3eac6472	0.33670384
47	0x3d9ed9be	0.07756375
48	0x3e0750fa	0.13214484
49	0x3eddfec2	0.43358427
50	0x3d3df032	0.046371646
51	0x3d9d3918	0.076769054
52	0x3f3d4f8a	0.7394949
53	0x3e294959	0.16531886
54	0x3e466407	0.19374095
55	0x3e74cbb5	0.23905833
56	0x3f055403	0.52081317
57	0x3e998905	0.2998735
58	0x3dcf14d4	0.101113945
59	0x3e59a565	0.212545
60	0x3d952bb0	0.07283723
61	0x3cc7975f	0.024364172
62	0x3e7d4fcb	0.2473747
63	0x3e4b8804	0.19876105
64	0x3f066340	0.52495193
65	0x3ee1bb22	0.44088084
66	0x3ec62e23	0.38707075
67	0x3d32f4c5	0.04369046
68	0x3ea0c95d	0.31403628
69	0x3ca50a9d	0.020146662
70	0x3dc81cc5	0.09771112
71	0x3ea7b2da	0.3275364
72	0x3b9fd113	0.0048772185
73	0x3f403f2a	0.7509638
74	0x3e540cca	0.20708004
75	0x3e1938d1	0.1496308
76	0x3e1de997	0.15421139
77	0x3dccfa73	0.10008707
78	0x3ee0658a	0.43827468
79	0x3e8bbbc8	0.27291703
80	0x3d375272	0.04475636
81	0x3ea0ad9f	0.31382462
82	0x3e9dcd93	0.30820903
83	0x3d82d1ef	0.06387698
84	0x3c70ecfc	0.014704939
85	0x3e2ddc90	0.16978669
86	0x3e1dd659	0.15413798
87	0x3a1603eb	0.000572263
88	0x3e8c0c6a	0.2735322
89	0x3e38c851	0.18045165
90	0x3ed46bcb	0.4148849
91	0x3e180ca4	0.14848572
92	0x3ed9862d	0.4248518
93	0x3efa651b	0.48905262
94	0x3c2b215e	0.010444967
95	0x3eb44c09	0.3521426
96	0x3f5b482a	0.8565699
97	0x3f113d25	0.56733924
98	0x3e35c5c0	0.17751217
99	0x3ed2d265	0.41176143
100	0x3e9c466c	0.30522478
101	0x3ea52009	0.32251003
102	0x3f24ba65	0.64346915
103	0x3ebe5052	0.37170655
104	0x3c85f064	0.016349979
105	0x3ece8e22	0.40342814
106	0x3f03620d	0.5132149
107	0x3dc66d50	0.096888185
108	0x3d869cb1	0.06572855
109	0x3e0b314e	0.13593027
110	0x3e0f7827	0.14010678
111	0x3f154eb5	0.5832322
112	0x3e958256	0.29201
113	0x3e3742b7	0.17896543
114	0x3da17f23	0.078855775
115	0x3d95b208	0.073093474
116	0x3d161a7b	0.036646347
117	0x3e5f4e24	0.21807152
118	0x3dd457d5	0.10368315
119	0x3ca9341f	0.020654736
120	0x3d949656	0.07255237
121	0x3e806196	0.25074452
122	0x3e7a1c5c	0.2442488
123	0x3c787962	0.015165659
124	0x3dd027cc	0.10163841
125	0x3ee91acf	0.45528266
126	0x3a1334c7	0.00056154694
127	0x3e5e8480	0.21730232

bn1.running_var f4 [128]
0	0x3df5a862	0.11995007
1	0x3c5f21de	0.013618914
2	0x3da9a0b9	0.082826085
3	0x3df4679d	0.11933825
4	0x3e31de5c	0.1736998
5	0x3d5af697	0.053457823
6	0x3ca62b5f	0.020284353
7	0x3cbe234d	0.023210192
8	0x3de14cc8	0.11000973
9	0x3ebb48c6	0.3657896
10	0x3d8436dc	0.06455776
11	0x3d1f4cae	0.038891487
12	0x3d30dfe1	0.043182258
13	0x3e8fc8fb	0.28083023
14	0x3d82ee06	0.063930556
15	0x3dcd20ae	0.10015999
16	0x3d2779e2	0.04088772
17	0x3ddad820	0.10685754
18	0x3e41db54	0.18931323
19	0x3cb93dbc	0.022612445
20	0x3f0a9a9a	0.54142153
21	0x3c87fd79	0.016600357
22	0x3d77b5e1	0.060476188
23	0x3cb83033	0.02248392
24	0x3d1b87e8	0.037971407
25	0x3d276495	0.040867407
26	0x3e302e61	0.17205192
27	0x3cbbdda1	0.02293283
28	0x3c1d4895	0.009599824
29	0x3ba04440	0.0048909485
30	0x3df2745c	0.118386
31	0x3c9e91d8	0.019356653
32	0x3c231782	0.009954335
33	0x3e015372	0.12629488
34	0x3e33d72c	0.1756255
35	0x3da07cd8	0.07836312
36	0x3dc8f795	0.098128475
37	0x3aa69411	0.0012708922
38	0x3bff3428	0.0077882
39	0x3c774fc4	0.015094701
40	0x3bcba05f	0.006214186
41	0x3e1d4e5f	0.15361927
42	0x3d6c1dbd	0.057645548
43	0x3d6a63a3	0.057223927
44	0x3eab7731	0.33489373
45	0x381687d9	3.5889305e-05
46	0x3e34429a	0.17603531
47	0x3cadb80c	0.021205924
48	0x3d44463b	0.04791854
49	0x3ec25aed	0.37959996
50	0x3c4450cf	0.011982157
51	0x3c5a4fdc	0.013324704
52	0x3eab96bb	0.33513436
53	0x3d86e7cb	0.0658718
54	0x3d333298	0.04374942
55	0x3e1e3e4d	0.15453453
56	0x3deedbf6	0.11663048
57	0x3df0ecb1	0.11763895
58	0x3d26e5ac	0.040746376
59	0x3d56903b	0.052383643
60	0x3cc661cd	0.024216557
61	0x3c1a8b67	0.00943265
62	0x3e16a20b	0.14710252
63	0x3dea172f	0.11430203
64	0x3ed67748	0.4188788
65	0x3dd52010	0.10406506
66	0x3e8f6e51	0.28013852
67	0x3c3ad192	0.0114025045
68	0x3e0f7403	0.14009099
69	0x3be749ad	0.0070583434
70	0x3d0c7888	0.034294635
71	0x3e721516	0.23640856
72	0x3a828a6b	0.0009959465
73	0x3ddd6b81	0.1081152
74	0x3e02bdcd	0.12767716
75	0x3cf1d15f	0.029518781
76	0x3d277f67	0.040892985
77	0x3ce30da3	0.027716463
78	0x3e60372c	0.21896046
79	0x3e137fc7	0.14404212
80	0x3c023244	0.007946555
81	0x3e2fc07c	0.1716327
82	0x3e6cc51f	0.2312207
83	0x3cd6bc6e	0.026212897
84	0x3b21b127	0.0024672241
85	0x3d8ed8c1	0.06974936
86	0x3d25151e	0.040303342
87	0x39146300	0.0001415126
88	0x3dce3e8c	0.100705236
89	0x3d633e49	0.05547932
90	0x3e998800	0.29986572
91	0x3d4fafc5	0.050704736
92	0x3e3dfad0	0.18552709
93	0x3e91abb3	0.2845131
94	0x3ae0dd29	0.0017155755
95	0x3e30aa10	0.17252374
96	0x3d9b4712	0.07581915
97	0x3ebee7ce	0.37286228
98	0x3daf97d6	0.08573882
99	0x3e9f22f6	0.3108136
100	0x3e2130c9	0.15741266
101	0x3e72989a	0.23691025
102	0x3da459ed	0.080249645
103	0x3df630dc	0.12021038
104	0x3b632607	0.0034660117
105	0x3e5face7	0.21843301
106	0x3eb6b5e8	0.35685658
107	0x3d11f041	0.035629515
108	0x3c55e4c4	0.01305503
109	0x3d6d2ef6	0.057906114
110	0x3d9761ef	0.07391726
111	0x3ea5731c	0.32314384
112	0x3e088db0	0.133353
113	0x3da48b34	0.080343634
114	0x3cc17749	0.02361645
115	0x3d14d3e0	0.036334872
116	0x3bde5ac6	0.0067857234
117	0x3db3e75f	0.08784365
118	0x3d0ba84f	0.03409606
119	0x3be01474	0.0068383757
120	0x3c9c176c	0.019054137
121	0x3e0203df	0.12696789
122	0x3ddb3405	0.10703281
123	0x3b8e39c5	0.0043403828
124	0x3d07c9f9	0.0331516
125	0x3e03d2dc	0.12873405
126	0x3a11de38	0.0005564424
127	0x3daf48a1	0.08558775

fc2.weight f4 [128, 132]
0	0xbc04623d	-0.008080062
1	0x3d54734f	0.05186778
2	0x3d2340ff	0.039856907
3	0xbe1343c7	-0.14381324
4	0x3daf5c00	0.085624695
5	0xbcd35201	-0.025795938
6	0x3d979f19	0.07403392
7	0xbc094c85	-0.00838006
8	0xbd7da0ae	-0.061920814
9	0xbe099663	-0.13436274
10	0x3d178a28	0.03699699
11	0xbd84ea9e	-0.06490062
12	0x3a86953e	0.0010267866
13	0xbc58ad2a	-0.013224879
14	0xbdf8da48	-0.12151009
15	0xbd7892eb	-0.060686987
16	0x3abd94c4	0.0014463891
17	0xbd138ffa	-0.03602598
18	0xbc7fb104	-0.015606169
19	0xbd3b9c98	-0.045803636
20	0x3d8ac00e	0.06774913
21	0xbd4e8213	-0.050417017
22	0x3e135eb1	0.1439159
23	0xbcab37b3	-0.020900583
24	0xbe12c38f	-0.14332412
25	0x3d29d8c2	0.041466482
26	0x3d3571df	0.04429805
27	0xbdddd59b	-0.10831758
28	0xbd5a8c6d	-0.053356577
29	0x3c8569cd	0.016285801
30	0x3d2f745e	0.042835586
31	0x3e088244	0.13330942
32	0x3d30556f	0.043050226
33	0x3d9fcf1c	0.07803175
34	0x3e268ebe	0.1626539
35	0x3d9d0b4d	0.07668171
36	0xbd2c27b8	-0.042030066
37	0xbdc7f4ea	-0.097635105
38	0xbcbea083	-0.023269897
39	0x3df8702c	0.1213077
40	0x3e1159f3	0.14194469
41	0x3e02677c	0.12734789
42	0xbcd429a1	-0.025898756
43	0x3d39a983	0.045327675
44	0xbdb5ef70	-0.0888356
45	0xbe3e8c94	-0.18608314
46	0xbe326b22	-0.1742368
47	0xbd34175e	-0.043967597
48	0x3d79244b	0.060825627
49	0x3dc18668	0.09449464
50	0xbcf19512	-0.029490028
51	0x3d0b23a1	0.033969525
52	0x3d3ed099	0.046585653
53	0xbcab7a4f	-0.020932345
54	0x3d16dc0f	0.036830958
55	0xbd1ded95	-0.038556654
56	0x3c8d848e	0.017275121
57	0xbdec6dae	-0.11544357
58	0x3dabbbfd	0.08385465
59	0xbe513bf7	-0.20433031
60	0x3e159614	0.14608032
61	0x3d77d7a0	0.06050837
62	0x3bc46c23	0.005994336
63	0xbbff2372	-0.007786208
64	0x3d13c728	0.036078602
65	0xbc73cf1c	-0.014880922
66	0x3bbfa391	0.005848356
67	0x3d871d73	0.06597414
68	0xbd197239	-0.037462447
69	0xbd2b4c8e	-0.041821055
70	0x3cd6db76	0.026227694
71	0xbd214faa	-0.039382614
72	0x3d81532f	0.06314694
73	0xbe182fd8	-0.14862001
74	0x3d9ae1a6	0.0756257
75	0xbd8ba046	-0.06817679
76	0xbde74053	-0.11291566
77	0x3d066a96	0.032816492
78	0x3b87c27a	0.0041430565
79	0xbc48f3dd	-0.012265173
80	0x3d76cd97	0.06025466
81	0x3e045fce	0.12927172
82	0x3d9f4714	0.07777229
83	0xbd2a55ce	-0.041585736
84	0x3d9f33c2	0.07773544
85	0xbdd1d755	-0.102461495
86	0xbc2f9556	-0.010716757
87	0x3cb188f4	0.02167175
88	0xbc8d6941	-0.017262103
89	0x3d7affc2	0.061279066
90	0xbc805c93	-0.015669143
91	0x3d7faed1	0.062422577
92	0xbdac1384	-0.0840216
93	0xbc24636d	-0.010033471
94	0xbdf87fa5	-0.12133721
95	0xbca69374	-0.020333983
96	0xbe0187d0	-0.12649465
97	0x3be072a8	0.0068496056
98	0x3c06c0cf	0.00822468
99	0x3dd09814	0.101852566
100	0x3b9c0afc	0.0047620516
101	0x3d51c782	0.051215656
102	0x3d8c9bba	0.0686564
103	0x3d676841	0.05649591
104	0x3c0d4dd5	0.008624514
105	0xbdc7122d	-0.09720264
106	0x3d8f2cba	0.06990953
107	0xbdad2589	-0.08454425
108	0x3cc9415a	0.024567295
109	0x3df00177	0.117190294
110	0x3bb524ef	0.0055280845
111	0xbcffef2b	-0.031241974
112	0xbd05a21a	-0.032625295
113	0xbd12e735	-0.035865027
114	0x3c591efa	0.013252014
115	0xbd1c347b	-0.038135987
116	0x3b8fd24d	0.0043890835
117	0xbd1380b9	-0.03601143
118	0xbcb9ba93	-0.022671973
119	0x3d9ed5b7	0.077556066
120	0x3ca164e9	0.019701438
121	0xbd23eaca	-0.040018834
122	0xbd9fec00	-0.07808685
123	0xba177dcc	-0.0005778938
124	0x3caf8e54	0.021430172
125	0xbd1f2c33	-0.03886051
126	0xbd13b520	-0.036061406
127	0xbe0497ed	-0.1294858
128	0x3dc32546	0.09528594
129	0xbd4d8986	-0.05017998
130	0x3d8908c3	0.06691124
131	0xbd0010ae	-0.031265907
132	0x3dba4811	0.09095777
133	0xbd77dac3	-0.06051136
134	0x3d2dd7ac	0.04244201
135	0x3c66cef4	0.014087427
136	0x3d3976a2	0.045279153
137	0xbd8f7916	-0.07005517
138	0x3dcdfbf1	0.1005782
139	0xbd04d373	-0.032428216
140	0x3d62065c	0.055181846
141	0xbd510389	-0.051028762
142	0xbd57eab4	-0.052714065
143	0xbdc8601e	-0.09783958
144	0xbd20125f	-0.03908002
145	0xbd80b969	-0.06285364
146	0x3d7d2b62	0.06180895
147	0xbd01f90d	-0.031731654
148	0xbe4c4d86	-0.19951448
149	0xbce56fa9	-0.028007345
150	0xbd6b0f89	-0.057387862
151	0xbc5476a4	-0.012967739
152	0xbda405b4	-0.080089
153	0x3d7bf810	0.061515868
154	0x3d5856ce	0.05281716
155	0xbbe34599	-0.006935787
156	0xbd42a883	-0.047523987
157	0xbd0b51e0	-0.03401363
158	0xbb807ba2	-0.003920988
159	0x3deb2d33	0.114832304
160	0xbd89f37d	-0.06735895
161	0xbdf0a610	-0.11750424
162	0x3dce0530	0.10059583
163	0x3dc3a176	0.095522806
164	0x3cbd9626	0.023142885
165	0xbd57aba9	-0.052653942
166	0x3ca7b041	0.020469787
167	0xbd7b1cce	-0.061306767
168	0xbd03b0ca	-0.03215102
169	0x3d565462	0.052326567
170	0xbe31a707	-0.17348872
171	0x3d0cedaa	0.03440634
172	0x3d1497a8	0.036277443
173	0x3d1d970e	0.038474135
174	0x3d1c8bb4	0.03821917
175	0x3cf1f291	0.02953461
176	0xbde22539	-0.11042256
177	0xbd4247ca	-0.047431745
178	0xbdaa743c	-0.08322951
179	0xbd1d9ad3	-0.03847773
180	0xbdf425ae	-0.11921249
181	0xbd9928d2	-0.07478489
182	0x3ce0d271	0.027444096
183	0xbdebdb41	-0.11516429
184	0xbd1808ff	-0.037117954
185	0xbcfdafa6	-0.030967545
186	0xbd2b9370	-0.041888654
187	0xbaca450e	-0.0015431957
188	0xbc57b72a	-0.013166228
189	0xbd1573b7	-0.036487307
190	0xbc69e3d0	-0.014275506
191	0x3bd69ac3	0.0065492108
192	0xbde03a6c	-0.10948643
193	0x3b921a8e	0.004458732
194	0x3d1ad9fa	0.037805535
195	0x3cba545b	0.022745302
196	0xbdceb208	-0.100925505
197	0xbdfc7b9f	-0.12328266
198	0xbbb3e531	-0.005489968
199	0x3bfa4b3d	0.0076383636
200	0xbc80cccf	-0.01572266
201	0x3d6d4256	0.05792459
202	0xbdb782e4	-0.08960512
203	0xbe22241e	-0.1583409
204	0xbe296329	-0.16541733
205	0xbd157209	-0.036485706
206	0xbdce34a7	-0.100686364
207	0xbd7b13f7	-0.061298337
208	0xbc5b6c10	-0.013392463
209	0xbdca7492	-0.09885515
210	0x3cf012da	0.029305864
211	0xbd4b7ea1	-0.04968131
212	0xbd332ba7	-0.043742802
213	0xbdf11f48	-0.117735445
214	0xbc08fe3a	-0.008361394
215	0xbdc40cce	-0.09572755
216	0xbda57579	-0.08079047
217	0xbdb86572	-0.09003724
218	0x3af22eaa	0.0018477042
219	0x3e11e1e6	0.1424633
220	0x3c96c491	0.018404277
221	0xbd6f2c63	-0.05839194
222	0x3d3badc2	0.045820005
223	0x3d43ce0a	0.047803916
224	0xbc74851f	-0.014924317
225	0x3c2e05d0	0.010621503
226	0xbe1d3d32	-0.15355375
227	0x3db81d99	0.0899002
228	0x3e087c96	0.13328776
229	0x3d01b486	0.0316663
230	0xbe2f01fd	-0.17090602
231	0x3dedc1f3	0.116092585
232	0xbd1eb5f0	-0.038747728
233	0xbb07d779	-0.0020727797
234	0x3cd143d6	0.025545042
235	0xbd3129d6	-0.04325279
236	0x3c6e0fbb	0.014530118
237	0xbcf49e44	-0.029860623
238	0xbda50800	-0.080581665
239	0x3d81075f	0.06300234
240	0x3d44f88d	0.0480886
241	0x3c4312e4	0.011906359
242	0xbd96e38f	-0.07367622
243	0x3e1af405	0.15132149
244	0xbb9bfaa9	-0.0047601056
245	0x3cd67043	0.026176577
246	0x3d20032a	0.039065517
247	0xbdbb3a43	-0.09141972
248	0xbb069f67	-0.0020541789
249	0x3b8dc8b3	0.0043269037
250	0xbbc7e4c9	-0.0061002714
251	0xbdd707bb	-0.10499521
252	0xbd312e10	-0.04325682
253	0xbc03059a	-0.007996941
254	0xbd0e0450	-0.03467208
255	0x3c756b18	0.014979146

fc2.bias f4 [128]
0	0xbd987b9b	-0.07445451
1	0xbd75506e	-0.059891157
2	0xbd919518	-0.071085155
3	0x3c0d174b	0.0086115105
4	0xbdfb8120	-0.12280488
5	0x3d38102c	0.044937298
6	0xbd1f76ed	-0.038931776
7	0xbd9903b1	-0.07471407
8	0x3d926847	0.071487956
9	0xbc9ab566	-0.018885326
10	0xbcd1c508	-0.025606647
11	0xbe04fc4d	-0.1298687
12	0xbe1b5236	-0.1516808
13	0x3d5ca8fd	0.053872097
14	0xbe3ca98b	-0.1842405
15	0x3cbd0eda	0.02307837
16	0xbe3319d4	-0.17490321
17	0xbdc93293	-0.098240994
18	0xbe03df13	-0.12878065
19	0xbde7dabd	-0.11321018
20	0xbe12b713	-0.1432765
21	0xbdbb750b	-0.091531835
22	0xbe232317	-0.15931354
23	0xbdfd2684	-0.12360862
24	0x3c19538e	0.0093583
25	0x3bfe125b	0.007753653
26	0xbe262c18	-0.16227758
27	0xbc5ba19e	-0.013405232
28	0x3d9f6965	0.07783774
29	0x3d979d2f	0.07403027
30	0xbe4e3baf	-0.20139955
31	0xbc77eef7	-0.015132657
32	0xbdd1bba7	-0.1024087
33	0x3ca361ce	0.019944098
34	0xbd484efa	-0.048903443
35	0xbe01d083	-0.12677197
36	0xbde2275d	-0.11042664
37	0xbd742fef	-0.059616026
38	0xbe5b5cfb	-0.21422188
39	0xbc8ad5b4	-0.016947605
40	0x3c05835c	0.008148994
41	0x3e4ed082	0.20196727
42	0xbac8539e	-0.0015283709
43	0xbc5210a1	-0.012821347
44	0xbe1550c8	-0.14581597
45	0xbddb9150	-0.107210755
46	0xbe1c113f	-0.15240954
47	0x3c3af273	0.011410343
48	0xbe3806d1	-0.1797135
49	0xbe377ed3	-0.17919473
50	0xbda0beae	-0.07848869
51	0xbe4dca0f	-0.2009661
52	0xbddfdd94	-0.109309345
53	0xbe2fc285	-0.17164047
54	0x3d955089	0.072907515
55	0xbe103ee0	-0.14086485
56	0xbd6bcb11	-0.057566706
57	0x3c8a89dc	0.01691144
58	0xbe137cf7	-0.14403139
59	0xbe01d9b3	-0.12680702
60	0xbd19535e	-0.03743302
61	0xbe00754d	-0.12544747
62	0xbe1e789f	-0.15475701
63	0xbe0fef8d	-0.14056225
64	0xbdd84ace	-0.10561143
65	0xbdab4a89	-0.08363826
66	0xbd3e177b	-0.04640911
67	0x3cc6170b	0.02418091
68	0xbdd70200	-0.10498428
69	0xbdc72749	-0.0972429
70	0xbd549819	-0.051902864
71	0x3d9df438	0.07712597
72	0xbe156b2c	-0.14591664
73	0xbe062c88	-0.13102925
74	0xbd526e60	-0.051374793
75	0x3db025cc	0.08600959
76	0xbe5ff609	-0.21871199
77	0xbe4253ad	-0.18977232
78	0xbe168452	-0.14698914
79	0xbe5b7953	-0.21433
80	0xbd575b42	-0.052577265
81	0xbe3ec0e3	-0.18628268
82	0x3e013527	0.12617932
83	0x3dddb5e4	0.108257085
84	0x3d6fb5fc	0.058523163
85	0x3cb0c313	0.021577394
86	0xbd8f080d	-0.069839574
87	0xbde8dd31	-0.11370314
88	0x3e3953d0	0.18098378
89	0xbe0d33cc	-0.1378929
90	0xbe074e67	-0.13213502
91	0xbe22d787	-0.1590253
92	0xbdb96d73	-0.09054079
93	0xbcf75712	-0.030192886
94	0xbe17fe22	-0.14843038
95	0xbd99dc45	-0.07512716
96	0x3cf87aee	0.030332055
97	0x3db2e8bf	0.08735799
98	0xbe35d63f	-0.1775751
99	0xbdd981b3	-0.10620441
100	0xbe027cd1	-0.12742926
101	0x3d24cbe2	0.0402335
102	0xbe19810f	-0.14990638
103	0xbe330b84	-0.17484862
104	0x3d5035f1	0.050832693
105	0x3d5b1edd	0.05349623
106	0x3e10c3c4	0.14137179
107	0x3d860dbe	0.0654559
108	0x3dd33826	0.10313444
109	0xbb1738bb	-0.0023074585
110	0xbdce9b97	-0.1008827
111	0xbde2c2e3	-0.11072328
112	0x3dc32d06	0.09530072
113	0xbd48cbdf	-0.04902255
114	0x3e2147a7	0.1574999
115	0x3b974336	0.0046161665
116	0xbe508519	-0.20363273
117	0xbd8fddb6	-0.0702471
118	0xbdfdffe2	-0.124023214
119	0xbe4900e8	-0.19629252
120	0x3d748fb1	0.059707347
121	0xbdb4481c	-0.08802816
122	0x3c7aaace	0.015299512
123	0xbe00e332	-0.12586668
124	0xbcdd9746	-0.027049672
125	0xbe441725	-0.19149454
126	0xbe2672c0	-0.16254711
127	0xbd8482e9	-0.06470282

fc3.weight f4 [1, 128]
0	0xbd641d6d	-0.055692125
1	0x3cee7df3	0.029112792
2	0xbcbd66c7	-0.023120297
3	0x3d328543	0.04358412
4	0xbd033af5	-0.032038648
5	0x3d2410e6	0.040055178
6	0x3cc06f49	0.023490565
7	0x3d5d6283	0.054049026
8	0x3d2480de	0.04016196
9	0x3cf73e0b	0.030180952
10	0x3d17a125	0.037018914
11	0xbd42f70f	-0.047598895
12	0xbd8e4de8	-0.06948453
13	0x3d4c83b1	0.04993028
14	0xbd2562af	-0.040377315
15	0x3d99d309	0.07510955
16	0xbd875d7a	-0.06609626
17	0xbd0d37aa	-0.034476914
18	0x3d1563be	0.036472075
19	0x3cf12864	0.029438205
20	0xbd75dc24	-0.060024396
21	0xbd242210	-0.040071547
22	0xbd45687c	-0.048195347
23	0xbd14ed38	-0.036359042
24	0x3d10a633	0.03531475
25	0x3d12c13a	0.035828806
26	0xbd060a6c	-0.032724783
27	0x3d718090	0.058960497
28	0x3d37a7f8	0.04483792
29	0x3d4442dd	0.04791533
30	0xbdaca260	-0.08429408
31	0x3d145f78	0.03622386
32	0xbd47e222	-0.04879964
33	0x3d33e2fe	0.04391765
34	0x3d567470	0.052357137
35	0xbd9b39c9	-0.07579381
36	0xbd4e61e6	-0.050386332
37	0x3cb5a569	0.0221736
38	0xbd9e47fa	-0.07728572
39	0x3c918b74	0.017766692
40	0x3d1a11ea	0.03761474
41	0x3d30b956	0.0431455
42	0x3d1b74e6	0.03795328
43	0x3d1148c6	0.035469793
44	0xbd908409	-0.07056434
45	0xbcf33c94	-0.029691972
46	0xbd6b1aec	-0.05739872
47	0x3d812f96	0.063079044
48	0xbd3b80d3	-0.045777153
49	0xbd5c0df2	-0.053724237
50	0xbd4884c0	-0.048954725
51	0xbc90fffa	-0.017700184
52	0x3d7aec2f	0.0612604
53	0xbd4d7af6	-0.050166093
54	0x3d1ac700	0.037787437
55	0xbd28bfef	-0.041198667
56	0xbcef8427	-0.02923782
57	0x3d07847a	0.033085324
58	0xbd513b5b	-0.051081996
59	0xbd90153f	-0.07035302
60	0x3d608752	0.05481655
61	0xbcec876a	-0.028873164
62	0xbca043da	-0.019563604
63	0xbcf0f8f2	-0.029415581
64	0xbd1f00dc	-0.03881918
65	0x3cc81c2e	0.0244275
66	0x3d66086f	0.056160387
67	0x3cff98f3	0.031200862
68	0xbd14843d	-0.036258925
69	0x3d62dbfe	0.055385582
70	0xbd648bd7	-0.055797424
71	0x3d5d5315	0.05403431
72	0xbd3eadd6	-0.0465525
73	0xbd46d0ad	-0.048538852
74	0x3d83ccfe	0.064355835
75	0x3d33ab16	0.043864332
76	0xbdb2e264	-0.08734587
77	0xbda004fa	-0.07813449
78	0x3e000a5b	0.1250395
79	0xbd5fe400	-0.054660797
80	0x3d3b3889	0.045708213
81	0xbd1e878f	-0.038703497
82	0x3d519f1f	0.05117714
83	0x3d1e69c2	0.038675077
84	0x3d5df574	0.05418916
85	0x3d22e218	0.0397664
86	0x3d6abf01	0.05731106
87	0xbd1b3df1	-0.03790087
88	0x3d4453b2	0.04793138
89	0xbd3b0eb2	-0.04566831
90	0xbc814d1b	-0.015783837
91	0x3d137088	0.03599599
92	0xbd402598	-0.046910852
93	0xbd3b0bcd	-0.04566555
94	0xbd9b3d05	-0.07579998
95	0x3d0f520e	0.034990363
96	0x3d85c3de	0.06531499
97	0x3d37ce88	0.044874698
98	0xbda78900	-0.081804276
99	0xbcc88808	-0.024478927
100	0xbdcc5915	-0.099779285
101	0x3d350e65	0.04420318
102	0xbd71acda	-0.059002735
103	0xbd269f62	-0.040679343
104	0x3d679b7e	0.056544773
105	0x3d686b0a	0.056742705
106	0x3d373519	0.044728372
107	0x3d06b8e0	0.032891154
108	0x3d600f6c	0.054702207
109	0x3d8d79ba	0.06907983
110	0xbcec0ff7	-0.028816206
111	0x3d04dec2	0.032439
112	0x3d17871a	0.036994077
113	0x3d742031	0.059601013
114	0x3d63b261	0.055590037
115	0x3d15836e	0.036502294
116	0xbd339338	-0.04384157
117	0xbce45337	-0.027871711
118	0xbd92fe34	-0.07177392
119	0xbd573cad	-0.0525481
120	0x3d10353c	0.03520702
121	0xbd2de021	-0.042450074
122	0x3d7683a0	0.06018412
123	0xbd82d149	-0.06387574
124	0x3d0ab1be	0.033860914
125	0xbd2f5f4f	-0.042815503
126	0xbd097a07	-0.03356364
127	0x3cfb391d	0.030666882
