data/ContinuousControlActor.pth (torch_old, 89008 bytes, 10 tensors)

fc1.weight f4 [128, 33]
000000 49 d3 44 3d 99 7e 24 3d 62 d6 42 3e 1e ae a7 3d
       0.04805306 0.040159795 0.19027093 0.08187507
000010 e6 b0 58 3d 03 89 e7 bc 16 0f 03 3e ba af 40 be
       0.05290308 -0.028263574 0.12798724 -0.18817034
000020 df 85 96 bd 80 5a 0b be e8 dc 19 bd e7 d3 63 3d
       -0.07349753 -0.13608742 -0.03756419 0.055622008
000030 55 45 1d 3e 82 d5 52 bd 0d cd 3b 3e 0d 07 ea 3d
       0.1535848 -0.05147315 0.1833994 0.11427126
000040 d5 b2 d9 bd 87 81 ae 3d a7 e1 8d 3d 84 4e 81 3a
       -0.10629813 0.08520799 0.069278054 0.0009865318
000050 30 bc 1d 3d f9 4a f7 bd f9 74 0b 3d 50 0a 0d 3c
       0.038509548 -0.12074847 0.0340471 0.008608416
000060 aa 68 87 3d e7 0f a6 3d 82 3b 40 3d ba 6d be 3d
       0.0661176 0.08108502 0.04693175 0.092982724
000070 dc 0f e5 bc a9 c8 14 bd 28 3e ff bd 00 a3 f1 3b
       -0.027961664 -0.036324177 -0.12463027 0.0073741674
000080 ac b8 ae bd 99 75 8f ba 1c 35 97 bd 5c 3d 85 bb
       -0.08531317 -0.0010945081 -0.07383177 -0.0040661525
000090 5e 6e 4a bd 2c 59 f4 bc 9d 5f 00 3e 33 03 87 3e
       -0.04942166 -0.029827677 0.12536474 0.26369628
0000a0 8b b9 e0 bd 33 ac c2 3d e8 c7 de 3c 68 a7 e3 bc
       -0.109728895 0.09505501 0.027194932 -0.027789786
0000b0 ea 07 37 bc 50 54 d0 3b 04 f7 41 3c 0c 1a ff bc
       -0.01117132 0.006357707 0.011838678 -0.03114035
0000c0 ff af 21 3e 03 35 61 bd 41 4b 40 3c 63 6a 56 3d
       0.15789793 -0.054982197 0.011736692 0.052347552
0000d0 f0 9b cb 3c 3c ea 18 3d 44 c6 1a 3b 83 23 cd 3b
       0.02485463 0.03733276 0.002361671 0.006260337
0000e0 88 16 67 bd ca d0 0a bd 15 61 69 3d 64 d2 e2 bd
       -0.05641797 -0.033890523 0.05697735 -0.11075285
0000f0 d1 39 3e 3e a0 5d b6 bd 56 68 70 3d d5 3e 93 be
       0.18576743 -0.08904576 0.058693253 -0.28758875
000100 e0 50 ae bb 9e ee 49 be a8 a1 02 3e d0 98 d5 3d
       -0.0053196996 -0.19719931 0.1275698 0.10429537
000110 44 db 3d be 0b a1 b0 3d 4e 4d 57 3c f3 c8 46 be
       -0.18540674 0.086244665 0.0131409895 -0.19412594
000120 d1 92 07 bd 36 98 d9 3c 86 13 d1 bd f3 e1 11 3d
       -0.033099 0.026561838 -0.10208802 0.035615873
000130 f7 91 78 bc a0 06 2e 3d 8f 3f 26 bc 36 22 0e be
       -0.0151715195 0.042486787 -0.0101469895 -0.13880238
000140 15 5f 31 bd cd 16 2e 3d 42 38 c2 bb bb 2b b8 bb
       -0.043303568 0.042502213 -0.0059271166 -0.0056204475
000150 c6 f5 99 3d 26 32 2d 3c 88 1a 5e bd b8 ff 23 3d
       0.07517581 0.010571038 -0.05422452 0.040038794
000160 85 e3 90 3d 2b 82 0d bd 4e 71 5a bd ba 50 48 bb
       0.07074646 -0.034547966 -0.053330712 -0.0030565695
000170 90 a4 dc bc c1 c5 14 be 85 96 f5 3d b8 c9 49 bd
       -0.026933938 -0.14528562 0.119916 -0.04926464
000180 55 98 05 3d d6 19 e6 bc 94 d3 61 3d 42 fa b6 3c
       0.03261598 -0.028088491 0.055133417 0.02233613
000190 7b e8 4b 3d c7 f1 18 be 39 93 0a be 35 ed a6 bd
       0.049782258 -0.1493598 -0.13532723 -0.081507124
0001a0 83 e4 8a 3d df e7 8d bc 83 1d 04 3c 00 42 5a 3d
       0.067818664 -0.017322479 0.008063677 0.0532856
0001b0 75 1d ad bd 13 c0 85 3c 87 cf 7e 3d d4 03 85 bd
       -0.08452884 0.01632694 0.062209632 -0.06494871
0001c0 a6 20 07 be ca 74 34 3e bc 05 fd 3c bf 37 74 3c
       -0.13196048 0.17622676 0.030886523 0.014905869
0001d0 d8 aa 17 bd e8 18 06 3d 9e 11 f9 3c 78 69 46 bd
       -0.037028164 0.032738596 0.030403908 -0.048440427
0001e0 f6 85 c2 3b 7d 1f 98 bc 70 6b 14 3d 31 c6 84 3d
       0.0059363795 -0.018569702 0.036235273 0.064831145
0001f0 b8 4a fd 3b 68 02 e4 3c 86 ab c7 3d 09 7c ec bd
       0.0077298544 0.027833179 0.097495124 -0.11547095
000200 09 9e 81 bd a5 38 18 be 7f c0 98 bd e3 81 9e bd
       -0.06328971 -0.14865358 -0.07458591 -0.07739618
000210 02 37 b1 bc 5f 21 4a bd b3 e6 fa 3c 85 9c 9d bd
       -0.021632675 -0.04934823 0.030627584 -0.07695869
000220 a4 0d a3 3d 68 6b 5e 3c 2d 39 de 3d c8 bf 2c 3c
       0.07961586 0.013575412 0.10850749 0.010543771
000230 fc ed 8f bd 79 d0 8b 3d e3 c1 9c bc e3 8c c2 bc
       -0.07027814 0.068268724 -0.019135421 -0.02374882
000240 d5 f1 c3 3c 5c 3c 9f 3c 82 4f 16 3e de e9 ec bd
       0.023919025 0.019437961 0.14678767 -0.11568044
000250 05 3c b0 3b bd 44 ca bc b9 3c ee bc e4 ef 5c 3d
       0.0053782486 -0.02469098 -0.02908169 0.053939715
000260 c8 af 93 bc 56 db 20 3d 3d e8 5e 3a b3 1f 44 3b
       -0.018028155 0.039271675 0.0008503234 0.002992612
000270 e5 81 0e 3c 10 fc 00 bd ac 0e bc 3c c2 c5 86 3e
       0.008697961 -0.031490386 0.022956215 0.26322752
000280 31 cd e8 3d a7 41 81 bd 2e a4 93 be 0a f6 3e 3d
       0.11367262 -0.0631135 -0.28836197 0.04662136
000290 24 4f f2 bd db 5c d5 bd 7e b1 33 3e 1d 63 9f bc
       -0.11831501 -0.104181014 0.17548177 -0.01945644
0002a0 19 36 77 3c f7 9a 82 3d 03 cc 84 bb 42 da 28 3c
       0.0150885815 0.063772134 -0.0040526404 0.010305943
0002b0 0f 16 09 bc bd f4 bf 3d 48 90 1e 3b 93 58 ed bb
       -0.008367076 0.09372852 0.0024194885 -0.007243225
0002c0 6a 39 4d 3c d3 4e ab bc f8 c9 1b bd 03 be aa bd
       0.012525896 -0.02091161 -0.03803441 -0.08337023
0002d0 58 80 3c bc 0f 9f b7 bd 5e 3e 1a bd 1b 10 15 bb
       -0.011505209 -0.08965885 -0.037657134 -0.0022745195
0002e0 1f 5f f4 3c 84 36 0c 3c 7b d3 24 bd b9 e7 1e 3d
       0.029830514 0.008557919 -0.040240746 0.038795207
0002f0 1f 0d 84 bc 4e c7 ce 3b 8c 94 be bc 5a 60 be 3d
       -0.016119538 0.00631038 -0.023264192 0.09295721
000300 8f 7d 22 3e c2 6b 54 bd 98 88 59 3c 03 e0 d0 bd
       0.1586821 -0.05186058 0.013277195 -0.10198977
000310 36 dc 71 3d 9a 91 17 3f 11 53 62 3e 68 2c 03 3e
       0.0590479 0.59206545 0.22102 0.12809908
000320 54 b0 3a bd b6 a7 18 bd ee 71 0e 3d 0a fa 4a 3e
       -0.045578316 -0.037269317 0.03477662 0.19821945
000330 c7 d6 9c bd 24 97 12 bd f6 81 a5 3c 98 22 a9 3d
       -0.07658153 -0.03578867 0.020203572 0.08258551
000340 88 61 00 3e f6 3c a0 3d 4a 29 a5 3d 25 ce 9b 3d
       0.12537205 0.078241274 0.08064516 0.07607678
000350 52 fb 81 3c b2 e1 5c 3d c7 b8 e3 3b d8 23 33 bd
       0.01586691 0.053926177 0.0069495174 -0.043735355
000360 e3 3a e6 ba 8e 64 13 3e 35 de 53 3d 81 04 5a 3d
       -0.0017565157 0.14393827 0.051725585 0.05322695
000370 03 2b cd 3c 87 ec 9c 3c 75 49 48 3d 83 e5 37 bd
       0.025044924 0.019155754 0.04889818 -0.044896614
000380 a4 50 d1 bc 85 3d e8 3d d8 bf 56 3d ce 5d 79 3d
       -0.025551148 0.11339859 0.05242905 0.060880475
000390 fd a5 5d be fc 67 9f bd 32 7a 1d be d8 31 23 3e
       -0.21645351 -0.07783505 -0.15378645 0.15936983
0003a0 0f 21 75 ba 61 59 c8 3d c4 26 9e bd 3e 7f c7 bd
       -0.00093509344 0.09782673 -0.07722238 -0.097410664
0003b0 8f 81 46 3d 89 64 b0 bd 93 e0 f2 bd a4 26 4c 3d
       0.0484634 -0.086129256 -0.118592404 0.049841538
0003c0 60 a8 4f 3c 46 6f 80 3d 70 65 8f bc 33 8e 82 3d
       0.012674421 0.06271224 -0.017504424 0.063747786
0003d0 96 1f 9a 3d af a8 48 3c cd d9 ea bd f9 42 5e 3d
       0.07525556 0.012247249 -0.114673235 0.05426309
0003e0 11 7b 88 3b 8c c7 70 3d 3a f8 55 bd 18 14 7d 3d
       0.0041650613 0.058784053 -0.05223868 0.06178674
0003f0 99 4d bb bd 2d 4f 76 bd 61 ba ff 3b 0a da b4 bc
       -0.0914566 -0.0601341 0.0078042005 -0.022076625

fc1.bias f4 [128]
000000 78 6e 0b 3d 5a 75 de bd c6 dc 85 3e cf b3 57 3d
       0.034040898 -0.10862227 0.26145 0.052661713
000010 4c df b2 be 2b 88 b0 bd e0 48 80 be a7 c1 08 be
       -0.34935987 -0.08619722 -0.250556 -0.13355123
000020 0e b1 56 3e df 37 2c bd 2d 25 4a be dd 9b 4a bd
       0.20965979 -0.04204547 -0.19740744 -0.04946505
000030 5b 4e 7d be 6c 32 3c bb c9 01 59 be 17 36 fb bd
       -0.24736921 -0.0028716577 -0.21192087 -0.12266176
000040 14 22 05 3d 15 3d df bc 52 15 84 3c 09 f8 df 3d
       0.032503203 -0.027250806 0.016123448 0.10935981
000050 ca 98 97 bd b9 53 60 3d 3b 18 8b be 7b 01 85 be
       -0.07402189 0.054767344 -0.27166924 -0.25977692
000060 8a a3 87 3c ed 65 f0 3c 92 de ad 3d e8 5a 40 be
       0.016557474 0.029345477 0.084897175 -0.18784678
000070 49 9c 8b 3d bc 0b 8c be f9 3e ad bd f1 1b 11 be
       0.068169184 -0.27352703 -0.08459277 -0.14170815
000080 9b 7a 93 3d 35 32 d5 bd f0 83 c4 3c cd 2a 8c 3c
       0.072011195 -0.10409967 0.023988694 0.017110253
000090 5b c2 a7 bd 9a 20 db be 41 5f 5c be a1 dd e6 bd
       -0.08191367 -0.4279831 -0.21520711 -0.11272741
0000a0 5e 69 7b be 9f 9e 6b bc cc 17 4d be 72 0a e7 bd
       -0.24551913 -0.01438108 -0.20028609 -0.11281289
0000b0 08 3c 28 be 90 ff ae bd bf 90 d5 bd 1d 63 46 3c
       -0.1642915 -0.085448384 -0.10427999 0.012108591
0000c0 e0 60 72 be aa 90 cb bd 11 89 41 be fa 00 36 bd
       -0.23669767 -0.09939702 -0.18899943 -0.044434525
0000d0 cc f4 5b be c3 88 b7 be d3 63 1d 3c f1 8f 30 be
       -0.21480101 -0.35846528 0.0096063195 -0.1724241
0000e0 99 54 e2 be 40 6f bc bd 12 08 94 3c 6b 5d 43 3d
       -0.44205168 -0.09200907 0.018070254 0.047696512
0000f0 3f a9 da bd ba a0 20 be c8 04 f1 bd d5 e9 1e be
       -0.106768124 -0.15686312 -0.1176849 -0.15518887
000100 14 7d 29 be 8a b5 91 bc 25 a5 a0 3d c1 06 2f be
       -0.1655162 -0.01778676 0.07843999 -0.1709242
000110 56 5a 41 3e d0 51 14 be 39 26 1a be 01 01 40 3d
       0.18882117 -0.14484334 -0.15053643 0.046875957
000120 ca e0 fa bd 48 6c 98 3c 23 a4 c2 bc e0 fb e7 3b
       -0.12249906 0.01860632 -0.023759907 0.0070795864
000130 ab fa 00 bd 90 ac 79 be e1 8f 4d be d5 f3 f9 bd
       -0.031489056 -0.24382234 -0.20074417 -0.122047104
000140 dd 9a 3c bc b0 43 87 be 40 ea ff bd 40 c5 c9 bd
       -0.011511532 -0.2641883 -0.124958515 -0.098520756
000150 01 9e 1b be a9 32 c1 bd 92 c8 0b be 87 b5 56 bc
       -0.15196992 -0.09433491 -0.1365073 -0.013104803
000160 6c a1 58 be a7 c9 96 bc 23 1e ca bd af 74 37 be
       -0.21155328 -0.018406702 -0.098690294 -0.17915605
000170 ab 4e 44 be ed 5e f3 3d ac 57 05 be 67 6f 95 3d
       -0.19170634 0.1188334 -0.13021725 0.07296639
000180 e5 2b fb 3a ec c4 31 3c 86 20 40 be a9 8b f8 bd
       0.0019162862 0.0108501725 -0.18762407 -0.12136013
000190 91 0a ae bb 14 16 a3 3d c0 f1 c8 3d 73 dc a5 ba
       -0.005311318 0.079631954 0.09811735 -0.00126542
0001a0 4a 63 ac bc e9 dc 3a be cd 05 ba bd b4 2c 6e 3d
       -0.021043438 -0.18248333 -0.09083138 0.0581481
0001b0 88 df 0f be 71 6b 8b b9 f4 cd b9 3e 5e 2a 0b be
       -0.14050114 -0.00026592196 0.36289942 -0.1359038
0001c0 40 b1 96 be 28 06 a7 bd a9 23 56 bd a1 e0 2d be
       -0.29432106 -0.08155471 -0.052280102 -0.1698022
0001d0 ea cb 97 bc c6 87 98 3d dd 74 89 3b 4d 07 5f be
       -0.018529851 0.07447772 0.0041948394 -0.21780129
0001e0 8b 8d 6c be f5 2a 0b be e0 be ee bd 70 c2 5e be
       -0.2310087 -0.13590606 -0.116575 -0.2175386
0001f0 ce 2d 6c 3d ba 32 15 bd fc 82 e4 3c 47 08 06 be
       0.05766087 -0.03642533 0.02789449 -0.13089095

bn1.weight f4 [128]
000000 58 d2 03 3f 03 65 57 3f 36 95 8f 3f 21 e6 44 3f
       0.51492834 0.84138507 1.121741 0.7691365
000010 b3 ea cd 3e b5 61 50 3f bd cd ad 3e eb 83 05 3f
       0.40218124 0.8139909 0.33946028 0.52154416
000020 93 ee 1d 3f bd ac b8 3e ca b1 8c 3f 83 10 40 3f
       0.6169216 0.3606929 1.0991757 0.75025195
000030 35 e0 8e 3f b1 93 18 3f f5 db 22 3f e7 1d 55 3f
       1.1162173 0.5960036 0.6361688 0.8324875
000040 8e dc 07 3f 8a 4a fe 3e c9 9f 2f 3a a8 f1 86 3f
       0.53070915 0.49666244 0.000669953 1.0542498
000050 14 02 8b 3f 25 a4 fc b9 06 e5 1b 3f db 19 06 3f
       1.0860009 -0.00048187483 0.6089634 0.523832
000060 32 14 17 3f 99 67 86 3f fb 5b 71 3f a2 2f 1f 3f
       0.5901519 1.0500365 0.94280976 0.62182057
000070 28 0c 4b 3f 41 6c 3f 3f 07 fb 7f 3f f7 0b a9 3e
       0.79315424 0.7477456 0.9999241 0.3301694
000080 8e 48 5f 3f 2d 38 af 3e 8a 68 12 3f 21 89 2f 3f
       0.87220085 0.34222546 0.57190764 0.6856862
000090 7e da 26 3f 2a f8 b7 3e 73 51 30 3f c0 c5 67 3f
       0.6517714 0.35931522 0.6887428 0.9053612
0000a0 2b 51 12 3f ae 40 60 3f e5 a5 8e 3f 3f 51 15 3f
       0.571551 0.87598693 1.1144377 0.58327097
0000b0 99 cd 00 3f 7f c7 be 3e d5 20 f9 3e 52 51 19 3f
       0.5031372 0.37261578 0.4865786 0.5988971
0000c0 61 5b df 3e d5 dd 0e 3f 37 1b 7a 3f 52 af 5a 3f
       0.43624404 0.5580724 0.97697777 0.8542377
0000d0 fc 24 84 3f 36 f2 8e 3f cf 19 f2 3e a6 18 03 3f
       1.0323787 1.1167667 0.47285315 0.51209486
0000e0 4c 06 4a 3f 75 a8 c5 3e 02 c5 75 3f f3 9c 1a 3f
       0.7891586 0.38605085 0.96003735 0.60395736
0000f0 cc 9f 9c 3e ce a1 05 3f 80 02 fe 3e cb 7d 6d 3f
       0.30590665 0.5220002 0.49611282 0.9277007
000100 89 c0 87 3f 46 3f 89 3f 94 fe 16 3f dd 15 08 3f
       1.0605632 1.0722435 0.58982205 0.5315836
000110 5e 1a f9 3e f7 1d 1b 3f b1 d7 16 3f 49 1d 81 3b
       0.4865293 0.605926 0.5892287 0.0039402586
000120 c3 6b 82 3f 3e e2 a8 3e 57 f5 04 3f 59 19 7d 3f
       1.0189136 0.3298511 0.5193686 0.988668
000130 00 91 c2 3e a4 51 39 3f 02 34 91 3f 8f f4 8b 3f
       0.3800125 0.723902 1.1343997 1.0934008
000140 cc a3 62 3f 1b 2b 11 3f 4f 3a 6f 3f 92 c4 38 3f
       0.88531184 0.567064 0.93448347 0.7217494
000150 81 ee 1f 3f 78 a7 27 3f 9b ae 57 3f 8b 2f 83 3f
       0.62473303 0.6548991 0.842508 1.0248884
000160 6f b8 6f 3f 18 11 4f 3f db 50 5a 3f 33 14 3c 3f
       0.936408 0.8088546 0.85279626 0.7346832
000170 3d 6d 67 3f 4c 5c 4b 3f 9f 9e e3 3e 66 f7 4f 3f
       0.9040106 0.7943771 0.44456956 0.81236875
000180 7b 8f 0d 3f 9d 8f 11 3f 41 39 46 3f b1 3e 53 3f
       0.5529706 0.5685976 0.7743111 0.82517534
000190 a8 6b 48 3f 7d 7b 16 3f fb 71 69 3f fe a1 91 3f
       0.7828927 0.5878218 0.91189545 1.1377561
0001a0 f9 6b 46 3f 58 32 65 3f 22 de 7c 3e 77 9d 77 3f
       0.77508503 0.89529943 0.24694112 0.9672465
0001b0 fb 0d 56 3f bf 3d 63 3f 79 87 5e 3f 14 04 28 3f
       0.8361508 0.8876609 0.86925465 0.6563122
0001c0 07 5c 1d 3f 93 10 95 3f b5 c3 83 3f 7d 3f 0a 3f
       0.6146855 1.1645683 1.02941 0.54003125
0001d0 b1 12 8c 3f b4 24 93 3f 20 e5 40 3f 9d 9e d8 3e
       1.0943204 1.1495576 0.75349617 0.42308512
0001e0 f2 c4 5a 3f cb 96 26 3f 97 f0 81 3f 02 8a cc 3e
       0.85456765 0.6507384 1.0151547 0.39949042
0001f0 3b 32 6f 3f 5c 28 2e 3f ff 12 43 3f 51 66 83 3f
       0.9343602 0.68030334 0.7620086 1.02656

bn1.bias f4 [128]
000000 42 b4 1a 3e b9 28 92 3d 01 0a 17 3e 21 78 a4 3d
       0.15107825 0.071366735 0.1474991 0.08030725
000010 d2 19 3c 3e 30 6d 03 3e 64 e8 06 3e 28 53 0e 3e
       0.18369225 0.1283462 0.13174587 0.13898909
000020 58 3c 34 3e ed 76 d9 3d 33 ff 28 3e 44 33 31 3e
       0.17601144 0.106183864 0.16503601 0.17304713
000030 5d 1b 0a 3e 1c b3 10 3e 08 9b 68 3d 99 b2 75 3e
       0.13487001 0.14130825 0.056788474 0.23993911
000040 de 50 73 3e f5 d5 9f 3d 5b cf 06 bc 55 de 40 3e
       0.23761317 0.07804481 -0.008228148 0.18834813
000050 be ee a8 3d 3b bd 9f bb 6f ad cb b9 d5 87 db 3d
       0.082486615 -0.004874853 -0.00038848395 0.10719267
000060 7c 46 85 3e eb 0e 1b 3b ac 03 26 3e 3a 7b 91 3d
       0.26030338 0.0023660015 0.16212338 0.07103582
000070 53 a8 6f 3e 6b d2 ee 3c e4 5e 1a 3e 0c c2 15 3e
       0.23404054 0.02915307 0.1507526 0.14624804
000080 12 46 1d 3e 26 5f 14 3e 91 ca b5 3e 32 39 52 3e
       0.15358761 0.14489421 0.35506108 0.20529631
000090 c0 97 31 3e e7 d3 b3 3d d7 a9 98 bc 61 45 0a 3e
       0.17343044 0.087806515 -0.018635673 0.13503028
0000a0 9d 3b 6d 3c f9 35 4d 3e 3d 07 e2 3d c2 07 f8 3d
       0.014479545 0.2004012 0.11036537 0.12110855
0000b0 78 89 89 3e c2 36 04 3e 0f 8b 16 3e 04 83 53 3e
       0.26862693 0.12911513 0.14701484 0.20655447
0000c0 26 4b 5f 3d ab 97 a6 3d 0f f4 39 3e fd e5 73 3e
       0.054515027 0.08134397 0.18159507 0.23818202
0000d0 f3 9a 63 bc eb 57 30 bd 5a 62 38 3e 52 1c a7 3d
       -0.013891923 -0.043052595 0.18006268 0.081596985
0000e0 cd 13 c6 3d 31 d5 f3 3d 13 2a 81 3e 42 b8 63 3e
       0.096717454 0.119058974 0.25227413 0.22238258
0000f0 e5 04 a2 3d a4 88 42 3e c8 2f 1e 3e 53 0e 67 bb
       0.0791109 0.18997437 0.15447915 -0.003525634
000100 8e 31 ce 3d fd bc e1 3d 76 2d fc 3d 0b 19 b2 3d
       0.100680456 0.11022375 0.123133585 0.08696183
000110 11 2a 90 3e b9 b9 0c 3e ff fc d0 3d 8b 13 0a bd
       0.28157094 0.13742723 0.10204505 -0.033710044
000120 d8 15 74 3e e6 8e 0d 3e 06 a5 81 3e 29 f7 d0 3d
       0.23836458 0.13824043 0.25321215 0.10203392
000130 56 71 13 3e 54 7a 5a 3d 21 cb 0a 3d 3d cb 24 bc
       0.14398703 0.053339317 0.033885125 -0.010058221
000140 73 c6 e9 3d d7 7b 90 3d 6c 06 b3 bc bf c3 5a 3e
       0.11414804 0.070548706 -0.021853648 0.21363734
000150 de b6 1e 3d ee 49 4f 3e 29 e5 34 3e 85 83 23 3e
       0.038748614 0.20243046 0.17665543 0.1596814
000160 3f bd 26 3e 99 c4 b1 3d d8 a5 c1 3d be e7 bc 3d
       0.16283129 0.08680076 0.0945546 0.09223889
000170 8a 59 8b 3c 48 27 d8 3d 64 2b 22 3e bc b5 2b 3e
       0.017010469 0.10554367 0.15836865 0.16768545
000180 0f 8e 84 3e fd 75 49 3e 44 ea 09 bd 82 e4 1e 3e
       0.25889632 0.19673915 -0.03367068 0.15516856
000190 ce 65 21 3e 52 bb 06 3e b2 36 45 3e 6a b7 64 3e
       0.15761492 0.13157395 0.19259146 0.22335592
0001a0 5f 6b 11 3e f9 9c 37 3e bb c1 8b 3d ad ab 30 3e
       0.14201115 0.17930974 0.068240605 0.17252989
0001b0 cc 83 cb 3d 29 70 c1 3d d9 7f 91 3e 92 4c 18 3c
       0.09937248 0.09445221 0.28417853 0.0092956
0001c0 a1 42 e8 3d f3 50 f2 3c 58 8e f5 3d a6 8b 5e 3e
       0.113408335 0.029579615 0.119900405 0.21732959
0001d0 ea 7a 02 3e 15 b6 45 3e c2 6a b0 3d be 27 10 3e
       0.127422 0.1930774 0.086141124 0.1407766
0001e0 fb 3c 15 3e b7 15 36 3e 4d 8f 63 3d db dd 2a 3e
       0.14574043 0.17781721 0.055556584 0.16686194
0001f0 1c 40 95 3e cc 83 0e 3e 70 3e 53 3e bb dd cf 3d
       0.29150474 0.13917464 0.20629287 0.101497136

bn1.running_mean f4 [128]
000000 a9 4e 89 3d a6 91 01 3e 48 89 24 3f 0b 6b a4 3d
       0.06704456 0.12653217 0.64271975 0.08028229
000010 6d df b4 1d 64 16 4f 3d 4c 7c 41 3d 73 65 ae 3d
       4.787662e-21 0.050558463 0.04723768 0.08515444
000020 85 fb b0 3e a0 d8 f4 3c 5d 96 44 3e 83 d2 53 3e
       0.34566894 0.029888451 0.19197984 0.20685773
000030 ba 95 80 3d 7a 5b d0 3d a9 a1 80 3d f0 57 c9 3e
       0.06278558 0.10173698 0.06280834 0.39324903
000040 ce 66 22 3f 91 30 99 3c f2 4c b5 3d bc 26 97 3d
       0.6343812 0.018699916 0.08852567 0.07380435
000050 74 50 9a 3e 9c 31 c9 3e bc dc db 38 c1 df ac 3b
       0.30139506 0.3929566 0.00010483849 0.005275697
000060 e7 8d 18 3f bc b2 c3 3c ce fc 00 3e 50 d8 15 3e
       0.59591526 0.023888938 0.12596437 0.14633298
000070 ac ca 90 3f de 0e b9 39 69 d8 e7 3d 92 53 ba 3c
       1.131185 0.00035297027 0.11320574 0.022744928
000080 93 60 09 3f ee 51 cf 3e e8 d0 fd 3d 26 0c 3f 3d
       0.53662986 0.40492195 0.12393361 0.046642445
000090 23 fd 3c 3f 5e 10 c4 3b 75 b4 87 39 ae b1 b3 3d
       0.73823756 0.0059833964 0.00025883658 0.08774124
0000a0 f8 e8 5a 3e 44 a8 6b 3e df 0a 0a 3e d6 31 55 3d
       0.21377933 0.23013407 0.1348071 0.05204948
0000b0 b4 eb 8e 3d 44 25 14 3f ca cd a2 3e 1c dd 21 3e
       0.069785506 0.5786936 0.3179763 0.15807003
0000c0 23 ea 86 3d 81 b3 91 3d c5 53 d9 3e ce f7 bc 3d
       0.06587627 0.07114316 0.42446724 0.092269525
0000d0 f4 11 01 3d fe 83 e7 3c 41 d6 54 3d fe 84 86 3d
       0.031511262 0.028261181 0.05196214 0.06568335
0000e0 04 00 00 00 a5 13 5d 3e 3e c4 c7 3e 58 8c fc 3e
       6e-45 0.21589525 0.39016908 0.49325824
0000f0 90 1c 72 3d d7 da b4 3d 65 b6 4c 3e 1a b3 46 38
       0.05910927 0.08830803 0.19991453 4.737368e-05
000100 bd 07 6d 3e dd d8 d4 3e 11 a3 19 3e 4e b2 64 3d
       0.23147483 0.41571704 0.15003611 0.055834107
000110 fd 51 30 3f 18 22 51 3d cd 06 91 3d 30 61 25 3e
       0.68875104 0.051057905 0.07081375 0.16150355
000120 3e 16 0c 3f 2d e8 46 3e ac ed dd 3d d4 fb ec 3d
       0.5472144 0.19424506 0.10836348 0.1157147
000130 e4 31 5a 3e 07 6f 48 3d 04 00 00 00 5c 7b d3 3c
       0.21308094 0.04893401 6e-45 0.025815658
000140 32 4d 2a 3e 3a 4a fb 37 29 69 79 3d 1a 7d eb 3d
       0.1663101 2.9956096e-05 0.060891304 0.114984706
000150 15 75 76 3d fb b1 12 3f 62 c0 f2 3e 5c 37 1d 3e
       0.060170252 0.57302827 0.474124 0.15353149
000160 63 a2 e1 3d 15 23 1d 39 5f 1a c0 3c f9 36 5c 3c
       0.11017301 0.00014985756 0.023450075 0.013440841
000170 48 ba 15 3e 27 e6 30 3e 28 96 ee 3e cc f5 b6 3e
       0.14621842 0.17275296 0.46598935 0.35734403
000180 97 75 22 3d 5f 04 25 3e 58 45 c6 39 6e b1 01 3e
       0.039662924 0.16114949 0.00037817168 0.1266534
000190 4f e4 10 3f 47 20 d1 3b 49 9a be 3d 05 28 15 3f
       0.5659837 0.0063820216 0.09306771 0.5826419
0001a0 3e 16 3f 3e 4c 10 ae 3d d4 76 23 3d 60 f7 9a 3e
       0.18660828 0.08499202 0.039908245 0.30266857
0001b0 28 48 53 3e 8f 35 21 3f 4e 34 78 3f 04 00 00 00
       0.20632994 0.6297235 0.9695481 6e-45
0001c0 23 fe 44 3d 1c fe da 34 0b 39 6e 3d ba 17 2e 3e
       0.048093926 4.0790553e-07 0.05815987 0.17001238
0001d0 b9 aa 3c 3e 9b bf 3c 3f 76 cd be 3d 96 57 21 3d
       0.184245 0.73729867 0.09316532 0.03939017
0001e0 2c 42 62 3e 04 e8 89 3d e9 23 d5 3d 42 ca f5 3e
       0.22095555 0.067337066 0.1040724 0.48005873
0001f0 df 4c 80 3e 79 39 28 3f fa 4b a7 3d 18 a0 8a 3e
       0.25058648 0.65712696 0.08168788 0.27075267

bn1.running_var f4 [128]
000000 16 e8 fd 3c 3c 0f 28 3d 5b 30 b9 3e c7 8a 02 3d
       0.030994456 0.041030154 0.36169705 0.03187063
000010 e1 a1 b7 1b 39 30 a0 3c 3d d0 b1 3c 56 80 e5 3c
       3.0379422e-22 0.019554244 0.021705741 0.028015297
000020 76 16 3d 3e 74 6e 67 3c 20 de 8a 3d ed 8e cc 3d
       0.184656 0.014125455 0.06780648 0.099881984
000030 94 4c 07 3d f6 dc 00 3d 51 1e f0 3c 7b 8f 35 3e
       0.033032015 0.031460725 0.029311331 0.17730515
000040 40 06 02 3f 48 90 b3 3b 3e 57 fc 3c b9 d4 9a 3c
       0.50790787 0.005479846 0.030803319 0.018900262
000050 a8 17 be 3d 4b 59 a8 3d b9 39 f9 37 3e af 3d 3b
       0.09281856 0.08220156 2.9709992e-05 0.0028943564
000060 50 6c d4 3d 6a 78 26 3c c8 50 28 3d 50 e5 8a 3d
       0.103722215 0.010160545 0.041092664 0.06782019
000070 d0 d4 0a 3f dc 71 92 38 6b 0e 0a 3d 03 00 ca 3b
       0.54230976 6.9830305e-05 0.033705156 0.006164552
000080 95 b9 44 3e 70 27 d0 3d d2 9e d2 3c f9 93 7c 3c
       0.19211419 0.10163772 0.025710497 0.015416139
000090 60 b4 d2 3e ef 3a 59 3a 0a a6 92 38 e4 e1 4c 3d
       0.4115324 0.0008286675 6.99275e-05 0.050020114
0000a0 dc 4a 01 3e ec 06 81 3d 2d 4b 3b 3d 8c fb 00 3d
       0.12626213 0.06300148 0.04572599 0.031489894
0000b0 4f 1d 08 3d 79 a7 e2 3e 18 2b 17 3e f3 25 81 3d
       0.033231076 0.44268396 0.14762533 0.06306066
0000c0 70 7c c4 3c 26 be e6 3c 02 4e 8e 3e f0 7f 55 3d
       0.023985118 0.028166842 0.2779389 0.052123964
0000d0 05 9e 13 3c 77 e1 e7 3b 93 ee 73 3c 50 8f e3 3c
       0.009009843 0.007076438 0.0148884235 0.027778298
0000e0 04 00 00 00 2d 97 f4 3d c7 f5 1d 3e 4e d4 c4 3e
       6e-45 0.11942897 0.15425788 0.38443226
0000f0 45 34 de 3c b1 ca 96 3c 86 8e f8 3d 9b a7 1a 37
       0.027124533 0.018407198 0.12136559 9.218139e-06
000100 57 5f fb 3d ae 5d 53 3e 82 7c 90 3d 5e 58 82 3c
       0.12274044 0.20641205 0.07054998 0.015911277
000110 d8 2d e1 3e 0b ba 0d 3c 5d 6b 08 3d 75 ea 0d 3d
       0.43980289 0.008650313 0.033305515 0.034647424
000120 2c 98 b6 3e be 38 bf 3d 56 29 04 3d 4b 34 04 3d
       0.35662973 0.093369946 0.032265984 0.032276433
000130 e6 31 e0 3d 00 9c bb 3c 04 00 00 00 38 4f f7 3b
       0.10947017 0.022901535 6e-45 0.0075472854
000140 b0 90 97 3d ca 04 72 36 56 5a fc 3c 99 ee 8f 3d
       0.07400644 3.6063598e-06 0.030804794 0.07027931
000150 d1 fc 7a 3c 69 40 be 3e 2b e0 9d 3e 54 27 af 3d
       0.015319065 0.37158516 0.3083509 0.08552423
000160 4b dd 28 3d 57 3a 24 38 61 9e f6 3b 99 84 37 3b
       0.041226666 3.915498e-05 0.0075262045 0.0028002618
000170 f8 62 87 3d a3 47 93 3d f9 4a 58 3e f4 a6 6a 3e
       0.06610674 0.07191398 0.2112235 0.2291525
000180 2d d8 e5 3b 4a b6 25 3d 4d da 09 39 73 5d 3e 3d
       0.0070142956 0.040457048 0.00013146662 0.04647584
000190 55 84 b1 3e a2 98 f8 3a 80 95 d0 3c 25 d6 84 3e
       0.34671274 0.0018966387 0.025461912 0.2594463
0001a0 35 cc c2 3d d1 6f b3 3c b6 bb 8d 3c 84 11 08 3e
       0.09511606 0.021903904 0.017301422 0.13287932
0001b0 da 02 e4 3d f6 5b df 3e e1 78 21 3e 04 00 00 00
       0.111333564 0.43624848 0.15768768 6e-45
0001c0 64 2c a6 3c 4f dd cd 32 9e 24 fa 3b 36 d5 1d 3d
       0.020284839 2.396578e-08 0.0076337596 0.038533412
0001d0 56 18 e2 3d 47 15 6e 3e 8d 2e 30 3d a3 cb fe 3b
       0.11039798 0.23250304 0.043013144 0.00777574
0001e0 ed b3 9c 3d 68 a3 fc 3c 3e fe 57 3d 0e 26 80 3e
       0.076515056 0.030839637 0.0527327 0.25029033
0001f0 70 21 27 3d 39 9b c8 3e 17 a3 bb 3c 73 0e 0c 3e
       0.040803373 0.39180925 0.022904916 0.13677387

fc2.weight f4 [128, 128]
000000 6a 4f 48 3e ce 72 84 bd e9 47 0c be 8e d3 ca bd
       0.19561544 -0.0646721 -0.13699307 -0.09903632
000010 06 1f 03 be 75 27 68 3d b5 8b 34 bc c0 e0 df 3d
       -0.12804803 0.056678254 -0.011019637 0.109315395
000020 0a fe 8d bc 0a 1e cd bc 5e 15 c9 bd c0 ce 58 3e
       -0.01733305 -0.025038738 -0.098185286 0.21172619
000030 f6 52 b6 3d e3 51 60 3d 50 f1 b4 3c 23 03 c8 bd
       0.08902542 0.054765593 0.022087723 -0.09766223
000040 c9 11 9e 3d 92 e0 cf bb ea d4 a3 3d 75 98 d8 3d
       0.07718236 -0.0063439095 0.079995945 0.10575954
000050 00 ad f7 3c 70 54 b1 bd b8 b1 c1 3d ad a9 13 3e
       0.03023386 -0.08658683 0.09457725 0.14420195
000060 42 22 d2 3c ff 85 a5 3b 0b 4e b2 bc 59 90 a3 3c
       0.025651101 0.005051374 -0.02176573 0.019966291
000070 de fc 0b 3e 44 77 07 3b e3 12 92 3d 5c 4d dd 3d
       0.1367068 0.0020670453 0.071325086 0.10805771
000080 d7 72 1a bd e7 83 74 bd f4 50 1f be 76 e4 85 3d
       -0.037707176 -0.059696104 -0.15558225 0.06537716
000090 69 9e 7b be bf ac 4b 3d 18 4b 27 be df 3c 0e 3d
       -0.24572147 0.04972529 -0.1633724 0.03472602
0000a0 10 d3 26 3e fd d8 e0 3d 87 ad 07 3e b7 79 39 3e
       0.16291451 0.10978887 0.13249789 0.18112837
0000b0 1a 6f d2 3d 67 8b 51 be 3b 70 1d 3e f6 6d 79 be
       0.10275097 -0.20463334 0.15374844 -0.24358353
0000c0 d1 8d 92 be 9c 04 06 3e 06 71 bb bd 1d 82 24 3d
       -0.28623822 0.13087696 -0.09152417 0.04016315
0000d0 6f ac a6 bd b8 69 a6 ba ab 27 66 3d 04 ed 91 bd
       -0.08138358 -0.0012696302 0.056190174 -0.07125285
0000e0 04 ec 95 ba 04 e2 2d bd e8 ad 8d bc 86 ed 67 3e
       -0.0011438136 -0.042451873 -0.017294839 0.22649202
0000f0 17 83 33 3e da e9 c3 3c 9a 90 2e bd 59 41 c0 3d
       0.17530476 0.02391522 -0.04261837 0.09387464
000100 bd c3 58 bc 16 6f 02 be c8 f6 eb 3c a9 68 53 be
       -0.013230261 -0.12737688 0.028804198 -0.20645393
000110 55 51 cd 3d 86 d7 94 3c 47 ac aa 3b b2 4f 91 bb
       0.100252785 0.018169176 0.0052085253 -0.0044345492
000120 25 5b c3 bc ec 1a f1 3d b2 d1 a0 3e 6a f7 9d bc
       -0.023847172 0.11772713 0.31409985 -0.019283015
000130 d1 bf e9 3d 8f f8 f0 3d cf c5 f3 bc 5f 55 aa 3d
       0.11413539 0.11766159 -0.029757408 0.083170645
000140 46 1c 17 be 91 22 d8 3c d6 c7 e9 3d 6b 41 f0 bd
       -0.14756879 0.02638367 0.11415069 -0.117312275
000150 b6 9f 80 bd b3 15 97 3d ce 20 8c 3d ca 96 b4 3c
       -0.062804624 0.07377186 0.068421945 0.022044558
000160 08 51 96 3d f7 78 d7 bd ec f9 75 3d 5d 22 c1 bc
       0.07339674 -0.10521119 0.060052797 -0.023575956
000170 41 63 c2 3d 90 73 4d be 86 10 c6 bd 53 0d c2 3d
       0.094915874 -0.20063615 -0.0967112 0.09475198
000180 5a 4f 66 bd aa 2b 3d be 78 97 4d bd 05 95 18 bc
       -0.05622802 -0.18473688 -0.05019328 -0.009312873
000190 3c 63 85 3d 1a 24 2e 3e a9 f3 1b be 96 81 01 be
       0.06513068 0.17005959 -0.15229668 -0.1264709
0001a0 a7 49 c2 bd d3 c3 f6 3d 7e 2b b9 3c c9 86 de bd
       -0.09486704 0.12049069 0.022603747 -0.10865552
0001b0 06 73 69 3e bc 43 ab be ff 72 4e bd af e0 06 bd
       0.22797784 -0.33450115 -0.050402638 -0.03292912
0001c0 d0 cc 2a 3e d4 11 a0 bd fc de 53 3d 13 b6 98 be
       0.16679692 -0.078159004 0.051726326 -0.29826412
0001d0 0d 34 de bd bf 3b ac 3d 4f 7b 13 3e 3c 2f 2a 3c
       -0.10849772 0.08409833 0.14402507 0.010387238
0001e0 03 a3 fc bd 72 fd 37 bd 75 fc a2 3d a6 32 00 bf
       -0.123357795 -0.04491944 0.079583086 -0.50077283
0001f0 21 9e 33 be 3e 5c 3f be c8 04 73 bc e7 42 86 3d
       -0.1754079 -0.18687531 -0.014832683 0.06555729
000200 61 31 13 be 6a bb 15 be b0 29 9a bc d9 c9 13 bd
       -0.14374305 -0.14622274 -0.018818706 -0.03608117
000210 fc 03 85 3d fb 04 d7 bd 97 38 79 3e 98 ed 31 39
       0.064949006 -0.10498997 0.24337994 0.00016968546
000220 0a ab 0b 3e 1e 0d 53 3e 10 e2 09 bd 62 d3 9e be
       0.13639465 0.20610473 -0.033662856 -0.31020647
000230 2c b5 8c bd 6d e2 33 3d 94 26 20 bf 18 dc 41 3d
       -0.06870493 0.04391711 -0.62558866 0.04732904
000240 53 5f 89 3d 77 55 47 3e 40 3a 91 3d 3d 7a d0 3d
       0.06707635 0.19466196 0.070911884 0.10179565
000250 49 7c e4 bc b0 67 1a ba 8d 8a 6b 3d 09 dd 84 bd
       -0.027891295 -0.00058900844 0.05750518 -0.064874716
000260 5a 89 10 be f3 8e 85 bd 2f d4 ba 3d c4 11 ba 3c
       -0.14114895 -0.06521406 0.09122502 0.02271355
000270 23 32 5c 3c f3 2d 92 bc 80 1d 97 3d fb ab 22 3d
       0.013439688 -0.017844176 0.073786736 0.039714795
000280 11 33 b8 3c 5a d0 45 bc ab 3d 80 3c db 92 49 3e
       0.022485288 -0.012073601 0.015654406 0.19684927
000290 99 ae 37 3e 5c c2 7d 3e db b4 e0 bc 30 a0 fa bd
       0.17937697 0.24781173 -0.027429989 -0.122375846
0002a0 13 a6 c6 3c f4 f5 a3 3c ec b7 0c 3d af 4b 56 bd
       0.024249112 0.02001474 0.03435509 -0.05231827
0002b0 97 ba 82 3d 88 7c ae 3e ee 4f 4a be 57 e2 90 3d
       0.063832454 0.34079385 -0.19757053 0.07074421
0002c0 73 02 27 bd 98 ef 00 3d 6d dc cd 3d f1 c4 03 bd
       -0.04077382 0.031478494 0.100518085 -0.03217024
0002d0 dc 6a 07 3e de 97 03 3e d9 78 8e be 48 a1 37 3e
       0.13224357 0.12850901 -0.27826574 0.17932618
0002e0 21 a9 65 be 38 55 38 3e 3a de 93 3d 3a 58 31 be
       -0.22427799 0.18001258 0.07220121 -0.17318812
0002f0 e7 0d bb 3b 4f ba 25 3e 24 79 4e 3c 3c ed 20 3d
       0.0057084444 0.16184352 0.012602124 0.039288744
000300 8b 14 84 3d ea c8 08 bd 9b 2f 82 bb 5b 2f c5 3d
       0.06449231 -0.03339473 -0.00397296 0.09628173
000310 c6 8b 92 be 70 dd c9 bc 80 a2 2c bd a7 d0 0d 3d
       -0.28622264 -0.024641722 -0.04214716 0.034622815
000320 c4 91 a9 be ac 9a 55 be fd 1f 21 3e 5c 4f ad bd
       -0.33119023 -0.20859784 0.15734859 -0.08462402
000330 18 1f c5 bd 25 e2 85 bd 70 cb 39 3e 91 90 6e 3d
       -0.09625071 -0.06537274 0.18144011 0.058243338
000340 cf ff 19 3d a3 8d 31 3e b2 e6 c9 bd a9 c6 5a 3c
       0.037597474 0.17339186 -0.09858455 0.013353028
000350 51 93 a9 bd e1 71 be bd ab 7e 3f 3b 40 6d 30 3e
       -0.082800515 -0.092990644 0.0029219787 0.17229176
000360 60 9c 7c bd 07 ae c5 bc dc 8e a0 bc 2a 58 26 3d
       -0.06167257 -0.024130834 -0.01959937 0.040611424
000370 8a a2 85 bd 5d d3 f7 bd 76 bf 23 be 81 8a fa bc
       -0.065251425 -0.12100861 -0.15991005 -0.030583622
000380 a8 31 89 be 54 57 16 bd bd ba 7a 3d 9e 70 1a 3e
       -0.26795697 -0.036704376 0.061213244 0.15082023
000390 22 43 41 3d 52 ad de bd 02 3e 34 bd 36 be f9 3d
       0.047183163 -0.10872902 -0.044004448 0.12194483
0003a0 8d 26 97 bd c2 6a be bd 58 51 25 3d 25 94 73 3d
       -0.073804 -0.09297706 0.04036078 0.059467454
0003b0 bc ac 29 3c 52 05 ab 3c 59 80 4c be 56 1e f8 3d
       0.0103561245 0.02087656 -0.19970836 0.12115161
0003c0 40 65 28 3d ff cd a2 3d fb 22 91 3d 0c df 87 3e
       0.041112185 0.07949447 0.0708675 0.2653736
0003d0 ed 53 df 3c 7c dc 3f 3d ee e1 61 be 72 57 e5 3d
       0.027261699 0.04684113 -0.22058842 0.111983195
0003e0 18 df 48 3e d0 bf b5 3d dd e6 57 3d 01 cb 4b 3e
       0.19616354 0.08874476 0.052710403 0.19901659
0003f0 e1 48 8c 3b 1b 24 d7 bc e7 03 09 3c 63 af 0d 3e
       0.004281149 -0.026262334 0.008362747 0.13836436

fc2.bias f4 [128]
000000 f3 7f 3a bd 95 1f f3 3b fe f1 68 3d 15 cf 88 bd
       -0.045532178 0.0074195364 0.056871407 -0.06680123
000010 63 1e b0 bd 0d 6c ec bd 3b 99 ae 3d dc 92 d0 3d
       -0.08599546 -0.115440466 0.0852532 0.10184261
000020 26 c5 0c bd 26 a7 dc bd 60 31 c8 3d 45 05 37 3d
       -0.034367703 -0.107740685 0.097750425 0.04468276
000030 1c e0 92 bc 8d 2d 88 bc 9a cc 8f bd a7 81 81 3d
       -0.01792913 -0.016623283 -0.070214465 0.06323557
000040 d0 9d 40 bd 82 a3 55 bd 00 03 8b bd 18 56 94 3d
       -0.0470255 -0.052157886 -0.067876816 0.072429836
000050 87 85 32 3e 2f 44 5f 3d 90 29 46 be 48 0f fc 3d
       0.17433749 0.054508384 -0.19351792 0.12307602
000060 62 c5 a3 bc 40 c4 af 3c 2e d3 67 bd d2 b2 cd bd
       -0.01999158 0.021455884 -0.05659788 -0.10043873
000070 51 a6 a9 3d 74 77 86 3c 0c 7b 6e bc 95 e9 ff bc
       0.082836755 0.016414382 -0.014555704 -0.03123931
000080 44 2c 16 3b 5a d7 84 bd ee d0 50 3d c5 a8 9a 3d
       0.0022914568 -0.064863876 0.0509805 0.075517215
000090 8b 94 3f 3d 4b 1b 46 bd af 78 3b 3d 77 97 db 3c
       0.04677252 -0.048365872 0.04576939 0.026805623
0000a0 00 75 9d bc 89 70 8b bd 2d ed 37 3c 8e 92 73 3d
       -0.019220829 -0.06808574 0.011225981 0.059465937
0000b0 f6 c5 de 3c 14 b7 e1 bd cb a4 ba 3d e5 34 d7 3d
       0.027194005 -0.110212475 0.09113463 0.10508136
0000c0 ee c2 43 3d 84 c3 8d 3d b7 6a 96 3d 8c 19 55 3d
       0.04779332 0.06922057 0.07344573 0.052026317
0000d0 89 7f f9 bc a6 87 0b be bb 8e 79 3c 6c 66 e0 3d
       -0.030456321 -0.13625965 0.0152317835 0.109570354
0000e0 67 96 17 bc cc 72 c0 3d 7c a4 1f 3d cc bc 93 3d
       -0.009252167 0.09396896 0.038975224 0.072137445
0000f0 c1 d0 b9 bd 79 39 0e bd 50 d9 a1 3d 28 c9 48 3d
       -0.0907302 -0.03472278 0.07902777 0.049019963
000100 0a 84 c4 bd 38 18 eb 3c aa 0b 35 3d 20 2c ca 3b
       -0.09595497 0.028698072 0.044200577 0.006169811
000110 10 2c 26 3d 74 dc 69 3c 92 8d 5b 3c 5a df c9 3b
       0.040569365 0.0142737515 0.013400452 0.006160659
000120 bf 85 05 bc c3 5a 69 3d 0d f0 64 bc dc 8e d7 3d
       -0.008149563 0.056971323 -0.013973248 0.10525295
000130 93 22 b2 3d 04 27 38 3d 42 dd 88 3d 74 e3 6f 3d
       0.08698001 0.044959083 0.066828266 0.058566526
000140 12 b3 c9 bd 96 85 d8 3c 7f a3 6f 3d 5f 03 89 bc
       -0.09848608 0.026430886 0.05850553 -0.01672524
000150 12 1f 17 3d 23 47 9f 3d 15 9c 97 bc 5b be 81 3d
       0.036894865 0.0777724 -0.018507043 0.063351355
000160 d2 a6 b6 3c db b3 ae 3c 73 55 8a 3c b6 87 66 3d
       0.022296343 0.021325996 0.016886448 0.056281768
000170 6f 1d ec 3d ff d4 45 bc 5a cf 5d 3d 84 eb d5 3c
       0.115290515 -0.012074708 0.054152824 0.02611328
000180 af a2 89 bd 01 15 16 3e 70 8d 14 bd ba bf 88 3d
       -0.067204826 0.1465645 -0.036267698 0.06677194
000190 19 2f e0 3d 9e 13 07 3d 83 42 3c bd 70 d1 59 bd
       0.10946483 0.032977693 -0.045961868 -0.05317825
0001a0 d6 19 ac bd e5 29 64 bd a4 c7 8a 3d 60 4c 17 bc
       -0.08403365 -0.055704016 0.0677636 -0.009234518
0001b0 b5 7f 68 bc c2 72 c7 3d 44 f7 87 3d 94 d7 d2 bd
       -0.014190604 0.09738685 0.06638959 -0.102950245
0001c0 00 0c 95 3b c5 5c aa 3d c2 00 fd bc 22 d6 6f bd
       0.0045485497 0.08318476 -0.03088415 -0.058553822
0001d0 df 09 5f 3c b6 d7 1b bc 34 81 d7 3c c1 87 31 3d
       0.013613193 -0.009511879 0.026306726 0.043342356
0001e0 c4 ca e6 bd 71 84 c7 3d 21 ac 80 bd 82 85 8c bd
       -0.11269143 0.09742058 -0.06282831 -0.06861402
0001f0 28 30 d8 bc cf 97 de 3d 83 92 2b 3b 97 85 74 3a
       -0.02639015 0.10868799 0.0026179857 0.0009327768

fc3.weight f4 [4, 128]
000000 9d 7a d5 3d c9 95 5d be 88 ae f2 3c 5e 07 d6 3c
       0.10423777 -0.2163917 0.029624239 0.02612656
000010 7c 60 0b 3e 5e 37 b2 3e 7a ea 99 bb 58 23 8c be
       0.13611025 0.34807867 -0.0046971412 -0.27370715
000020 fc 23 bc 3d 8d 12 b0 3e a6 c2 58 3b 8a 26 0b be
       0.09186551 0.34389153 0.0033075004 -0.1358892
000030 aa df fa bd d0 c4 9e be 21 e0 0c 3f 95 79 30 be
       -0.12249692 -0.3100953 0.55029494 -0.1723388
000040 2f b1 f0 bd a6 00 63 be 10 04 1b 3e ec fa 0f bc
       -0.11752545 -0.22168216 0.15138268 -0.008787852
000050 8e 3c 8d be f7 22 41 3e 37 eb 13 3e e9 e0 27 be
       -0.27585262 0.18860994 0.14445196 -0.1639439
000060 c5 45 85 bd ba 46 11 be a1 da 21 3c d9 8f a5 3e
       -0.06507448 -0.14187136 0.009878785 0.3233631
000070 bf 0b d3 bc 52 34 74 be 3c 4e d2 39 56 e9 cb 3d
       -0.025762437 -0.23848084 0.0004011261 0.09956615
000080 19 7a 31 be 4f 20 a2 3e f0 0c 5b 3e f5 0a 6d bc
       -0.17331733 0.31665275 0.21391654 -0.014467944
000090 e1 76 10 bd fe f2 ce 3d 20 37 91 bd 8a a0 4e bd
       -0.03526962 0.10104941 -0.070905924 -0.05044607
0000a0 25 3f 90 3e 3a ca ac be 0a c3 5e bd a0 35 d0 be
       0.28173175 -0.33748037 -0.054385222 -0.40665913
0000b0 ec 7d bd bc 45 e5 82 3d 0c 1e 20 3d 07 d3 50 be
       -0.023131333 0.06391386 0.039091155 -0.20393
0000c0 13 43 32 3e c1 bb 22 3d 5a 9a 58 bc 76 dd 47 bd
       0.174084 0.039729837 -0.013220394 -0.048795186
0000d0 3c b6 12 3c d0 14 c3 bd 4b 14 21 3e a9 80 36 be
       0.008954581 -0.09525454 0.15730397 -0.17822517
0000e0 13 f5 37 3d 30 58 9e be c7 4f f7 3e 0b 89 72 bd
       0.044911455 -0.30926657 0.48303053 -0.059212726
0000f0 88 5e 98 bd 7b d9 3a bd 1d 5d e8 3c d4 b9 ab 3d
       -0.074399054 -0.04561756 0.028364712 0.08385053
000100 2d 52 be 3d d9 16 0b bd 95 3d d6 3e af 1e 30 3e
       0.092930175 -0.033957336 0.41843858 0.17199205
000110 33 d9 22 3d f6 37 94 3e ef 84 2c 3e a2 9d 10 3e
       0.03975792 0.28948945 0.16847585 0.14122632
000120 08 e2 94 3c 1a 6f f3 be a8 f0 1c 3e 91 90 9c be
       0.018174186 -0.475457 0.15326178 -0.30579045
000130 6c bb 0c 3e df 05 0f bc 7b 5d 28 3e bc c8 3b be
       0.13743371 -0.008729427 0.1644191 -0.18338293
000140 6c df ad 3d e6 a5 33 be e2 55 cc 3e a6 3d 87 be
       0.0848988 -0.17543754 0.39909273 -0.26414222
000150 1c 5e af 3d 54 06 0c 3e 1f db 8f 3c 48 90 54 bd
       0.08562872 0.13674289 0.01756054 -0.05189541
000160 fb da 48 3d 0b 78 1f 3e 05 18 a3 bc af 15 f8 3c
       0.04903696 0.15573137 -0.019908914 0.030283777
000170 d6 9e 1d be 18 8f 74 3a 0e f3 00 be e3 59 12 3e
       -0.15392622 0.0009329184 -0.12592718 0.14292102
000180 f0 a9 8d be c4 4b d9 bd 71 03 eb bd ee 44 0c be
       -0.27668715 -0.10610154 -0.11475266 -0.1369817
000190 f3 8a 25 3e b4 9b 0c bd f7 24 25 3e d9 0c 24 3e
       0.16166286 -0.034328178 0.16127382 0.16020526
0001a0 af a7 9f be 4d 6d 8e 3d 8b 6d 99 3d b3 94 85 be
       -0.3118262 0.06954441 0.07491597 -0.2609001
0001b0 a0 98 86 bd 95 63 5e be 72 74 e5 b9 e4 a8 0a bf
       -0.0657208 -0.21717675 -0.00043765042 -0.54163957
0001c0 d1 6e 9b 3d 66 b4 bc bd be b8 fe 3c f4 a4 7a bc
       0.07589496 -0.09214096 0.031093951 -0.015298117
0001d0 27 0b 1f be 48 e2 b1 bc cc 02 9d 3d ad bd 6f bd
       -0.15531598 -0.021714345 0.07666549 -0.0585305
0001e0 bf b2 a6 be c5 8c 4f 3d c0 52 06 bf 1f 63 08 bf
       -0.32558247 0.050671358 -0.52470016 -0.53276247
0001f0 f6 63 bb 3c 36 0e 86 3d 8a 72 3c 3e fb 70 88 3e
       0.022874814 0.06545679 0.18403068 0.26648697
000200 0f 4c b3 bd f3 c8 6d 3d 07 6c 7e bd 26 7b 4d 3e
       -0.087547414 0.05805297 -0.06211474 0.20066509
000210 57 2c 60 bd 1e 0a 92 be 7b f2 0a be f2 de 2c 3e
       -0.054729786 -0.28523344 -0.13569061 0.16881922
000220 0e d6 60 be 43 9b b0 bd 99 99 45 3d 2a 83 2a 3e
       -0.21956655 -0.08623364 0.048242185 0.16651598
000230 6f e2 10 bd f6 63 0f 3e d7 29 7d 3d 4c b4 a0 3b
       -0.035372194 0.14002976 0.06180748 0.0049043056
000240 b0 39 86 3e 14 b3 28 3c 31 f2 3b 3d 98 1a 04 3f
       0.26215887 0.010296602 0.04588527 0.5160308
000250 4b 6e ab 3d 53 d2 96 3e b3 a5 2a be 74 15 9a 3c
       0.08370646 0.2945734 -0.16664772 0.018809058
000260 0f e5 35 be e0 89 df bd 11 cc 4f 3e c0 31 af bd
       -0.1776316 -0.109149694 0.20292689 -0.08554411
000270 45 50 1b 3c 73 b2 d8 3e 1f a3 b7 bd bb 1f 6f 3d
       0.009479587 0.42323646 -0.0896666 0.05837987
000280 20 40 7e 3d 65 fd 68 3d 01 06 6c 3e bb 60 f3 3e
       0.062072873 0.05688228 0.23049165 0.47534737
000290 16 63 50 3a 56 db 46 bd 16 58 3f 3c 0c 90 3e be
       0.0007949335 -0.04854902 0.011678716 -0.18609637
0002a0 29 1a 1d be 64 23 2b 3e 93 6d 1b 3d da e5 2e be
       -0.1534201 0.16712719 0.037946295 -0.17079869
0002b0 f5 c5 ba 3d 61 73 d6 bd 5c ff fc bd ad f1 bb be
       0.091197886 -0.104712255 -0.123533934 -0.3670782
0002c0 9e f2 f8 3e f7 18 1a 3e 91 37 79 3e 22 e6 e2 be
       0.48622602 0.15048586 0.24337603 -0.44316202
0002d0 b6 a6 4e 3e d8 dd df 3d c7 d5 ae ba a6 2a 38 3e
       0.20180783 0.10930985 -0.0013338857 0.17985019
0002e0 c1 42 85 3e d1 01 f4 bd 57 97 03 3d 4b ea a3 be
       0.26027492 -0.11914409 0.03212675 -0.3201469
0002f0 c8 50 fe be 6f 39 6d 3e 0d 6f 39 bf 9f 0f 0f 3c
       -0.49671006 0.2316644 -0.72435075 0.008731752
000300 b1 f8 d5 bd cc d9 d9 3e d3 f9 a2 3d ec c7 59 3e
       -0.10447825 0.42548978 0.079578064 0.2126767
000310 19 3e c1 bd e6 9f 4e be 49 e8 cc 3e d1 ee 41 bd
       -0.09435672 -0.20178184 0.4002097 -0.047346894
000320 ec 12 af 3c a9 c9 2b 3d eb 93 e2 3e 60 79 46 3d
       0.021371327 0.041940365 0.44253477 0.048455596
000330 91 37 31 be b6 ef e8 3c 4f 6a 93 3e 5b b1 8d 3d
       -0.17306353 0.028434616 0.28792045 0.069185935
000340 1e 89 aa be fe 62 90 3e f1 5e b8 3e 48 0c c7 3d
       -0.33307737 0.28200525 0.36009935 0.09719139
000350 e5 d5 06 3d d2 cd ae bb 29 f6 e2 bc 66 a1 91 be
       0.03291883 -0.0053345943 -0.027705269 -0.2844345
000360 c7 62 fe be f6 1f 79 3e 10 0e 4c bc 07 6e 49 be
       -0.49684736 0.24328598 -0.012454525 -0.19670878
000370 aa e0 c7 be 89 16 27 be 91 e4 19 bf 6c 3b fb 3d
       -0.39038593 -0.1631719 -0.6011439 0.12267193
000380 a6 98 02 bd f8 01 8b 3e 46 a5 fc be 46 53 a4 bb
       -0.03188386 0.2714994 -0.49344844 -0.00501481
000390 5b 18 a1 be ec c2 90 be 60 12 ae be 04 a1 14 be
       -0.31463894 -0.28273714 -0.33998394 -0.14514548
0003a0 ac d0 33 3e c5 10 18 be 37 2f 8f 3e 7b a9 b1 3e
       0.17560071 -0.14850147 0.2796571 0.34699616
0003b0 55 e1 ac be 29 62 55 3e 7c 70 bb bd 55 28 46 3d
       -0.33765665 0.20838226 -0.09152314 0.048378307
0003c0 8d 05 ed bc be 5d 77 3e 55 20 a9 be 14 81 a1 3d
       -0.02893331 0.24156854 -0.3303248 0.07885948
0003d0 86 a9 b4 3d 3c 3c 8d 3e 64 04 a1 bd ed 1e 92 be
       0.088213965 0.27585018 -0.078621656 -0.2853922
0003e0 0a 0e 45 3e 5d 9e cf 3d b8 56 ae bd 0e e8 b7 bc
       0.19243637 0.10137627 -0.08512634 -0.02244952
0003f0 c6 db 95 bd cf 4f 01 3c 61 99 b2 bd b2 04 df 3d
       -0.07317309 0.007892563 -0.08720661 0.108895674

fc3.bias f4 [4]
000000 60 43 9e bd 63 b5 86 3d a7 0d 76 ba 76 9b 62 bd
       -0.077276945 0.065775655 -0.00093861896 -0.05532404
