data/ContinuousControlCritic.pth (torch_old, 89507 bytes, 9 tensors)

fc1.weight f4 [128, 33]
000000 8e 79 75 3c f5 65 06 3b ec 1d 80 3d 6e 11 85 bd
       0.014982594 0.0020507548 0.06255707 -0.06497465
000010 78 6b 0b be 9d 45 b3 bd 84 94 7a 3d b4 7d 99 3d
       -0.13615215 -0.08753512 0.06117679 0.07494679
000020 28 03 dc 3c 1b e0 a6 3d ec b5 b2 3c b7 33 16 3d
       0.026856974 0.081482135 0.021815263 0.036670413
000030 f7 d2 03 bc 21 3f 53 3e df ce e2 3b 5f 7c 24 39
       -0.008045903 0.2062955 0.0069216336 0.0001568659
000040 35 95 05 bd 06 e3 67 3d 80 58 93 bc c2 3c a2 bd
       -0.032612998 0.05661299 -0.017986536 -0.07921745
000050 2d 69 92 3c 25 59 84 3d 65 de 02 bd 3f 27 3a 3d
       0.017872417 0.064623155 -0.031950373 0.045447584
000060 98 6c 9e 3a d5 e5 87 bd a1 de 4f bc 16 2d c3 3c
       0.0012086807 -0.06635634 -0.012687356 0.02382521
000070 e8 5d 33 bd 8d 9f 9e bd 10 90 d6 bc c0 7e 85 bd
       -0.043790728 -0.07745276 -0.026191741 -0.06518316
000080 e6 c4 b1 3e 09 fb 84 b9 b0 9b 09 bc 06 4c ae bc
       0.34720534 -0.00025364038 -0.008398935 -0.021276485
000090 4e b3 0d be 00 dc bc bc 22 16 b1 3c 47 67 84 bd
       -0.1383793 -0.023054123 0.021616999 -0.06465011
0000a0 b8 cb 19 bd 9e 8c 87 bc a4 ac 77 3c aa 77 c7 bc
       -0.037547797 -0.016546544 0.015116844 -0.024349052
0000b0 e8 39 03 3d a1 46 14 bc c7 06 bb 3d 61 19 ef 3d
       0.032037646 -0.009050042 0.09132152 0.116747625
0000c0 72 36 03 3c 49 ed 33 bd 50 15 ad bc 15 ca f0 bc
       0.008008586 -0.043927465 -0.021128327 -0.029393235
0000d0 b1 07 3f 3d 4b da 8b 3d d9 44 fa bd 0d 68 a8 bc
       0.046638194 0.068287455 -0.12220163 -0.020557428
0000e0 b8 49 8c bd 79 0a b6 3d f2 40 82 3c 51 a0 91 3d
       -0.06849998 0.08888716 0.015900109 0.07110656
0000f0 88 e9 9f 3d 42 85 21 3a 8b 32 a3 3d 25 33 3b bc
       0.078082144 0.00061615196 0.07968625 -0.011425768
000100 82 59 55 3d 9e 3d c7 be bf 26 8a bc 2d a5 19 3c
       0.052087314 -0.38914198 -0.016864179 0.00937776
000110 dc 29 37 b9 0e ca 8c bc 20 d6 84 bc 25 27 95 3b
       -0.00017467834 -0.017186191 -0.016215384 0.0045517855
000120 7a 1e 8a bd c6 49 03 3e d1 6d df bd a1 c0 bc bd
       -0.06744094 0.12821111 -0.10909618 -0.092164285
000130 4b 96 65 3d 61 bc 2e 3d 15 d9 28 bb ce e4 03 bd
       0.056051534 0.04266012 -0.0025764157 -0.032200627
000140 aa e9 25 bc 95 a0 7c bd 42 25 4f be d7 97 d3 3d
       -0.010126511 -0.06167658 -0.20229056 0.103316955
000150 e4 f4 2e 3c b8 28 43 3c 85 86 f0 3c c9 b2 77 bc
       0.010678504 0.011911564 0.029361019 -0.015118309
000160 2d 59 8c bc 28 0f d0 3d 00 f1 a7 bb 62 27 bb 3c
       -0.017132366 0.10159141 -0.005125165 0.022845928
000170 4a 38 a1 3d 20 aa 97 3d b2 4a 1c be 45 98 8a bd
       0.078720644 0.07405496 -0.15262869 -0.06767324
000180 1c c3 8f bd 5a c7 1f bd 18 80 87 3e 8d a4 08 ba
       -0.07019636 -0.039008476 0.26464915 -0.0005212508
000190 0e fc dc 3d 54 d4 87 bd 33 fa 0a bd 7a ce 9b 3b
       0.10790263 -0.06632295 -0.033930015 0.0047548385
0001a0 b7 4c 1f be 4f a2 ff bc 76 f2 a8 3d b0 42 9f 3d
       -0.15556608 -0.031205324 0.08249371 0.077763915
0001b0 46 ff d4 3d c0 56 ef bc 7d a3 23 bb c5 8c 03 bd
       0.10400252 -0.02921617 -0.0024969273 -0.03211667
0001c0 a0 77 74 3d 80 1b 74 bd 01 6a 99 bd c6 12 e4 3c
       0.059684396 -0.05959654 -0.07490922 0.027840983
0001d0 2a bc ed bb 19 24 f9 bc 75 72 31 3d 08 46 1c bd
       -0.007255097 -0.03041272 0.043322045 -0.038152725
0001e0 5f cf db bb 06 29 de 3b e2 8f 46 bd 5a d7 09 bc
       -0.00670807 0.0067797927 -0.04847706 -0.00841316
0001f0 6b 1f 5d bc ff 2c c7 bd e2 6e 88 3d a9 74 27 3d
       -0.01349626 -0.09725379 0.06661774 0.04088274
000200 80 7c 6f 3c 74 fe 4e 3b 22 84 51 3d 5a c4 6d 3e
       0.014617085 0.0031584771 0.051151402 0.23219433
000210 2f 9f a9 3d 9e 80 05 bd c7 d4 d2 3d c0 b0 64 3d
       0.08282315 -0.032593362 0.1029449 0.055832624
000220 d9 ca 18 3e 20 c9 10 3d 5e 93 85 bd 32 d3 e5 3d
       0.1492113 0.035348058 -0.06522249 0.11221923
000230 c8 8d f7 bd 07 dd be 3d 57 d3 24 3c 27 88 37 3b
       -0.120875895 0.09319501 0.010060153 0.0028004737
000240 61 c0 cb bb 46 fd 27 3d 0f a1 0b 3e 47 c9 36 3d
       -0.0062180017 0.041013025 0.13635658 0.044625547
000250 c2 32 21 3d 6e 53 28 bb e8 49 5b 3d 02 86 bd bc
       0.039355047 -0.0025684494 0.05353728 -0.023135189
000260 ce bf 65 bc ea 47 93 3b be f7 3b 3d a7 44 88 3c
       -0.014022781 0.004494657 0.045890562 0.016634298
000270 6c 52 2f 3c 5a 4f ba 3b ca d0 fc bd 66 1c 1a 3d
       0.010700803 0.005685729 -0.12344511 0.03762474
000280 d4 d5 f0 bc f8 f4 32 3c de 60 40 3d be dd 09 bd
       -0.029398836 0.010922663 0.04696738 -0.033658735
000290 a3 10 8c be e6 12 46 3e b2 39 a3 3d 06 a4 80 bc
       -0.27356443 0.19343147 0.07969989 -0.015703212
0002a0 e2 50 9a 3d dc ef 4c bd 48 a9 d3 3c e3 72 2b 3c
       0.075349584 -0.050033435 0.025837556 0.010464403
0002b0 d5 23 66 bc 8f 22 16 3d 36 7a 1c 3e 50 f7 9e 3c
       -0.014046629 0.03665405 0.15280995 0.019405037
0002c0 b9 48 04 3d d7 9e 3c bd 14 03 a0 bd a8 b7 b6 bd
       0.032295916 -0.04604992 -0.07813087 -0.089217484
0002d0 79 10 98 bc 1c 54 0a bd 8e 9a b5 3d 68 63 bf 3b
       -0.018562542 -0.03377162 0.088673696 0.0058407076
0002e0 a1 0f cb bc 7a 26 4d 3c 28 85 da 3c 57 aa aa 3c
       -0.024787726 0.012521381 0.026674822 0.020833177
0002f0 f3 c5 12 be 8b c5 35 bb ef 06 50 bd f7 e1 29 3c
       -0.14333324 -0.0027736153 -0.050787862 0.010368816
000300 19 5f 6a 3d d2 ca 91 bd a8 58 d2 3c 38 a4 5f bc
       0.0572196 -0.07118763 0.02567704 -0.013649993
000310 d6 49 6e bd e7 dc d8 bd e4 e6 90 3d 08 32 3a bd
       -0.058175884 -0.10589009 0.07075289 -0.04545787
000320 85 b6 11 3e cf 82 86 bd 20 29 a9 bd 45 e6 70 3d
       0.14229782 -0.065679185 -0.08259797 0.058813352
000330 01 3b 31 bd 4d 9b 4b 3d ff 2a d7 3d cc 3b 5f bc
       -0.04326916 0.049708653 0.10506248 -0.0136250965
000340 76 cc 9d 3d 8f 3d 95 3d ed cb 85 bd 57 5b 1e 3d
       0.077050135 0.07287132 -0.065330364 0.038661327
000350 22 e1 d6 bd 4e 13 36 3b fc 96 ed 3d a5 60 e0 3c
       -0.104921594 0.0027782503 0.116010636 0.027389834
000360 e1 d0 c5 bd 09 8f 73 3d 0d a1 06 be ee 63 e1 bd
       -0.09658981 0.05946258 -0.13147373 -0.11005388
000370 98 96 0e 3d 77 75 0c 3d 5d 6c f0 3c 2b 40 81 bc
       0.034811586 0.03429171 0.029348547 -0.015777668
000380 16 31 6e bc d7 ab e2 bc 7f ab 7a bd e1 56 ae 3d
       -0.01453807 -0.02766983 -0.061198708 0.085126646
000390 4a 3e b1 bd 68 f6 6d bd d4 7d c9 3c 05 a5 09 3e
       -0.08654459 -0.05809632 0.024596132 0.13441856
0003a0 91 84 f5 bd c8 6f 86 3d 24 56 d4 3d f3 41 07 bd
       -0.11988176 0.06564289 0.103679925 -0.03302188
0003b0 b2 38 28 3d 5c 14 c2 3d 77 eb ac bd 56 dc e4 3d
       0.041069694 0.094765395 -0.08443349 0.11174838
0003c0 c0 fa e5 3d ba a6 ce 3c dc 29 a4 bd 6a 1c 81 bd
       0.112294674 0.025225986 -0.080157965 -0.06304248
0003d0 f7 2d 4d bc 1e ac 2c 3d 10 23 61 bd b6 4c 19 3e
       -0.012523166 0.04215633 -0.05496508 0.14970669
0003e0 69 c7 41 be ac b1 ad 3d cd 85 93 3d 08 0b 02 bd
       -0.18923725 0.08481154 0.07203255 -0.0317488
0003f0 b2 ad 14 3c f2 e2 7e 3d 48 1b ae bd 75 43 bd bd
       0.009074615 0.06222815 -0.08501297 -0.09241382

fc1.bias f4 [128]
000000 65 05 04 bd d0 b0 11 3e c9 43 db 3d 7a 94 84 3d
       -0.032231707 0.14227605 0.10706288 0.06473632
000010 33 41 a0 bd 4c 12 68 ba 8a 57 fb bd 87 33 d6 bc
       -0.07824936 -0.0008852824 -0.12272556 -0.026147617
000020 d5 05 2a 3e 15 3a 8d 3c 16 b5 3c be 60 fb 1a be
       0.16603787 0.01723961 -0.18428454 -0.15134954
000030 c7 9f 1c be a9 b6 29 3e 6c f8 d2 b9 de 5b d4 bd
       -0.15295325 0.16573586 -0.0004023941 -0.10369085
000040 60 2c ba bd 0f c7 8e 3d 45 38 4a be 5d 68 0c 3e
       -0.09090495 0.06971561 -0.19748028 0.13711686
000050 50 d7 b7 3d fd 4e 18 be cd ef d8 bd 7c a7 fd bd
       0.089766145 -0.14873882 -0.10592613 -0.12385461
000060 83 fa 17 3d 9d d1 37 3e 42 96 d3 3d d4 28 73 bd
       0.03710414 0.17951055 0.10331394 -0.05936511
000070 a3 29 5e bd 47 1e f8 bd 36 88 a0 bd d0 9c 8c 3c
       -0.054238927 -0.1211515 -0.0783848 0.017164618
000080 7a 73 26 3e 59 f3 a0 bc 3a 9e e9 bc 02 6c 74 3d
       0.16254988 -0.019647287 -0.028517831 0.059673317
000090 b9 9a 97 bd 2d 03 49 be 22 12 60 3d 20 3d 82 3d
       -0.07402558 -0.19630118 0.054704793 0.06359315
0000a0 90 13 e6 bd 26 d6 b4 bc cd 60 51 be 3d 6f 77 bd
       -0.112342 -0.02207477 -0.20447083 -0.06040882
0000b0 e1 70 a4 3d 99 27 05 be 90 28 7f bd 3c f8 80 3c
       0.080293424 -0.13003387 -0.062294543 0.015743367
0000c0 05 d2 bd bd ed 28 25 3e f6 d7 02 be 8e b7 b8 bd
       -0.09268574 0.16128893 -0.12777695 -0.09019385
0000d0 56 ad d3 bd c3 31 45 be 7a d5 cb 3d 64 27 4c bd
       -0.103357956 -0.19257264 0.09952827 -0.049842253
0000e0 5b ed 00 be 9f 28 85 3d 76 a3 0a be ef 24 6b bd
       -0.12590544 0.065018885 -0.13538918 -0.05740827
0000f0 e6 e3 d3 bd ae d5 c2 bd c3 be 0e 3c ab b1 b5 bc
       -0.103462026 -0.095134124 0.008712473 -0.022179445
000100 ca ac 8d bd d5 cd 03 bd 39 c1 5a 3d 3c d4 a3 bd
       -0.069177225 -0.03217872 0.053406928 -0.07999465
000110 c8 52 6d 3d 26 fb b9 3c 48 a1 99 bd b6 90 e0 3b
       0.057940274 0.022702765 -0.07501465 0.0068531884
000120 07 64 13 be ea 3d ba 3c 2a ae af 3d 04 8f 39 3c
       -0.14393626 0.022734601 0.08578141 0.0113256015
000130 4f 05 b4 bc b1 08 fb bd 32 72 03 bd 96 ef 17 bd
       -0.021975188 -0.12257517 -0.032091327 -0.03709372
000140 3a a8 7a 3d 0f 9e 77 bd 1e a5 ae 3c 58 81 a4 bd
       0.06119559 -0.06045347 0.021318968 -0.08032483
000150 5c 91 4d 3e 0e 46 0a be 40 fd 4f 3c 02 90 e8 3d
       0.20074981 -0.13503286 0.012694657 0.11355592
000160 fa c7 4a be 6a b5 0f bb 24 ba b7 3c 03 7d f5 bc
       -0.19802848 -0.00219282 0.022427626 -0.029966837
000170 72 08 27 3d 5c 08 0a 3e 0b ff cc bd f0 8e 34 3e
       0.04077954 0.13479751 -0.10009583 0.17632651
000180 fc 90 87 bd 73 47 1f bc 85 bc 06 3e c5 ec d1 bb
       -0.066194504 -0.009721625 0.13157852 -0.006406399
000190 14 a6 b0 bb c8 56 60 3d 89 a5 42 3e 3a 5b e8 bd
       -0.005390892 0.05477026 0.19008459 -0.11345525
0001a0 68 51 cd 3a 86 4d a5 bd 81 a1 ca 3d ac fb c4 3d
       0.001566452 -0.08071427 0.09894086 0.09618315
0001b0 b7 e1 c4 bd de 24 c6 3c 9b c6 9a 3d 25 b7 fb 3d
       -0.09613364 0.024187502 0.07557412 0.122907914
0001c0 53 4e fb bd ce 53 e5 3d 46 fb 7f bd 90 d5 67 be
       -0.122707985 0.11197625 -0.062495492 -0.22640061
0001d0 92 56 01 3d 61 76 bb 3d fe 2e 7b 3d 99 07 35 be
       0.0315767 0.09153438 0.061324112 -0.1767868
0001e0 ab 46 95 bd 40 43 50 be 9c 5a 2d 3e 8b 96 b9 bd
       -0.072888695 -0.20338154 0.16929096 -0.09061917
0001f0 84 27 54 bd 17 03 48 be 44 91 78 3d 52 af 75 bc
       -0.051795498 -0.19532429 0.06068541 -0.014995413

bn1.weight f4 [128]
000000 9a 1e 95 3e 49 4b 06 3f c8 54 45 3f e6 a0 10 3f
       0.2912491 0.52458626 0.7708249 0.5649551
000010 97 74 8e 3e a0 98 05 3f da 17 e8 3d de c4 23 3e
       0.27823326 0.5218601 0.11332674 0.15993068
000020 b8 19 e5 3e 3d a6 76 3e 4a 39 46 3f b7 b1 26 3f
       0.44746184 0.24086852 0.77431166 0.6511492
000030 dc e3 42 3f 12 2b ad 3e 59 ec c3 3e f4 b0 05 3f
       0.76128936 0.33821923 0.38266256 0.52223134
000040 5a eb f1 3e b0 bc 8f 3e 7c f5 60 3e 91 ff 57 3f
       0.47249871 0.28073645 0.21968645 0.8437434
000050 51 52 52 3f 5a 88 6d 3e e4 7c a5 3e 7b eb 5c 3e
       0.82156855 0.23196545 0.32321846 0.21574204
000060 d7 9b 76 3e 1f ee 3a 3f 4c cd 11 3f ab 58 c6 3e
       0.24082886 0.73019594 0.56953883 0.38739523
000070 98 36 3d 3f 72 2e 09 3f 9d 12 3f 3f eb a9 42 3d
       0.7391143 0.53586495 0.74637777 0.047525328
000080 1f 98 04 3f fd 0d 28 3e 3d 9f 4b 3e 76 74 bf 3e
       0.5179462 0.16411586 0.19884963 0.3739354
000090 60 f1 ed 3e b8 3f 3f 3e 45 b5 12 3f e8 25 db 3e
       0.46473217 0.1867665 0.57307845 0.42802358
0000a0 a6 1e 01 3f b2 06 0d 3f c0 c5 2e 3f 9a 49 76 3e
       0.5043739 0.5508834 0.6827049 0.24051514
0000b0 3a ca 2d 3e 91 3a 50 3e c1 1c 0b 3e 72 95 9d 3e
       0.16971675 0.20334841 0.13585187 0.3077808
0000c0 1e a9 56 3e fb 9d 95 3e 4d b2 1b 3f 80 e9 46 3f
       0.2096295 0.29222092 0.6081894 0.7770004
0000d0 b0 cb 55 3f e3 d4 4c 3f 13 bd c3 3e ae 3f 8d 3e
       0.8351393 0.8001234 0.3823019 0.27587646
0000e0 b1 ba ed 3e 91 fa 3d 3e 10 99 2e 3f c4 aa 9e 3e
       0.46431497 0.18552615 0.68202305 0.3098966
0000f0 da 6c ac 3d d2 97 a1 3d 75 eb 34 3e 84 f6 3b 3f
       0.08419199 0.078902856 0.17667945 0.7342303
000100 f9 ec 49 3f 22 c5 37 3f cc c6 b2 3e 86 59 73 3e
       0.78877217 0.71785176 0.34917295 0.23764619
000110 b7 ef b0 3e 51 ba 37 3e f1 a4 b3 3e 5f 33 e1 3d
       0.34557888 0.17942168 0.35086778 0.109961264
000120 53 ef 56 3f e0 0d d8 3d 90 6b 7c 3e 7e e0 3d 3f
       0.8395893 0.105495214 0.24650407 0.7417067
000130 02 74 68 3e 54 c0 0b 3f e5 4b 26 3f 42 e6 5d 3f
       0.22700503 0.54590344 0.64959556 0.8667947
000140 8b 86 1a 3f 80 c7 a6 3e bc c1 3f 3f 23 3f 0b 3f
       0.60361546 0.3257408 0.7490499 0.54393214
000150 8d bb 9c 3e cb 3d c6 3e cb 99 39 3f 3e a9 57 3f
       0.3061184 0.3871902 0.72500294 0.8424262
000160 59 d5 02 3f 43 56 34 3f 36 68 07 3f 4a 39 c3 3e
       0.5110679 0.70444125 0.5289339 0.38129646
000170 37 12 1b 3f 91 39 0a 3f bf b7 6b 3e fe bc 0e 3f
       0.6057467 0.5399409 0.23019312 0.5575713
000180 8f 82 b4 3e b4 8c 3f 3e 8f 63 1c 3f a2 9e 24 3f
       0.35255858 0.18706018 0.61089414 0.64304554
000190 d3 b3 09 3f 5b 44 b9 3e 25 8c 17 3f 3b 2d 3b 3f
       0.53790015 0.36184964 0.5919822 0.7311589
0001a0 9c 1f 22 3f 20 6f 1e 3f 21 6d 5a 3e e9 90 36 3f
       0.6332948 0.61888313 0.21330692 0.71314865
0001b0 e4 5f 05 3f 77 79 f3 3e e6 4f 43 3f 17 ea aa 3e
       0.5209944 0.47553608 0.7629379 0.3338172
0001c0 99 6a eb 3e b5 4d 62 3f 9d 8b 2c 3f 69 82 6b 3e
       0.45979765 0.8839982 0.6740053 0.22998966
0001d0 e3 1c 56 3f a4 b2 80 3f 1b 47 c9 3e ad 0b 32 3e
       0.8363783 1.0054517 0.39312062 0.17387266
0001e0 ad 02 01 3f 17 30 01 3f 18 ac 41 3f c5 43 89 3d
       0.5039471 0.50464004 0.7565322 0.06702379
0001f0 a2 67 1a 3f 02 ca e5 3e 6a dd ec 3e 30 50 2f 3f
       0.6031438 0.44880682 0.46262676 0.6848173

bn1.bias f4 [128]
000000 ce 26 7a be cd 2c 80 bc a8 44 bf bd 7f e2 ff bb
       -0.24428865 -0.015646363 -0.09339267 -0.007808983
000010 93 4f 45 3c 83 c6 bf bd a6 df 08 be ef e6 da 3d
       0.012042898 -0.09364035 -0.13366565 0.10688578
000020 ce 8c 3b bc 82 0b 2b 3b 42 12 99 3d 34 93 04 3d
       -0.011447145 0.0026099388 0.074741855 0.032366946
000030 b9 ff 1d be 10 e0 ba bd 47 6d 04 bd b8 66 b2 3e
       -0.15429582 -0.09124768 -0.032330777 0.34843993
000040 93 20 7d 3d 9d 77 f7 3d 03 d1 a3 bd b3 4d 58 bd
       0.061798643 0.12083361 -0.0799885 -0.052808475
000050 21 1f 1b 3e 86 2b da 3d cb b0 ae ba 51 1d ce 3d
       0.15148593 0.10652833 -0.0013327835 0.100641854
000060 f1 26 7e 3c 9b c1 c4 3c 18 76 1b be 18 d2 da bd
       0.015512214 0.0240181 -0.15181768 -0.106846035
000070 42 91 be bb 75 05 b7 bd 45 67 e9 bd cd d2 42 3e
       -0.005815656 -0.08936588 -0.1139665 0.19025727
000080 01 da 4b bd 76 3e 15 3e fc 86 2c bd 48 75 2b be
       -0.04976845 0.14574608 -0.04212092 -0.16743958
000090 76 0a c7 bb c3 d2 10 bd 3a b8 94 bd f5 f7 5d bd
       -0.006074245 -0.035357248 -0.07261701 -0.05419155
0000a0 71 23 b7 bd 03 6d 9c bd 05 30 55 3c 06 05 84 3e
       -0.08942307 -0.0763798 0.013011937 0.25785083
0000b0 de a9 06 3e 51 35 f5 3c 5c cb a5 3d 77 4e 39 bc
       0.13150737 0.02993265 0.08095428 -0.011310211
0000c0 b8 85 07 be ba 28 93 bd 87 94 2f be 0e 94 d4 bc
       -0.13234603 -0.07185502 -0.17146502 -0.025949504
0000d0 06 7e d4 bb ff 74 bf 3d c3 29 92 3c cf ce 77 bc
       -0.0064847497 0.09348487 0.01784218 -0.015124991
0000e0 49 5d 33 bd 5f 12 05 3e be b4 a0 bd a8 ff 02 be
       -0.043790136 0.1299529 -0.07846974 -0.12792838
0000f0 11 b5 31 bd bc ce ad bd a2 b5 62 be 2b 47 42 bc
       -0.04338557 -0.08486697 -0.221396 -0.011857788
000100 70 06 49 bd b7 b4 38 3e ef 42 01 3e 56 55 fa bd
       -0.049078405 0.18037687 0.1262319 -0.12223308
000110 af f5 97 3d 31 a4 bb bc af f3 58 3e 3c 5b e4 bd
       0.07419907 -0.022905441 0.21186708 -0.11150214
000120 56 39 2a bd 6f 15 7f 3d ac bb a2 bc 34 e4 92 bd
       -0.041558586 0.0622763 -0.01986488 -0.071724325
000130 79 36 75 bc 71 a4 c6 bd 73 1f 2a be 6d 7c 9c bc
       -0.014966601 -0.096993335 -0.1661356 -0.0191023
000140 f8 fe 43 3c 3c 05 a3 3c 86 0a ac bd a2 0b e4 bd
       0.011962645 0.019899957 -0.08400445 -0.11135031
000150 95 06 4a be eb f6 5e 3e 6f a1 b2 bd 9d f5 2a bd
       -0.19729073 0.21773879 -0.08722197 -0.04173814
000160 e1 b3 ee bc 30 b3 e8 bd 4f b0 c9 bc c6 cf 33 be
       -0.029138507 -0.11362302 -0.024620203 -0.17559728
000170 75 41 31 be 2a 6f 35 bd 3a f0 86 bd fa 88 5e bb
       -0.17310126 -0.044295467 -0.06588788 -0.0033956156
000180 b2 39 89 3d 94 6c 9f bd 26 7c 1f be 0a 53 ab bc
       0.06700458 -0.077843815 -0.15574703 -0.02091362
000190 19 24 a8 bd 08 e1 16 3d 0a 90 ea 3d 70 a0 9c bc
       -0.0821001 0.0368357 0.114532545 -0.019119471
0001a0 c7 fb 68 bb 32 2e bb bc 04 3e 71 3c be e7 16 bd
       -0.0035550462 -0.022849176 0.014724258 -0.0368421
0001b0 48 08 77 bd 0b 14 6a bd e2 7f bd bb 30 1f 92 be
       -0.060310632 -0.05714802 -0.005783067 -0.2853942
0001c0 ac e9 2b bd 75 47 f5 bd 80 95 7a bd 61 1e 06 be
       -0.041970894 -0.1197652 -0.06117773 -0.13097526
0001d0 7b 35 6f bd 63 51 65 bc 17 e2 c1 bd 19 4b b8 3c
       -0.058400612 -0.013996455 -0.09466951 0.022496747
0001e0 8d 0a c3 bc 76 6c 68 3d 91 b7 cb 3d 92 f4 2c 3e
       -0.023808742 0.05674406 0.09947122 0.16890171
0001f0 2b e5 99 bd 3d 75 0c bd 8c e6 24 be e0 5f c7 3d
       -0.075144134 -0.034291495 -0.16103572 0.097350836

bn1.running_mean f4 [128]
000000 a2 a2 7e 3e 3b 57 59 3e 51 84 ef 3e 44 ae 28 3e
       0.24866727 0.21224682 0.46780637 0.16472727
000010 28 f6 05 3d c3 eb 99 3e a6 ba 86 3e 51 c4 d1 3e
       0.032705456 0.30062684 0.26314276 0.4097009
000020 03 c1 f9 3c 40 ae f1 3e 09 37 9b 3e a0 c1 c5 3d
       0.030487543 0.47203255 0.30315426 0.09656072
000030 2f ff 90 3e 7e b5 20 3f 99 38 54 3e 16 36 1f 3e
       0.2831969 0.62776935 0.20724715 0.15547976
000040 ba 0c 52 3e 80 68 09 3f c0 02 03 3e 14 5c 2f 3e
       0.20512667 0.5367508 0.12794018 0.17124969
000050 11 b8 6e 3f bc 37 20 3e 94 4c 87 3e 34 8c ae 3d
       0.93249613 0.15646261 0.26425612 0.085228354
000060 37 bd d3 3d e7 94 5a 3e 4a bf d7 3e 60 f5 09 3e
       0.10338824 0.21345864 0.4213813 0.1347251
000070 79 a0 fb 3d e1 23 9a 3d 6b ea 33 3e cd 68 a3 3d
       0.12286467 0.075263746 0.17569892 0.079789735
000080 04 05 b4 3e ea c1 7d 2a 5d 08 e3 3e aa b1 1f 3d
       0.35160077 2.2538191e-13 0.44342318 0.038987793
000090 07 8c ac 3e 97 47 01 3d 25 4f 4b 3d ad 0e 38 3e
       0.33700582 0.031562414 0.049636025 0.17974348
0000a0 1b 4b 78 3d d6 87 e4 3d e7 a8 96 3d 49 6f be 3e
       0.0606185 0.11158721 0.07356434 0.3719428
0000b0 c1 fe 7b 3e e2 df 3c 3e 16 1c 32 3c 17 cf 95 3d
       0.246089 0.1844478 0.010870954 0.0731489
0000c0 04 9d 25 3e b8 96 93 3d e0 e1 bf 3d d1 8b 68 3d
       0.16173178 0.07206482 0.09369254 0.056773964
0000d0 40 08 16 3d 00 40 0c 3e 1c 46 12 3e 53 84 e2 3d
       0.03662896 0.13696289 0.14284557 0.11060395
0000e0 4c d0 e7 3d 35 ae 9b 3e 5a 54 d5 3d 20 b0 55 3d
       0.11319026 0.30406347 0.104164794 0.05216992
0000f0 8c 8f 3b 38 16 10 81 3b 02 03 0c 3e f0 9d 21 3e
       4.4717963e-05 0.003938685 0.13673022 0.15782905
000100 88 61 de 3e e8 ec 9b 3e 6a aa 85 3e ee 2c c4 3d
       0.43433785 0.30454183 0.26106578 0.09578882
000110 30 e2 e0 3e 91 54 8d 3e af af 0f 3d 02 3f 57 3d
       0.43922567 0.27603582 0.035079654 0.052550323
000120 cf 75 81 3d 37 2f e9 3e 3b 08 72 3e 3d 13 de 3d
       0.06321298 0.45543835 0.23635952 0.10843513
000130 80 66 61 3a c7 cc 65 3d 2e f5 72 3e c6 d2 23 3e
       0.00085983425 0.056103494 0.23726341 0.15998372
000140 99 e0 c4 3e d7 ad 0c 3f 89 6a 96 3e 1d 3e 65 3d
       0.38452604 0.5495276 0.29378155 0.05596744
000150 4f b9 81 3e 6a 2f e1 3e 92 33 49 3e 2d 70 6b 3e
       0.25336692 0.43981487 0.19648579 0.2299201
000160 28 18 22 3d f8 86 e9 3e f5 bc eb 3e 72 d7 35 3e
       0.03957382 0.45610785 0.460426 0.17757967
000170 00 88 4a 3d a1 41 f3 3e df 85 6b 3c 3c 5e b3 3e
       0.049446106 0.47511008 0.014375179 0.35032833
000180 2b 0d 3c 3e 25 04 b9 3e 21 b9 c3 3e f0 44 26 3e
       0.18364398 0.36135975 0.3822718 0.16237235
000190 12 6b ee 3a 0c 9c 6e 3e 8e 07 06 3f d6 f6 b5 3e
       0.0018189868 0.23301715 0.5235528 0.35539883
0001a0 6e 86 f2 3d c0 40 ca 3e 23 b9 9a 3e 82 79 08 3e
       0.11842047 0.39502525 0.30219373 0.13327602
0001b0 49 e1 6d 3b 42 01 73 3d c6 2a b8 3d 00 75 e0 3e
       0.003629761 0.05932737 0.089925334 0.43839264
0001c0 1c a4 8d 3e 01 cc 1b 3f 70 c1 7b 3e 31 72 2d 3e
       0.27664268 0.6085816 0.2458551 0.16938092
0001d0 9a 95 30 3d 07 72 1a 3e 2f 4e 23 3e 95 72 93 3e
       0.04311142 0.1508256 0.15947793 0.28798357
0001e0 10 9b e8 3e 3a 40 d6 3c 4f 23 64 3f 4b 57 14 3f
       0.45430803 0.026153672 0.89116377 0.579457
0001f0 4d 9f 53 3d d5 e5 3f 3e 35 89 5f 3e b3 8e be 3e
       0.051665593 0.18740018 0.21829684 0.37218246

bn1.running_var f4 [128]
000000 40 6a 36 3e 5f 7c e5 3d 72 6b c0 3e 09 38 80 3d
       0.17813969 0.112053625 0.37581974 0.06260688
000010 2a 26 e0 3b 5f 4f 22 3e 71 16 bf 3d a2 49 1a 3e
       0.006840487 0.1585059 0.09330452 0.15067151
000020 7c 0b b8 3b 0c 7f 48 3e ba fb b6 3d 6a 0c d0 3c
       0.0056166034 0.19579715 0.08934732 0.025396544
000030 cb 92 e8 3d 71 06 c0 3e c2 b4 af 3d 1f 58 30 3d
       0.113561235 0.37504914 0.08579399 0.04305279
000040 8d 6b 95 3d 90 98 fd 3d de d2 6b 3d 18 86 91 3d
       0.07295904 0.123826146 0.057574145 0.071056545
000050 db 05 29 3e 27 ee 71 3d 4d fa 25 3e 07 75 15 3d
       0.1650614 0.05906501 0.16208763 0.03648856
000060 a6 f7 e4 3c 60 3e de 3d f8 74 78 3e c1 e6 58 3d
       0.02795012 0.10851741 0.2426337 0.05295444
000070 36 ed 41 3d f4 e9 9d 3c 23 78 a5 3d 25 51 d6 3c
       0.047345363 0.019276597 0.08079555 0.02616174
000080 87 c8 dd 3d fa f6 c7 29 2d be 9b 3e 64 cb 0a 3c
       0.10829263 8.880219e-14 0.3041853 0.008471344
000090 9c 89 22 3e b2 10 e9 3b 80 17 87 3c 5a aa e9 3d
       0.15872806 0.007112586 0.016490698 0.11409445
0000a0 58 ae 7e 3c af 84 1b 3d 17 45 f5 3c 2b e4 3b 3e
       0.0155444965 0.037968334 0.029940171 0.18348758
0000b0 9e fc 0e 3e e1 ff a1 3d 01 13 7a 3b 32 57 96 3c
       0.13963553 0.07910133 0.00381583 0.018352125
0000c0 d1 fa 8f 3d 6b 94 d0 3c 93 85 d6 3c b3 0d 27 3c
       0.07030261 0.025461396 0.02618674 0.010196137
0000d0 8a fe 01 3c ba 09 84 3d fb bb 5c 3d 5a f4 48 3d
       0.007934222 0.06447168 0.05389021 0.049061157
0000e0 6e e7 8b 3d c4 02 ff 3d 6a 45 0a 3d 46 c2 6f 3c
       0.06831251 0.124516994 0.033757605 0.014633721
0000f0 79 dc eb 36 2c 3a 7f 3a 2b 99 80 3d e8 45 77 3d
       7.029212e-06 0.00097361463 0.062792145 0.060369402
000100 a6 c2 be 3e f7 5d 1e 3e 25 1a 37 3e 03 a6 59 3d
       0.3725788 0.15465532 0.17881067 0.053136837
000110 51 2d f5 3d b2 8e 4d 3e bc af 23 3c 3f 38 b5 3c
       0.11971534 0.20073965 0.009990629 0.022121547
000120 fd 30 b3 3c 4b 60 df 3d c4 ad bd 3d 3b 67 fc 3c
       0.021873945 0.10907038 0.09261659 0.030810943
000130 6f b5 1c 39 4f 59 29 3c 0e da f4 3d 16 08 95 3d
       0.00014944909 0.010336234 0.11955653 0.07276933
000140 82 a2 35 3d f8 f1 d1 3e 6a 39 48 3e 70 2c a8 3c
       0.044344433 0.4100492 0.19553152 0.020529002
000150 67 98 cd 3d 01 61 8f 3e 8f 42 4a 3d d4 d5 89 3d
       0.10038834 0.28003696 0.04937988 0.067302376
000160 84 fe 1a 3c dd 26 77 3e 88 ef 0f 3e dc 33 ab 3d
       0.009460095 0.24135919 0.14056218 0.08359501
000170 d6 68 3f 3c 23 d2 0e 3e ba 48 2f 3b 98 76 06 3e
       0.01168271 0.13947348 0.002674623 0.13131177
000180 61 a1 73 3d 57 65 31 3e 89 97 77 3e fc f0 89 3d
       0.059480075 0.17323814 0.241789 0.06735417
000190 d6 9a 31 39 d0 e7 10 3e 5b 03 3f 3e 13 84 22 3e
       0.00016937716 0.1415093 0.18653624 0.15870695
0001a0 ce a1 8e 3c 42 9c b5 3d fe c1 68 3d 73 ee 6c 3d
       0.017411139 0.088676944 0.05682563 0.05784459
0001b0 4e 1c 97 3a 6e ea b8 3c e4 14 8e 3c 42 29 0f 3e
       0.0011528821 0.022572722 0.017343946 0.13980582
0001c0 57 b9 2c 3e 99 14 5d 3e dc ad 01 3e aa f8 99 3d
       0.16867577 0.21589889 0.12663978 0.07518132
0001d0 85 ca df 3b 5c 18 4a 3d c7 ff c3 3d 9e e8 00 3e
       0.006829562 0.049339637 0.0957027 0.12588736
0001e0 90 f6 e4 3d 50 a2 98 3b ed 36 ee 3d 9f 65 d0 3e
       0.111798406 0.004658021 0.1163157 0.4070253
0001f0 6c 4e 0d 3c 22 8a 84 3d ce d4 ba 3d 87 1c 2a 3e
       0.008624654 0.06471659 0.091226205 0.16612445

fc2.weight f4 [128, 132]
000000 81 ee 82 3d 8c f3 33 bd d6 f5 ef 3d 10 0d 87 bb
       0.06393147 -0.043933436 0.11716811 -0.00412143
000010 04 f6 1d 3c d6 4f 9b bd 98 3c 2d 3e 17 11 4d 3d
       0.009641174 -0.07583587 0.16917646 0.050065126
000020 7d 93 e1 bd da e8 b9 bd 75 36 48 bb 69 06 99 bd
       -0.11014459 -0.09077616 -0.0030550037 -0.07471926
000030 b4 03 40 3d a7 02 84 bc b1 fd 02 be 27 5f 0d be
       0.04687853 -0.016114546 -0.12792088 -0.13805829
000040 a9 81 d7 3a f0 ce c4 bb a2 65 e4 3a 35 23 7d 3c
       0.001644184 -0.006006114 0.0017425308 0.015450289
000050 80 87 d4 3d aa 98 f4 bc ca 36 28 3d 75 07 d4 bd
       0.10377407 -0.029857952 0.041067876 -0.10352985
000060 f5 c0 01 bd da c5 b4 39 72 22 c2 3d 09 74 a4 bd
       -0.03167816 0.00034479686 0.09479226 -0.080299444
000070 91 6b ab bd 8f 44 18 bd b3 24 22 3e d9 3d d3 bd
       -0.08370126 -0.037174758 0.15834312 -0.10314531
000080 9e 44 24 bc 88 b7 16 be 4f fa c3 3d 4a 84 4a 3d
       -0.010026125 -0.14718449 0.09569227 0.049442567
000090 ac 68 9d bd 5f e5 10 bd 06 99 ff 3b 08 e3 d1 3d
       -0.0768598 -0.035374995 0.0078002242 0.10248381
0000a0 31 1a b7 3d c1 49 d3 3d 14 dd ba bb 52 57 86 3c
       0.089405425 0.10316802 -0.005702624 0.01639906
0000b0 a3 e1 25 be db 97 23 be d8 6e bc bd 6e 12 68 bc
       -0.16199355 -0.15975897 -0.09200829 -0.01416455
0000c0 f5 26 fd 3d a3 17 79 bd 37 0f 86 3d 89 2e 54 3d
       0.12360946 -0.060813557 0.06545871 0.051802192
0000d0 c8 49 9e 3c 52 11 0c bc 3d 22 47 bd e3 dd 9b bd
       0.019322291 -0.008549051 -0.048616637 -0.07610681
0000e0 a1 11 82 3d f1 be c3 bd e6 0c 0a 3e 78 9f ee bc
       0.06351019 -0.095579036 0.13481483 -0.029128775
0000f0 d4 5c 8d 3d 54 a2 b5 3d 55 7e bf 3d 13 db a5 bc
       0.06902471 0.08868852 0.09350268 -0.020246064
000100 b6 30 d2 3c 26 07 3d 3d 0e 3a 20 be 2b 33 c8 bc
       0.025657993 0.046149395 -0.15647146 -0.024438461
000110 03 b0 3d bd 77 ef 23 bd 13 53 c4 bb 30 16 3e 3d
       -0.046310436 -0.040023293 -0.0059913485 0.04640788
000120 4f b8 f2 3c 4d 9d f9 bd bf bd ce bc 68 c4 8b 3c
       0.0296289 -0.12188206 -0.025236962 0.017061427
000130 f4 38 bf bc 72 97 9e 3c e5 1b b4 3b 03 09 96 3a
       -0.023342587 0.019359324 0.0054964893 0.0011446777
000140 7f e1 a8 3d 55 11 0d 3d 82 b2 f6 3d 8d e3 1d 3d
       0.08246135 0.034440357 0.120457664 0.038547087
000150 fc fb 28 3d 07 52 ef bd 08 1d 85 bd 04 98 3f 3c
       0.041255936 -0.11685567 -0.06499678 0.011693958
000160 b1 cc 30 3d ab ba be 3c 85 50 60 3d 96 7e 07 3d
       0.04316396 0.02328237 0.05476429 0.033079706
000170 e3 c6 0e 3d 3f d6 0a 3d 89 ad c0 3b 77 bc 69 bc
       0.034857642 0.033895727 0.005880062 -0.014266125
000180 9e 29 bd bc 0d 88 6f 3d 65 6c 0f bc 39 fc 42 bd
       -0.023091134 0.058479358 -0.008753871 -0.04760382
000190 bb a9 47 3d 75 dc 06 bd d8 de 44 3d 1f a1 9d 3d
       0.048745852 -0.032925088 0.048064083 0.07696747
0001a0 10 c4 68 3b a6 53 f7 bd 8a 1c 61 bb 0d 32 99 bd
       0.0035517253 -0.120765015 -0.0034349286 -0.074802496
0001b0 50 35 3f 3d 0a dc 97 3d f0 c1 06 3c 8c 33 03 3d
       0.046681702 0.07415016 0.008224949 0.03203158
0001c0 09 b5 0c bd 60 a5 63 bc 93 65 9b 3d 53 38 4d 3d
       -0.034352336 -0.013894409 0.07587733 0.050102543
0001d0 5f fe bc bc 80 cc 04 3c 67 f4 ed 3c ef c6 6a 3d
       -0.023070512 0.008105397 0.029047204 0.057318624
0001e0 45 f7 a7 3c ca e0 18 be ff ae 9b bc 80 9c 3f be
       0.02050365 -0.149295 -0.019004343 -0.18712044
0001f0 d4 99 b8 bd ac 59 4f bc b4 20 25 3d 9c 6d d8 bc
       -0.090137154 -0.012655657 0.04031439 -0.026419453
000200 85 22 1e 3c c7 ef 90 bd 8d aa 2f bc 3a 0e 29 3c
       0.009651785 -0.07076984 -0.010721815 0.010318333
000210 b9 ad 08 3e a8 1a 3f 3d ef 52 b4 3c 75 53 2e bd
       0.1334752 0.04665628 0.022012202 -0.04256006
000220 01 71 1d 3c 91 f6 68 bd d5 2e ed 3d f7 97 cb 3a
       0.009609462 -0.05687577 0.11581198 0.001553296
000230 f2 6a 85 3d d3 5d 31 bd 05 17 71 bd c7 09 95 3c
       0.06514539 -0.04330237 -0.058859844 0.018193139
000240 26 92 d2 bd 70 e2 ae bd f9 e5 99 3d a4 ab 19 be
       -0.10281782 -0.08539283 0.07514567 -0.15006882
000250 af 11 7d be 55 21 b4 bd ff fc a9 bc 79 a7 21 3c
       -0.24713777 -0.0879542 -0.02075052 0.009866589
000260 d6 48 dc bd 5b 8f 1b 3d 8b 86 2b 3d ae 3c 98 bd
       -0.1075608 0.03797851 0.041876357 -0.07433449
000270 50 f0 53 bd 9b c6 2b bd 93 ca b7 3b 10 39 7a 3d
       -0.05174285 -0.04193745 0.0056088655 0.061089575
000280 ba fe 98 bc 00 8d b5 3d ca 62 76 3d 45 ba cd 3c
       -0.01867615 0.08864784 0.060152806 0.025113234
000290 8c 7b 88 3c 5a 8e 95 bd 54 57 4b bc df d0 3b 3d
       0.016660474 -0.07302542 -0.012410957 0.045853492
0002a0 75 be b2 bd 13 3e 9c 3d ce 19 f3 bc ff 98 0a be
       -0.08727733 0.07629027 -0.02967539 -0.13534926
0002b0 21 f8 53 bd 92 3b 3d 3d 48 cd a9 3c 27 21 d7 bd
       -0.051750306 0.04619939 0.020727769 -0.1050437
0002c0 d7 41 93 bd 49 3c e4 bd 0b 73 93 bd d2 ce 94 bc
       -0.07190292 -0.11144311 -0.07199677 -0.018165026
0002d0 0a f1 9a 3d 20 ff bc 3c 73 46 5c bb 72 30 0c bd
       0.07565506 0.023070872 -0.0033611327 -0.03422589
0002e0 a6 1f 08 bc f7 b1 8f bd 71 96 9f 3c 2c e3 92 3d
       -0.008308327 -0.07016366 0.019480916 0.07172236
0002f0 44 88 cd 3b 7b 93 79 3c 9c 55 19 3d bd e7 6c 3d
       0.0062723476 0.015232916 0.03743516 0.05783819
000300 04 fc 97 bc 6c 31 f7 bd a1 8d 84 3d 4f c8 8d bc
       -0.018552788 -0.12069973 0.06472326 -0.017307429
000310 97 71 86 3c 58 45 12 be fa 96 19 be 74 71 3c 3e
       0.016411586 -0.14284265 -0.14998999 0.18402654
000320 89 c0 3a be 3a b7 3c bd 89 9a 3b be 99 57 36 bd
       -0.18237509 -0.046073176 -0.18320669 -0.044517133
000330 ea e0 f3 bc 4c e9 fb bd 09 6a 77 bd ce dd 22 bc
       -0.029770333 -0.12300357 -0.060403857 -0.009940578
000340 d0 df 01 be 27 88 9c bd 21 74 a6 3a 3a 55 6a 3c
       -0.12683034 -0.076431565 0.0012699404 0.014302546
000350 68 58 22 3c 42 65 e3 3b fd fc a2 3d 7c ef be bd
       0.009908773 0.006939561 0.0795841 -0.09323022
000360 06 ea 12 3d ad 2a 4f be 98 4e 19 3d e6 45 c9 bc
       0.035867713 -0.20231123 0.03742847 -0.024569463
000370 e7 43 05 3d b1 ef d4 bc bd 70 2f 3d 81 43 c5 3d
       0.03253546 -0.0259932 0.042832125 0.09632016
000380 c4 be 6d 3c b7 3b bf 3c 07 8d 45 be 48 ae e3 3c
       0.014510814 0.023343904 -0.19292079 0.027793065
000390 ae 0c c4 3d 6c bb 38 bb a1 fd 4e bc 33 10 95 3d
       0.09572731 -0.0028187884 -0.012633712 0.072784804
0003a0 d9 83 73 bc 74 cf 5f 3d 52 35 f7 bc d3 fd 04 3d
       -0.014862978 0.054641202 -0.030176792 0.03246863
0003b0 ef d5 4d bd 0a 22 4a 3a 9f 49 11 3d 75 ac 9f 3c
       -0.05025285 0.00077107607 0.0354706 0.019491414
0003c0 64 1d 3a 3d 9c 71 fc 3b 79 dd 12 bd dd a8 e0 3d
       0.045438185 0.007703973 -0.035855744 0.10969708
0003d0 ee 25 a3 3d 46 1d 37 3c 4c dd c2 3c fc 54 03 be
       0.07966219 0.011176413 0.023787163 -0.12825388
0003e0 b0 17 b7 3c 71 d5 a7 3c 82 69 77 bc bf 34 4d be
       0.022350162 0.020487519 -0.015100839 -0.20039652
0003f0 ee c5 04 bc 05 a5 1f 3c da 15 a5 bc 69 2f 33 be
       -0.008103831 0.009743934 -0.020152021 -0.17498554

fc2.bias f4 [128]
000000 c0 5f db bd cb 79 2d be 9f 1f 9f bd c0 b2 c3 bd
       -0.10711622 -0.16940992 -0.07769703 -0.09555578
000010 43 2c 07 be 6c c2 fd bc 22 44 ef bd 2a 65 0b be
       -0.13200478 -0.030976497 -0.11682917 -0.1361281
000020 64 2c cc 3d d2 27 ca bd 19 d7 d8 bd fe a5 15 be
       0.09969404 -0.09870876 -0.105879016 -0.14614102
000030 2d b1 26 be fd fb 06 bd fb c5 3b be 58 97 10 3d
       -0.16278525 -0.03295516 -0.18337242 0.035300583
000040 ff ea 11 be 66 76 1a bd c1 76 37 be 0c d2 22 be
       -0.142498 -0.03771057 -0.17916395 -0.15900439
000050 84 59 1f 3c dc a6 21 bd e0 dc 26 be 35 18 8d bd
       0.009725932 -0.03946577 -0.16295195 -0.06889383
000060 67 5e 85 3c 4a 00 90 bc 74 d5 2f bd 2d 45 11 be
       0.016280366 -0.017578263 -0.042928174 -0.14186545
000070 25 2f 9f bc b2 6a ff bd ed a3 cb bd e8 f9 2f bd
       -0.01943166 -0.124715224 -0.09943376 -0.04296294
000080 85 96 1d be cb 7a 5b bd 3b 9e 0d be b1 4a c6 bd
       -0.1538945 -0.0535839 -0.13829891 -0.09682215
000090 24 25 5b bd 1e f2 7b be a9 24 36 be 1e 8a d2 bd
       -0.053502217 -0.24604079 -0.17787422 -0.1028025
0000a0 53 39 be bb 43 45 0e 3e 76 6b 97 bd 96 84 3b bd
       -0.0058051734 0.13893609 -0.073935434 -0.04578074
0000b0 1e f5 40 be 96 eb 01 be 6d 43 47 3d 2c 2f c7 3c
       -0.18843505 -0.12687525 0.048648287 0.024314485
0000c0 10 4f a2 3c 35 4c 3d bd 65 22 8f bd fc 86 5c be
       0.01981309 -0.046215255 -0.06988982 -0.21535867
0000d0 84 e1 26 be 45 7f 43 be 9b 4b 20 3e 98 ac b8 bd
       -0.16296965 -0.19091518 0.15653841 -0.09017295
0000e0 d8 be fb 3d 14 6f aa bd 5b 08 26 be 01 be d9 3c
       0.1229226 -0.08321968 -0.16214125 0.026579859
0000f0 39 27 f2 bd 31 c4 3d be fb eb 0d be 37 a4 f3 bd
       -0.118238874 -0.18531872 -0.1385955 -0.11896556
000100 2d e6 b8 bd d8 ef e5 bd e5 42 bd 3d 77 99 b9 3d
       -0.090282775 -0.11227387 0.09241275 0.09062474
000110 4d ab cd bd 27 f8 73 3d 11 de db 39 6e 2a df bd
       -0.10042439 0.05956283 0.00041936387 -0.10896765
000120 50 2d 06 be d8 45 2a 3b 79 7f 58 be a6 e3 1f 3d
       -0.13103223 0.0025981572 -0.21142377 0.03903546
000130 9d e2 17 be 7a 50 1d bd 74 a7 9b bd 4f a0 50 be
       -0.1483254 -0.038406827 -0.076002985 -0.20373653
000140 5b c7 45 bd 16 ba 12 be 7c 7c 00 3e b5 6f 1d be
       -0.048285823 -0.14328799 0.12547487 -0.15374644
000150 8a a2 d0 ba 8b 5d 17 be 27 ee ab 3d 24 9f 00 be
       -0.0015917581 -0.14781778 0.08395033 -0.12560707
000160 ac a2 a9 3d fb bc 64 be 7e 50 e6 bd d2 64 04 be
       0.0828298 -0.22337715 -0.112458214 -0.12929085
000170 81 2d 8c bd 05 fe ac bd 1b c3 48 3d 75 bb b3 bd
       -0.06844617 -0.08446888 0.049014192 -0.08775989
000180 a3 2e 56 3d 17 14 50 be ee 11 26 3e e1 a3 37 be
       0.05229057 -0.20320164 0.16217777 -0.17933609
000190 1d b5 d9 3d 78 f8 05 be 6c 8d 93 3d 49 3e 03 be
       0.10630248 -0.13083065 0.072047085 -0.12816729
0001a0 5e b3 e8 3b c8 08 17 be 6a 79 8b 3d 2a f6 a0 3d
       0.0071014604 -0.14749444 0.06810267 0.07859452
0001b0 87 b3 42 3d 9a aa d9 3d 64 b5 fb bd 21 59 40 be
       0.047534492 0.10628243 -0.12290457 -0.18784
0001c0 86 b8 6e 3d 56 d5 86 3d ae 99 0b 3e 66 42 ca bc
       0.058281444 0.06583659 0.13632843 -0.024689864
0001d0 15 d6 aa bc e7 7b 79 bb 2e fe 09 be 3b 0f f7 bd
       -0.020854035 -0.0038068236 -0.13475868 -0.12063452
0001e0 2c aa 00 be 35 5f e1 bd b1 fc 88 bb 4a fc 15 3e
       -0.12564915 -0.110044874 -0.004180514 0.14647022
0001f0 35 43 d6 bd fc 47 17 3d 18 9d 06 be 5c 3a f9 bc
       -0.104620375 0.036933884 -0.13145864 -0.030423336

fc3.weight f4 [1, 128]
000000 4f 27 82 bd 5d 30 a9 bd ae 3a 11 bd cb a3 1a bd
       -0.06355154 -0.08261178 -0.035456352 -0.03775386
000010 e8 5a 2b bd ad b6 cf bc e4 f6 e1 bc d8 2a 23 3d
       -0.04183474 -0.025355661 -0.027583547 0.03983578
000020 0b 7f 40 3d d4 c2 1d bd e4 a6 68 3d 13 19 93 3d
       0.046996158 -0.03851588 0.056799784 0.07182517
000030 21 d9 84 bd 9f 82 02 3d 84 b8 21 3d db d6 25 3d
       -0.064867266 0.03186285 0.03948261 0.040488105
000040 2a e3 0d bd 8c f1 92 bc 8c 6c c5 bc 39 fa 36 bd
       -0.03464047 -0.017937444 -0.02409961 -0.044672225
000050 05 fe c2 3c bd 54 04 3d a1 87 81 bd bc 92 55 3d
       0.023802767 0.032307375 -0.06324697 0.05214189
000060 7c d9 49 3d 13 07 dd 3c d0 fe 80 3d 7a 8a 3c bd
       0.049279675 0.026980912 0.062986016 -0.0460305
000070 56 15 8d 3c a6 02 2e bd 50 a5 99 bc c7 2f f7 3c
       0.017222088 -0.042482994 -0.018755585 0.03017415
000080 69 22 0e bd 16 c4 3d 3d 72 60 2b 3d 79 09 0e bd
       -0.034700785 0.04632958 0.041840024 -0.034677003
000090 ee c6 01 bd ba 41 90 bd 16 ce 01 bd 20 35 92 3d
       -0.031683855 -0.07043786 -0.03169068 0.07139039
0000a0 0f 75 d0 3c 8b 7b 0f 3d 7a 78 46 3d c5 f5 00 3d
       0.025446443 0.03502993 0.04845474 0.031484384
0000b0 f2 6a 88 bd 6b c1 55 bd 66 b4 84 3d 30 24 34 3d
       -0.06661023 -0.05218641 0.06479721 0.043979824
0000c0 06 25 d4 3c d2 62 e6 3c 0f b2 1b bd ef cb 23 bd
       0.02589656 0.028123293 -0.038011607 -0.039989408
0000d0 0d a2 f9 3c 41 ae c7 bd 8d 06 74 3d a7 31 ca bd
       0.03047278 -0.09750033 0.05957656 -0.09872752
0000e0 e4 89 1e 3d d6 1d 15 bd ed ec 5f bd 2c e2 4a 3d
       0.03870572 -0.036405407 -0.05466931 0.0495321
0000f0 32 f6 3f 3d ae b6 13 be 99 06 30 bd 9c ed cd bc
       0.04686565 -0.14425156 -0.042975042 -0.025137715
000100 6d b9 1b bc 79 27 1e 3d 43 f2 3d 3d 49 81 03 3d
       -0.009504658 0.038611863 0.046373617 0.032105718
000110 6b 52 3c bd 4f 43 4c 3d e1 d4 30 3d f2 1d 85 3b
       -0.045977037 0.049868878 0.043171767 0.0040624077
000120 5c fa 20 bd e2 14 25 3d a2 ee bc bd 85 e3 20 3d
       -0.03930126 0.04030312 -0.09225203 0.03927948
000130 e7 d0 07 bd 9b e9 dc 3c 8c ec 6a 3d 86 2c 4d bd
       -0.03315821 0.02696686 0.057354495 -0.05009129
000140 77 03 ca bc 1b 32 0a bd c7 f5 6a 3d 66 f8 e8 bd
       -0.024659855 -0.03373919 0.057363298 -0.11375503
000150 c0 68 82 3d 42 06 8c bd 28 11 59 3d 50 ca 5c bd
       0.06367636 -0.06837131 0.052994877 -0.053903878
000160 b8 1c 07 3d 21 f6 8a bd 2d c1 ef bc 62 2c 26 3d
       0.032986373 -0.067852266 -0.029266918 0.04056967
000170 42 58 67 bd 59 fe a7 bd 7d 87 2f 3d 18 68 dd 3c
       -0.056480654 -0.0820281 0.04285382 0.027027175
000180 35 51 59 3d f8 0a bd bd 19 57 80 3d c4 86 4f bd
       0.05305596 -0.09230608 0.062666126 -0.050665632
000190 78 a4 3c 3d ba 45 5d bd e7 6c 1b 3d ed 56 5f bd
       0.046055287 -0.054021575 0.037945654 -0.05452626
0001a0 cf 0d 19 3d 4b ca 1d bd ee c4 dd 3c a8 84 33 3d
       0.037366685 -0.038523 0.027071442 0.043827683
0001b0 06 6e 55 3d e5 88 22 3d 5e aa a9 bc 35 84 3f bd
       0.05210688 0.039681334 -0.02071112 -0.04675694
0001c0 06 a9 5d 3d 65 6d 57 3d de 22 4c 3d 9d 92 dd 3c
       0.05411627 0.05259456 0.04983794 0.02704745
0001d0 9c 48 d7 3c 76 88 90 3d e8 9b 43 bd 69 c1 e4 3c
       0.02627974 0.07057278 -0.047756106 0.027924256
0001e0 d0 60 2b bd f3 c6 06 bd 79 5a 6d 3d 52 ae 51 3d
       -0.041840374 -0.032904577 0.05794761 0.051191635
0001f0 58 06 48 bd f2 81 14 3d e3 a0 37 bd c9 2b b3 3c
       -0.048834175 0.036256738 -0.044831168 0.021871464
