data/TennisActor1.pth (torch_old, 83368 bytes, 10 tensors)

fc1.weight f4 [128, 24]
0	0x3dc12297	0.094304256
1	0xbdd3322b	-0.10312303
2	0xbd96d398	-0.07364577
3	0x3d63b91a	0.05559645
4	0xbd02f45d	-0.031971324
5	0xbe9b9aec	-0.30391634
6	0x3d791487	0.060810592
7	0x3d37605c	0.04476963
8	0x3dae7721	0.08518816
9	0xbe3fc003	-0.1872559
10	0xbcaad9ac	-0.020855747
11	0x3cb62842	0.022235993
12	0xbda0b084	-0.07846168
13	0xbe0c0350	-0.13673139
14	0x3c006488	0.0078364685
15	0x3d86ba79	0.065785356
16	0x3e615223	0.22003989
17	0xbe3ac269	-0.18238224
18	0x3c948d5b	0.01813381
19	0xbd882d84	-0.066493064
20	0xbc619042	-0.013767304
21	0xbcab707c	-0.02092766
22	0xbb4b2d01	-0.0031002166
23	0x3c1c66a9	0.00954596
24	0x3d2a49e9	0.041574392
25	0x3da0eaf7	0.07857316
26	0xbd733ccf	-0.059384163
27	0x3d395683	0.04524852
28	0xbe511a56	-0.20420203
29	0xbbcaf457	-0.0061936784
30	0x3d62b287	0.05534604
31	0xbd1610db	-0.03663717
32	0xbb117ed1	-0.0022200833
33	0x3e3d5d51	0.18492629
34	0x3c114a94	0.0088678785
35	0x3d653474	0.055958226
36	0x3cf06726	0.02934606
37	0xbde0bb70	-0.10973251
38	0x3a1e70c0	0.0006044023
39	0x3d854d24	0.06508854
40	0x3d146853	0.036232304
41	0x3e6d3ba2	0.2316728
42	0x3c21ba2c	0.009871047
43	0xbc43ada2	-0.011943253
44	0x3ed9203d	0.42407408
45	0x3d685247	0.05671909
46	0xbc32dacc	-0.010916423
47	0xbd0ea851	-0.034828488
48	0xbe829817	-0.2550666
49	0xbd1f0824	-0.038826123
50	0x3ce5b0f0	0.028038472
51	0xbba4ed96	-0.0050332053
52	0x3e140eed	0.14458819
53	0x3de4f07b	0.111786805
54	0x3cadcc34	0.021215536
55	0xbdb604ab	-0.08887609
56	0xbdeda42d	-0.1160358
57	0xbdf59923	-0.11992099
58	0x3c107d8e	0.008818997
59	0xbe47504a	-0.19464222
60	0x3dd88b73	0.10573473
61	0xbd9612cd	-0.07327805
62	0xbd7d6f34	-0.06187363
63	0xbe6cea20	-0.23136187
64	0x3d0c3ea2	0.03423942
65	0xbdd651e0	-0.10464835
66	0x3d6802cc	0.056643292
67	0xbe7fba4c	-0.2497341
68	0x3a934e9c	0.0011238637
69	0xbd4ec6b1	-0.050482456
70	0xbddbe4b8	-0.10736984
71	0xbe386152	-0.18005875
72	0x3d933eb4	0.07189694
73	0x3e9a46fb	0.3013228
74	0x3b3a5c6a	0.002843643
75	0x3d7726bc	0.060339674
76	0x3e832d3c	0.2562045
77	0xbe3c9b9e	-0.18418738
78	0xbda148ca	-0.078752115
79	0xbda97bd2	-0.0827557
80	0x3d1333e7	0.03593817
81	0x3e86fc6d	0.2636446
82	0xbc5078d9	-0.012724125
83	0xbdd5fbee	-0.104484424
84	0x3e115e18	0.1419605
85	0xbc8cf5e0	-0.017207086
86	0xbdb1534c	-0.08658466
87	0xbd322068	-0.043487936
88	0xbe1015d5	-0.14070828
89	0x3e5bbbea	0.21458402
90	0xbd67e981	-0.05661917
91	0xbe3cac88	-0.1842519
92	0x3e1ff27a	0.15619841
93	0x3d294bff	0.04133224
94	0xbd087a87	-0.033319976
95	0xbd6f0821	-0.05835736
96	0xbd222315	-0.039584238
97	0x3eb0d9f1	0.34541276
98	0xbcaeaefb	-0.021323672
99	0x3df48958	0.11940259
100	0xbe0dbab3	-0.13840751
101	0xbeab1ee6	-0.3342201
102	0x3c4d152f	0.012517258
103	0xbb8c9764	-0.004290508
104	0xbdb9bfbc	-0.090697736
105	0x3eb7851d	0.35843745
106	0x3bfc1433	0.0076928376
107	0x3c03ab6d	0.008036477
108	0xbbc7e3f8	-0.006100174
109	0xbe9664d5	-0.29373804
110	0x3ab75ad5	0.0013988862
111	0x3dc9edf9	0.09859843
112	0xbd483a87	-0.04888394
113	0x3e860e0f	0.261826
114	0x3ce12ca1	0.027487101
115	0x3c65b454	0.014020044
116	0x3db8a31d	0.090154864
117	0xbe56d25e	-0.20978686
118	0xbd00fcda	-0.031491138
119	0xbd99d0f3	-0.07510557
120	0xbd565c8f	-0.052334365
121	0x3e368e53	0.1782773
122	0xbce66505	-0.028124342
123	0x3b9d74a5	0.004805165
124	0x3e97acc3	0.29623994
125	0xbe42ebf2	-0.19035318
126	0x3c8ee647	0.01744379
127	0x3d5d3909	0.05400947
128	0x3dadeba3	0.0849221
129	0x3e2d85d9	0.1694559
130	0xbd3daf8d	-0.046309996
131	0xbd0ede1e	-0.034879796
132	0x3da8ffbc	0.082519025
133	0x3c0e4daa	0.008685509
134	0x3d334613	0.043768
135	0x3d7b8f29	0.061415825
136	0xbc80a0bc	-0.015701644
137	0x3ddf28a1	0.10896421
138	0xbce49b13	-0.027905976
139	0xbd1acce4	-0.037793055
140	0x3c885b28	0.01664503
141	0x3e8e19b7	0.27753994
142	0x3cdd18ed	0.026989425
143	0xbd4cc0de	-0.04998862
144	0x3cb3ca91	0.021947177
145	0x3db9f784	0.09080413
146	0x3d0e4da9	0.03474203
147	0xbd8f8efb	-0.07009693
148	0x3d8a79d3	0.067615174
149	0x3e2fc93d	0.1716661
150	0xbd5b6913	-0.053567003
151	0xbbd3ee47	-0.006467614
152	0x3d562292	0.052279063
153	0x3cf1ff0c	0.029540561
154	0x3c7b6524	0.015343938
155	0xbda28ee4	-0.079374105
156	0x3e33bb5c	0.1755194
157	0xbdd76ccf	-0.105188005
158	0xbd9531d9	-0.07284898
159	0x3be7d7c4	0.007075282
160	0x3e059992	0.13046864
161	0x3baf01c8	0.0053407885
162	0xbd39e3a9	-0.04538313
163	0xbd1ece64	-0.03877105
164	0x3e8e2ef8	0.2777021
165	0xbe69cf36	-0.22832951
166	0xbd060d45	-0.0327275
167	0xbcb91e8b	-0.022597572
168	0x3cf3ecac	0.02977594
169	0xbcce61fc	-0.025193207
170	0x3d8580be	0.06518696
171	0x3e48d5df	0.19612835
172	0x3dd0ff63	0.10204961
173	0x3d36ae39	0.044599745
174	0xbd67523a	-0.0564749
175	0x3e151237	0.1455773
176	0xbd74f0fc	-0.059800133
177	0xbd93e04b	-0.07220515
178	0xbcef6ead	-0.029227579
179	0x3e42e1ef	0.190315
180	0x3d71349a	0.058888055
181	0xbdff0a8d	-0.12453184
182	0xbd73f141	-0.05955625
183	0x3e4478a3	0.19186644
184	0xbc991a21	-0.018689217
185	0xbc041707	-0.008062131
186	0xbcb82b32	-0.022481535
187	0x3c02ed7c	0.007991191
188	0x3d66104a	0.05616788
189	0xbe246919	-0.16055717
190	0xbdb57e80	-0.088620186
191	0x3dbcfeb1	0.09228266
192	0x3cf2c0ce	0.029632952
193	0x3ca9ec01	0.020742418
194	0x3cab652d	0.020922268
195	0xbd7e1b98	-0.062038034
196	0xbe7300b9	-0.23730744
197	0x3d31a43a	0.04336951
198	0x3c82b4f7	0.015955431
199	0xbda692de	-0.081334814
200	0xbd70c081	-0.058777336
201	0x3d617d8b	0.055051368
202	0x3c91d39b	0.017801097
203	0x3e0bd148	0.13654053
204	0x3b0c90f9	0.0021448715
205	0xbe47aa79	-0.19498624
206	0xbc72bd76	-0.014815679
207	0x3d60be2f	0.054868873
208	0x3cbd9a00	0.023144722
209	0x3d52731b	0.051379304
210	0xbc00493f	-0.007829963
211	0xbdc88168	-0.09790307
212	0x3d3aa702	0.045569427
213	0xbee0979f	-0.43865678
214	0x3d4c3b01	0.049860958
215	0xbd64d034	-0.05586262
216	0x3d38894a	0.045052804
217	0x3e704e30	0.23467326
218	0xbd7cd6c3	-0.06172825
219	0x3d9d10f3	0.076692484
220	0xbeca4b91	-0.39510778
221	0x3cb195b4	0.02167783
222	0xbcdc04cd	-0.026857758
223	0x3de6b5bb	0.11265131
224	0x3d87f510	0.06638539
225	0x3e3a7469	0.1820847
226	0xbd310b2e	-0.043223552
227	0xbd09fb46	-0.0336869
228	0xbe54cfb7	-0.20782362
229	0x3dd8f774	0.10594073
230	0xbc0eee4f	-0.008723809
231	0x3d168841	0.036751036
232	0x3db42aed	0.0879725
233	0x3de2e281	0.110783584
234	0x3d58978d	0.052878905
235	0x3c41e95a	0.0118354205
236	0xbdb904f9	-0.090341516
237	0xbc3da05d	-0.011573878
238	0xbd467fb5	-0.048461635
239	0x3dbcedb3	0.09225025
240	0x3dcef8ac	0.10106024
241	0x3d94b8c8	0.07261807
242	0xbccf1327	-0.025277687
243	0xbbf80ef5	-0.0075701424
244	0xbbb72084	-0.005588593
245	0xbde849a2	-0.11342169
246	0x3baf8fed	0.0053577335
247	0x3ca15f70	0.019698828
248	0x3e1fa4ce	0.15590212
249	0x3d8e0e9b	0.069363795
250	0x3d1b2946	0.03788116
251	0x3d80f600	0.06296921
252	0xbd8cdaf6	-0.06877701
253	0xbdd10c84	-0.10207465
254	0xbd39b0b8	-0.045334548
255	0xbd86fc42	-0.06591083

fc1.bias f4 [128]
0	0x3d7e4ce3	0.062085044
1	0x3d695d72	0.056973882
2	0xbe4e4322	-0.20142797
3	0xbe005e57	-0.12535988
4	0x3e6f7c13	0.23387174
5	0xbef6f9e0	-0.48237514
6	0xbdc883ab	-0.09790739
7	0x3c8f875c	0.017520599
8	0x3c464d85	0.012103443
9	0x3d338648	0.043829232
10	0xbe4b72d1	-0.19868018
11	0x3ceb0f8a	0.028693933
12	0xbdb01ab0	-0.0859884
13	0x3ea7204e	0.32641834
14	0x3daeb2c6	0.08530192
15	0xbe1d1336	-0.1533936
16	0xbeee864e	-0.4658684
17	0x3cff4a81	0.031163456
18	0xbdc0a09c	-0.09405634
19	0x3acb0136	0.0015488032
20	0xbd6a4a54	-0.05719979
21	0xbe2e9df7	-0.17052446
22	0xbe252cdb	-0.16130392
23	0xbd0748f1	-0.033028547
24	0xbe37cf24	-0.17950112
25	0xbe1990dd	-0.14996667
26	0xbe073e24	-0.13207299
27	0x3db3c758	0.08778256
28	0xbda313dc	-0.07962772
29	0x3bafeb29	0.0053686094
30	0x3e919c79	0.28439692
31	0x3e49710b	0.19672029
32	0x3da9f31c	0.082983226
33	0x3d83d679	0.06437392
34	0xbdfe567a	-0.12418838
35	0x3df5bd5d	0.11999009
36	0xbe21f182	-0.15814784
37	0x3e13e9c0	0.14444637
38	0xbe8a9a54	-0.27070868
39	0xbeacf225	-0.33778492
40	0xbe3801ef	-0.17969488
41	0x3dd8c576	0.10584538
42	0xbdcbb91f	-0.099474184
43	0xbe4f505e	-0.20245501
44	0xbdc0d666	-0.09415893
45	0xbd0f1e32	-0.034940906
46	0x3d039e2a	0.03213326
47	0xbe5a5166	-0.21320114
48	0x3e06e899	0.13174666
49	0xbe8af574	-0.2714039
50	0xbe625b60	-0.2210517
51	0xbe9b0c1d	-0.3028268
52	0x3dfe8731	0.124281295
53	0xbe635fe3	-0.22204547
54	0x3abf454c	0.0014592796
55	0xbe2aef1a	-0.16692773
56	0x3dec10a2	0.1152661
57	0xbdcdc299	-0.10046882
58	0xbd878f2f	-0.06619107
59	0x3e3156e2	0.173183
60	0xbe25f074	-0.16205007
61	0xbe995281	-0.29945758
62	0x3dfe0efe	0.12405203
63	0xbe620de0	-0.22075605
64	0xbc689aa9	-0.01419703
65	0xbda37956	-0.07982127
66	0xbdbcb8b6	-0.09214918
67	0x3d9233a2	0.071387544
68	0xbe704335	-0.23463137
69	0x3d20222d	0.039095093
70	0x3e90a56c	0.28251207
71	0xbd5c53f6	-0.05379101
72	0xbe6a324d	-0.2287075
73	0xbf0050be	-0.501232
74	0xbe8fb010	-0.28064013
75	0x3e204149	0.15649904
76	0xbe85d024	-0.2613536
77	0xbeb1cd56	-0.3472697
78	0xbe24293c	-0.16031355
79	0xbcb57e11	-0.02215484
80	0xbe795f5b	-0.24352781
81	0xbea6f8bb	-0.3261164
82	0xbdff42ff	-0.1246395
83	0xbdd49ff4	-0.10382071
84	0xbb8b8690	-0.0042579845
85	0xbe27fd19	-0.16405143
86	0xbe8c9117	-0.27454445
87	0xbef3c497	-0.47610924
88	0xbeb9ceeb	-0.36290678
89	0xbeb0d574	-0.34537852
90	0xbe66e23c	-0.22547239
91	0x3b527bd8	0.0032117274
92	0xbafc8582	-0.0019265863
93	0xbd7ea156	-0.06216558
94	0xbe570a91	-0.21000125
95	0xbe457732	-0.1928375
96	0x3d515b58	0.051112503
97	0x3dfe7bcc	0.12425956
98	0xbdabecc8	-0.08394772
99	0xbd869da7	-0.065730385
100	0xbdf6f960	-0.12059283
101	0xbe7bba7a	-0.24582854
102	0xbca19671	-0.019725056
103	0xbe7123d9	-0.23548831
104	0xbc8d563c	-0.017253034
105	0xbe01b1e9	-0.12665524
106	0xbd6fa00b	-0.05850224
107	0xbea819bb	-0.3283213
108	0xbc6ef136	-0.014583876
109	0xbdae1ae1	-0.085012205
110	0xbe6e611c	-0.23279232
111	0xbe44d5dd	-0.19222207
112	0xbd5a3f50	-0.053283036
113	0x3deb7e76	0.1149873
114	0xbd3b0400	-0.04565811
115	0xbccb74c5	-0.024835953
116	0xbd864d72	-0.0655774
117	0xbda4942c	-0.08036074
118	0x3e4cf8f9	0.2001685
119	0xbe8220b1	-0.25415567
120	0xbcf91ebd	-0.030410165
121	0xbe6b42d6	-0.22974715
122	0xbd84dd19	-0.064874835
123	0x3ed4022e	0.41407913
124	0xbde56549	-0.11200959
125	0xbcac572f	-0.021037666
126	0x3e1dbc0f	0.1540377
127	0xbe4bb827	-0.19894467

bn1.weight f4 [128]
0	0x3ef4b71e	0.47795957
1	0x3f09d6d9	0.53843457
2	0x3ee85eef	0.4538493
3	0x3e97b13f	0.29627416
4	0x3ecb3407	0.3968813
5	0x3f6bdb12	0.9213115
6	0x3f34dd1e	0.706499
7	0x3ea205b3	0.31644973
8	0x3f452f85	0.77025634
9	0x3f60de7a	0.8783947
10	0x3f75b0df	0.9597301
11	0x3f8ad473	1.0846084
12	0x3ed8f87c	0.4237708
13	0x3f2bc217	0.6709303
14	0x3ee61a2a	0.44941837
15	0x3f6249c1	0.8839379
16	0x3f78f86c	0.9725406
17	0x3f2cdaed	0.67521554
18	0x3f36180b	0.71130437
19	0x3f7d3fc2	0.9892541
20	0x3f3e0dea	0.7423998
21	0x3f86232b	1.0479482
22	0x3f57096d	0.8399876
23	0x3f2e984d	0.6820114
24	0x3dc36092	0.09539904
25	0x3f102dce	0.5631989
26	0x3f366a6d	0.7125614
27	0x3f52d7ab	0.82360333
28	0x3f8f2278	1.1182394
29	0x3f279a0f	0.6546945
30	0x3f427f3b	0.7597539
31	0x3f260561	0.6485196
32	0x3f79486f	0.9737615
33	0x3ec32edf	0.38121697
34	0x3f40d9bb	0.7533223
35	0x3ed24832	0.41070706
36	0x3f3ac83c	0.72961783
37	0x3f5b728b	0.85721654
38	0x3f475279	0.7786022
39	0x3f211726	0.62925947
40	0x3eff9b66	0.49923247
41	0x3e8820f6	0.26587647
42	0x3f3488be	0.7052115
43	0x3f727fb5	0.94726115
44	0x3f3372ef	0.7009725
45	0xba290a17	-0.0006448342
46	0x3ea993b2	0.33120495
47	0x3f618892	0.88099015
48	0x3ec72268	0.38893437
49	0x3f50ff55	0.81639606
50	0x3f9caccf	1.2240237
51	0x3ec94a33	0.39314422
52	0x3f1846b3	0.5948288
53	0xbd516870	-0.05112499
54	0x3f5bb3f9	0.8582149
55	0x3f7ae40f	0.9800424
56	0x3efd9b68	0.49532628
57	0xbdb82014	-0.089904934
58	0x3eb6cdd6	0.35703915
59	0x3f090978	0.53530073
60	0x3f66b45d	0.9011896
61	0x3ecbeae0	0.39827633
62	0x3edc3ded	0.43015996
63	0x3f430905	0.7618564
64	0x3f72d021	0.9484883
65	0x3f7531c4	0.9577906
66	0x3eca10e5	0.39466015
67	0x3f1be7c3	0.60900515
68	0x3ef8b59b	0.48576054
69	0x3f26bcc4	0.65131783
70	0x3f299eb7	0.66257805
71	0x3f03b432	0.5144683
72	0x3edff2aa	0.43739825
73	0x3ed1783b	0.4091204
74	0x3ee49d32	0.4465118
75	0x3e3550a9	0.1770655
76	0x3f162f1f	0.5866565
77	0x3f1562dc	0.5835397
78	0x3f0e1e50	0.55515003
79	0x3f0588b8	0.5216174
80	0x3efcb6b0	0.4935813
81	0x3f8b41e1	1.087948
82	0x3f1e7e16	0.6191114
83	0x3f92cb93	1.1468376
84	0x3eca4eca	0.39513236
85	0x3dc13530	0.09433973
86	0x3f28ffa7	0.66015095
87	0x3f54e3c3	0.83160037
88	0x3f877035	1.0581118
89	0x3ea8a87f	0.32941052
90	0x3f8872d1	1.0660039
91	0x3f74d7e0	0.956419
92	0x3f09e6d9	0.5386787
93	0x3f24f34b	0.64433736
94	0x3f8b06ef	1.0861491
95	0x3f635ded	0.88815194
96	0x3ef0c02b	0.47021613
97	0x3f3a1166	0.726828
98	0x3f10c086	0.5654377
99	0x3f55d0c1	0.8352166
100	0x3f22e938	0.63637114
101	0x3f191169	0.5979219
102	0x3f1c9d32	0.6117736
103	0x3ebd5238	0.3697679
104	0x3f4fbefc	0.81150794
105	0x3f7b562b	0.98178357
106	0x3edf5e71	0.4362674
107	0x3f3eb083	0.74488086
108	0x3f869c61	1.0516473
109	0x3f96a3ae	1.1768701
110	0x3ed7e387	0.42165777
111	0x3f8698a9	1.0515338
112	0x3f4155b2	0.75521386
113	0x3f99b4f6	1.200835
114	0x3f3b3695	0.7313016
115	0x3e20dbbc	0.15708822
116	0x3ef98d21	0.48740485
117	0x3f3b038e	0.730523
118	0x3fb3a264	1.4033933
119	0xbed0acbf	-0.40756795
120	0x3f829875	1.0202776
121	0x3f08bb71	0.5341101
122	0x3f85ba7e	1.0447538
123	0x3f92dbd1	1.1473333
124	0x3f587b30	0.8456297
125	0x3efa28d1	0.48859265
126	0x3f4049e9	0.7511278
127	0x3f3cea36	0.7379488

bn1.bias f4 [128]
0	0x3d2e0d76	0.042493306
1	0x3dcad3c2	0.09903671
2	0xbc8ed44f	-0.017435221
3	0x3e024841	0.12722875
4	0x3e201e34	0.15636522
5	0x3e366bef	0.17814611
6	0x3c8b7ad3	0.01702634
7	0x3df8ce31	0.12148703
8	0x3e0d6c80	0.1381092
9	0x3d8bf0e4	0.068330556
10	0xbc34d5eb	-0.01103733
11	0xbb2ae46c	-0.0026076091
12	0x3dba1254	0.09085527
13	0x3ec98f97	0.39367363
14	0x3d81157a	0.063029245
15	0x3e0d7e12	0.13817623
16	0x3dcf20b4	0.101136595
17	0xbd4e7e3b	-0.05041335
18	0xbd387a21	-0.045038346
19	0x3db24f5d	0.087065436
20	0x3ea71f4e	0.3264107
21	0x3e2e69d8	0.17032564
22	0x3d8687ea	0.06568892
23	0x3d9bd554	0.076090485
24	0x3dc09dd9	0.09405107
25	0x3e1aa1f2	0.1510084
26	0x3da9f022	0.08297755
27	0x3d6a6749	0.057227407
28	0x3ebd4c14	0.36972106
29	0xbc802a02	-0.01564503
30	0x3de0fcc9	0.10985715
31	0x3df2e8e9	0.1186083
32	0xbc434394	-0.011917967
33	0x3e4e5dd6	0.20152983
34	0x3d1e8137	0.038697448
35	0x3d0127a3	0.03153194
36	0xbd02bc03	-0.031917583
37	0x3e104797	0.1408981
38	0xbd8683ca	-0.065681055
39	0x3dbf27c3	0.09333756
40	0x3d90fcf6	0.070794985
41	0x3dd78ef4	0.10525313
42	0xbd51ddc7	-0.051236894
43	0x3d7a1068	0.061050802
44	0x3db6d48b	0.08927258
45	0xbc8164d2	-0.015795145
46	0xbd65ca4e	-0.056101136
47	0x3d862ffa	0.065521196
48	0x3d1aea0a	0.037820853
49	0x3dab4d07	0.08364301
50	0x3e089d81	0.13341333
51	0xbae08316	-0.001712891
52	0x3e0650d4	0.13116771
53	0x3e0b6b00	0.13615036
54	0x3e301c92	0.17198399
55	0x3dc34c2d	0.09536014
56	0xbbd88ae9	-0.0066083563
57	0x3e7b332d	0.24531241
58	0x3e2441c6	0.16040716
59	0x3dd9bfd6	0.10632293
60	0x3cca2dd7	0.024680061
61	0x3e1d33f7	0.15351854
62	0x3e594eb9	0.21221437
63	0x3e0018fb	0.1250953
64	0xbc6092ff	-0.013706922
65	0x3d84910c	0.06472978
66	0x3e1381e6	0.14405021
67	0x3e73d3d3	0.23811273
68	0x3d951ea8	0.07281238
69	0xbd61ebae	-0.055156402
70	0x3e534463	0.20631556
71	0x3dedd1d0	0.11612284
72	0xbca5b3ba	-0.020227302
73	0xbcb1f51c	-0.021723323
74	0x3dc717d1	0.097213395
75	0x3cfbaff1	0.030723544
76	0x3e099aca	0.13437954
77	0xba97e044	-0.0011587222
78	0x3d2cff86	0.042235874
79	0xbadb4f82	-0.0016732069
80	0xbd2b3b4c	-0.041804597
81	0x3d5b052f	0.05347174
82	0x3e799a16	0.24375185
83	0x3e007068	0.1254288
84	0x3d714c7e	0.05891084
85	0xba8eef6f	-0.0010905097
86	0xbd7f3516	-0.062306486
87	0x3e0f733e	0.14008805
88	0x3d7ef5c1	0.062246088
89	0x3d960ade	0.073262915
90	0x3c79bb18	0.0152423605
91	0xb93f68f9	-0.00018254285
92	0x3ba6c4ef	0.0050893943
93	0x3d0b535d	0.03401505
94	0xbc8121b5	-0.015763143
95	0x3dc45535	0.095865645
96	0x3e627dae	0.22118255
97	0x3e25fa47	0.16208754
98	0x3e01866a	0.12648931
99	0xbce24028	-0.027618483
100	0x3db74f53	0.08950677
101	0x3dc30a4f	0.095234506
102	0x3dff3051	0.124603875
103	0x3cf18db7	0.02948652
104	0x3e0905c9	0.13381113
105	0x3c63e68c	0.013909947
106	0x3d6f54b0	0.058430374
107	0x3db588ed	0.08864007
108	0x3dd7bb2e	0.105337486
109	0x3d44af8e	0.048018984
110	0x3d1f8ff3	0.03895564
111	0xbd49fbd4	-0.049312428
112	0x3d9ebb81	0.07750607
113	0x3e2f501f	0.17120408
114	0x3d9535e4	0.072856694
115	0xbd199d2e	-0.037503414
116	0x3e4ed654	0.20198947
117	0x3e320d0a	0.17387787
118	0x3d1b8817	0.037971582
119	0x3e75a8b4	0.23990136
120	0x3db2aea7	0.087247185
121	0xbccd3f8a	-0.025054712
122	0x3ddab1b6	0.10678427
123	0x3ecde0a5	0.40210453
124	0xb9c434d3	-0.0003742339
125	0x3c3b1433	0.01141839
126	0x3e15ca29	0.14627899
127	0xbc29c439	-0.0103617245

bn1.running_mean f4 [128]
0	0x1d85865e	3.534374e-21
1	0x3e6a0090	0.22851777
2	0x403dda03	2.9664314
3	0x3fb3f133	1.4057983
4	0x3e1ee913	0.15518598
5	0x3f38f80b	0.72253484
6	0x3ea99061	0.33117965
7	0x3fa7a065	1.3095824
8	0x3e4c425d	0.1994719
9	0x3f9d0044	1.2265706
10	0x00000004	6e-45
11	0x00000004	6e-45
12	0x408fcb5a	4.493573
13	0x40201922	2.501534
14	0x3a6d1ded	0.0009045292
15	0x4023b16b	2.5577037
16	0x3e55d6ba	0.20882693
17	0x3de8f3ce	0.11374627
18	0x3f8be614	1.0929589
19	0x4009ddb2	2.1541562
20	0x3f76a6fb	0.9634854
21	0x3f6320c3	0.88721865
22	0x3d957a74	0.07298747
23	0x00000004	6e-45
24	0x3e092a04	0.13394934
25	0x3feca87d	1.8488919
26	0x27e5af80	6.3750546e-15
27	0x3e8f8359	0.28029898
28	0x3fec9106	1.8481758
29	0x3eeba8db	0.46027264
30	0x3f154eca	0.5832335
31	0x3f592121	0.84816176
32	0x3ad084af	0.0015908683
33	0x4077f8f0	3.874569
34	0x3d69f3db	0.057117324
35	0x40878d0e	4.2359686
36	0x3fd65f44	1.6747823
37	0x3f188ea2	0.5959264
38	0x3fb7c244	1.435616
39	0x3dd09cbf	0.10186147
40	0x00000004	6e-45
41	0x3f953fbd	1.1660076
42	0x00000004	6e-45
43	0x3e3113da	0.17292729
44	0x3c368069	0.011139014
45	0x3f8aba6b	1.083814
46	0x00000004	6e-45
47	0x00000004	6e-45
48	0x400bdd0b	2.1853664
49	0x3a032734	0.0005003095
50	0x3f8d5174	1.1040483
51	0x00000004	6e-45
52	0x3f8ed586	1.1158912
53	0x3f88ce61	1.0687982
54	0x3f6fb49b	0.9363496
55	0x3d81305c	0.06308052
56	0x31c417c8	5.7070544e-09
57	0x3e6f6bc9	0.2338096
58	0x3fbae1f9	1.4600211
59	0x40a921b5	5.2853646
60	0x3fed753b	1.8551401
61	0x3de21060	0.110382795
62	0x402d8614	2.7113085
63	0x402a03ab	2.6564739
64	0x364ca4f2	3.049438e-06
65	0x3f2e37f0	0.68054104
66	0x40b05034	5.5097904
67	0x3f2335a7	0.6375374
68	0x3e5bbba8	0.21458304
69	0x00000004	6e-45
70	0x40b47922	5.6397867
71	0x3e68f7f7	0.22750841
72	0x3eeb6141	0.45972636
73	0x3e336b48	0.17521393
74	0x3fc3af41	1.5287858
75	0x4087f5c2	4.2487497
76	0x3f19fd61	0.6015225
77	0x3911f6c8	0.00013920211
78	0x3fa7fdcf	1.3124331
79	0x3cea4c6b	0.028600892
80	0x00000004	6e-45
81	0x3eb33012	0.34997612
82	0x3f85e584	1.0460668
83	0x3e6232ea	0.22089735
84	0x3fa51af3	1.2898849
85	0x00000004	6e-45
86	0x385fd65c	5.336698e-05
87	0x3e2cfaaf	0.16892503
88	0x3e4e15f4	0.20125562
89	0x00000004	6e-45
90	0x400d19cc	2.2046995
91	0x3e9be04a	0.30444556
92	0x40563150	3.3467598
93	0x00000004	6e-45
94	0x00000004	6e-45
95	0x3ea0a4da	0.31375772
96	0x3f92e9e0	1.1477623
97	0x3fdd68d2	1.7297614
98	0x3f172fce	0.5905732
99	0x3d93dceb	0.07219871
100	0x3fa05985	1.2527319
101	0x3f868fdb	1.0512651
102	0x3e67439f	0.22584389
103	0x3e798362	0.24366525
104	0x3fdcc038	1.724616
105	0x40157fac	2.3359175
106	0x4075c687	3.8402421
107	0x3e57f693	0.21090154
108	0x3ecc6934	0.39924014
109	0x3f41b99a	0.7567383
110	0x3f529aec	0.8226764
111	0x00000004	6e-45
112	0x3a42d8f4	0.0007432841
113	0x405893ed	3.3840287
114	0x3ec54eaf	0.38536593
115	0x386f1424	5.7000798e-05
116	0x4030e62c	2.7640486
117	0x3fdcc240	1.724678
118	0x3c8b12f2	0.016976807
119	0x401737b7	2.3627756
120	0x3f4966ad	0.78672296
121	0x3f95b895	1.1696955
122	0x3f8d0c54	1.1019387
123	0x3f282789	0.65685326
124	0x39271334	0.00015933515
125	0x3c34f4b6	0.011044672
126	0x40545082	3.3174138
127	0x3b67c9e2	0.0035368134

bn1.running_var f4 [128]
0	0x1bfbf6aa	4.168387e-22
1	0x3e34feb0	0.1767528
2	0x4120605e	10.023527
3	0x40906823	4.512712
4	0x3e3c5434	0.18391496
5	0x3f788945	0.97084457
6	0x3f0aabcf	0.5416841
7	0x40a75645	5.229281
8	0x3ed7a11c	0.42115104
9	0x406e64cf	3.7249029
10	0x00000004	6e-45
11	0x00000004	6e-45
12	0x411b0dd0	9.690872
13	0x40dca99e	6.895705
14	0x3ab8e294	0.0014105611
15	0x408c2a09	4.3801312
16	0x3e98072f	0.2969298
17	0x3e7bfce3	0.24608187
18	0x40cb7317	6.357799
19	0x40d863d1	6.7621846
20	0x40023580	2.0345154
21	0x3fa2bb32	1.2713377
22	0x3e2ee30f	0.17078803
23	0x00000004	6e-45
24	0x3e617f6c	0.22021264
25	0x4099ea53	4.809854
26	0x280b456c	7.7311035e-15
27	0x3ecb1b53	0.39669284
28	0x4097c505	4.7428
29	0x3fb330bd	1.3999249
30	0x3f64e0a2	0.8940526
31	0x40736cb8	3.8035107
32	0x3b55347d	0.0032532506
33	0x414013c7	12.004828
34	0x3d668fd4	0.05628951
35	0x40b4307d	5.630919
36	0x404bb808	3.1831074
37	0x401ab1fd	2.4171135
38	0x40be0ec8	5.9393044
39	0x3e0c325d	0.13691087
40	0x00000004	6e-45
41	0x40c02e8e	6.005683
42	0x00000004	6e-45
43	0x3ec4b603	0.38420114
44	0x3bbbcd00	0.005731225
45	0x3efd0604	0.49418652
46	0x00000004	6e-45
47	0x00000004	6e-45
48	0x41513be0	13.077118
49	0x3a01d687	0.00049529265
50	0x401ba6ff	2.4320676
51	0x00000004	6e-45
52	0x40003ee3	2.0038383
53	0x408f2d53	4.4742827
54	0x405b01fc	3.421996
55	0x3d9dfe04	0.07714465
56	0x3039ba04	6.756695e-10
57	0x3f171005	0.5900882
58	0x40689d02	3.634583
59	0x415ee6b1	13.931321
60	0x40e58f16	7.1737165
61	0x3e666d05	0.22502525
62	0x41023803	8.138675
63	0x40c1b4af	6.053306
64	0x36144336	2.209284e-06
65	0x3fe05c52	1.7528174
66	0x4142b823	12.169955
67	0x3fbb6ec0	1.4643173
68	0x3f0b94ce	0.5452393
69	0x00000004	6e-45
70	0x40e0a9a8	7.02071
71	0x3f15e51c	0.5855272
72	0x3fa832b6	1.3140476
73	0x3eb318ae	0.34979767
74	0x40617ff0	3.5234337
75	0x4153edc6	13.24555
76	0x3fd43f3f	1.6581801
77	0x38dec689	0.00010622765
78	0x40cc0179	6.37518
79	0x3cdd68c8	0.027027503
80	0x00000004	6e-45
81	0x3ea31dcd	0.31858674
82	0x400c0f38	2.1884289
83	0x3ecbd7b8	0.39813018
84	0x40d0b731	6.522362
85	0x00000004	6e-45
86	0x372e1976	1.0377136e-05
87	0x3e171e56	0.14757666
88	0x3e4f4967	0.20242845
89	0x00000004	6e-45
90	0x40fae461	7.8403783
91	0x3f463bde	0.774351
92	0x4129ee74	10.620716
93	0x00000004	6e-45
94	0x00000004	6e-45
95	0x3f1ff0f3	0.62477034
96	0x40379813	2.8686569
97	0x400f0e07	2.2352312
98	0x3fa2fe3d	1.2733837
99	0x3dabb102	0.08383371
100	0x40226cbe	2.537887
101	0x4099946f	4.7993693
102	0x3ea81a6e	0.32832664
103	0x3f4fa2b8	0.81107664
104	0x40bd06ad	5.907065
105	0x40d73f64	6.726488
106	0x411743ce	9.454054
107	0x3eafa9a7	0.34309122
108	0x3f1020b6	0.5629991
109	0x40262cd3	2.5964859
110	0x40292bbc	2.6432943
111	0x00000004	6e-45
112	0x3a2f9c01	0.00066989666
113	0x3fcb4371	1.5879956
114	0x3f1d4ec1	0.61448294
115	0x37bfddc8	2.287225e-05
116	0x41973914	18.90287
117	0x40c62149	6.191563
118	0x3c2db4f2	0.010602223
119	0x405740e5	3.3633358
120	0x3fee6d01	1.8627015
121	0x3fdbf532	1.7184203
122	0x3fd30923	1.6487163
123	0x3f350e5b	0.7072503
124	0x388bc5f9	6.664912e-05
125	0x3caeaf15	0.02132372
126	0x40e3b7a3	7.1161666
127	0x3ac18663	0.0014764782

fc2.weight f4 [128, 128]
0	0x3d001210	0.031267226
1	0x3d73e59f	0.059545156
2	0xbdb0df8f	-0.086363904
3	0x3de5ac7a	0.11214538
4	0xbd7bdd7c	-0.06149052
5	0xbe618be6	-0.22026023
6	0x3c83aac7	0.016072644
7	0x3cb73df1	0.022368403
8	0x3d3790c6	0.0448158
9	0x3db914e9	0.090371914
10	0x3dc450b1	0.09585703
11	0xbd4f192c	-0.050561115
12	0x3d9e2205	0.077213325
13	0x3dd0e2e3	0.10199525
14	0xbd6a3518	-0.05717954
15	0xbd9cab0b	-0.07649811
16	0x3e342ce2	0.17595246
17	0x3d7113a2	0.058856614
18	0x3d1e94d1	0.03871614
19	0xbd0aa951	-0.03385288
20	0x3cf6f2fe	0.030145165
21	0xbd38c6a3	-0.04511131
22	0x3db3faaa	0.08788045
23	0x3dd1cdc0	0.10244322
24	0x3c502a46	0.012705391
25	0xbdc0ac19	-0.09407825
26	0xbd1a92e4	-0.037737742
27	0xbd320a72	-0.043466993
28	0x3e80d5c3	0.25163087
29	0x3d1981b4	0.03747721
30	0x3c864762	0.01639146
31	0x3cf02c4e	0.029318001
32	0xbc61a239	-0.013771587
33	0xbe7c7b97	-0.24656521
34	0x3c89c5e7	0.016818
35	0x3e11067d	0.14162631
36	0xbcc0a09c	-0.023514085
37	0x3d0f0d81	0.034924988
38	0x3cbe7c1b	0.023252537
39	0xbd296237	-0.04135343
40	0x3da9de36	0.082943365
41	0xbe25e395	-0.16200097
42	0x3dc7363a	0.0972714
43	0xbe30613b	-0.1722459
44	0x3d15015c	0.03637825
45	0x3c479601	0.01218176
46	0xbd925fc0	-0.07147169
47	0x3d4e7409	0.05040363
48	0x3d7d7a5f	0.06188428
49	0xbd1d91d6	-0.038469158
50	0xbcd458d3	-0.025921261
51	0x3d4d61f2	0.050142236
52	0xbda846f5	-0.08216659
53	0x3d3912ed	0.045184065
54	0x3deb1c59	0.11480016
55	0xb93921e6	-0.00017655603
56	0x3d3a8ee9	0.045546446
57	0xbd4cbe8b	-0.049986403
58	0x3d6198e9	0.055077467
59	0x3d9445fa	0.072399095
60	0x3da8e1cc	0.08246192
61	0x3c8e67ca	0.017383475
62	0x3e1c2afc	0.15250772
63	0x3e0e2cef	0.13884328
64	0xbc238810	-0.00998117
65	0xbd57176f	-0.052512582
66	0x3d933af5	0.071889795
67	0x3e609a20	0.21933794
68	0xbde68947	-0.11256652
69	0x3cb79ae2	0.022412721
70	0xbe5125be	-0.20424554
71	0xbd24cc4d	-0.0402339
72	0x3e0364cd	0.12831421
73	0xbe2ed635	-0.17073901
74	0xbdf6d427	-0.120521836
75	0x3dcf0eae	0.10110222
76	0xbd808fbe	-0.06277417
77	0x3e0151a7	0.12628804
78	0x3e46da88	0.194193
79	0x3d9663a2	0.07343222
80	0x3a150004	0.0005683901
81	0x3e32e2bf	0.1746931
82	0x3e910762	0.28325945
83	0x3d8afc16	0.06786363
84	0xbde49473	-0.11161127
85	0xbc531a12	-0.012884634
86	0xbbd51583	-0.0065028085
87	0x3e46b585	0.19405182
88	0xbd8b5fcd	-0.06805382
89	0x3d3b84be	0.04578089
90	0xbdf7e211	-0.121036656
91	0xbce48e98	-0.027900025
92	0xbc37abf9	-0.011210435
93	0x3dc3a541	0.09553004
94	0x3e2b04e2	0.16701081
95	0xbba7583d	-0.0051069544
96	0xbd8bbb31	-0.06822813
97	0x3de67655	0.11253039
98	0xbe3edd47	-0.18639098
99	0x3d57f93e	0.05272793
100	0x3dc8b3f8	0.09799951
101	0x3c8ecb2c	0.017430864
102	0x3df4088b	0.11915692
103	0xbe1210f3	-0.14264278
104	0xbe0fd558	-0.14046228
105	0x3e11c6b9	0.14235963
106	0xbddb65a7	-0.10712748
107	0x3d00172c	0.0312721
108	0xbba5379d	-0.00504203
109	0x3ba5060f	0.0050361226
110	0xbd24bbb9	-0.04021809
111	0xbc72f9e9	-0.014830091
112	0x3d3a012f	0.045411285
113	0x3d9a7ff4	0.07543936
114	0x3b8e9c84	0.004352154
115	0xbdbdc3b1	-0.09265841
116	0x3e39ec12	0.1815646
117	0x3bf075e2	0.0073382715
118	0xbe9be2b5	-0.304464
119	0xbcfec4f0	-0.031099766
120	0xbe4fa9c1	-0.202796
121	0xbe1781d8	-0.14795625
122	0x3e8d5ef5	0.2761151
123	0xbe1a218f	-0.15051864
124	0x3c9a7736	0.018855672
125	0xbd80ee50	-0.062954545
126	0x3e0a0ac6	0.13480672
127	0x3ea19214	0.3155676
128	0x3d96c598	0.07361907
129	0x3cc85803	0.02445603
130	0x3d4598b5	0.048241336
131	0x3ddbe66f	0.10737311
132	0xbd9e1491	-0.077187665
133	0xbe343888	-0.1759969
134	0x3e0872f4	0.13325101
135	0xbe5dff17	-0.2167934
136	0x3e2cc032	0.16870192
137	0x3daa3aef	0.08312022
138	0xbe263bbd	-0.16233726
139	0x3d206539	0.039159033
140	0x3dbdb41b	0.09262868
141	0x3c3aebd7	0.011408768
142	0x3d7de443	0.061985265
143	0xbcdd3a8b	-0.027005455
144	0x3e182590	0.14858079
145	0xbc846200	-0.016160011
146	0x3da43d59	0.08019514
147	0xbdfd48c2	-0.12367393
148	0xbe0a70e6	-0.1351963
149	0x3e1e2e42	0.15447333
150	0x3dc7f5ff	0.09763717
151	0xbdea8976	-0.11452
152	0x3d28f55f	0.04124963
153	0xbdebb15a	-0.115084365
154	0x3c522c39	0.012827926
155	0x3d770020	0.060302854
156	0x3e2dba6a	0.16965643
157	0x3e123f39	0.1428193
158	0x3d1808dd	0.037117828
159	0xbc973d12	-0.018461738
160	0xbd3f70c6	-0.04673841
161	0xbe455f04	-0.19274527
162	0x3c85935a	0.016305614
163	0x3c62ac98	0.013835095
164	0xbe2458a3	-0.16049437
165	0x3d571a4b	0.05251531
166	0xbdfd3ecc	-0.12365493
167	0x3e49b2bb	0.19697087
168	0xbd33b4a8	-0.04387346
169	0x3bff668a	0.007794206
170	0x3b60edcd	0.0034321428
171	0xbcf8a56e	-0.03035232
172	0x3d713d59	0.058896396
173	0xbbb3fa50	-0.005492486
174	0xbd78631c	-0.060641393
175	0xbdc5f72e	-0.096662864
176	0x3e38db2b	0.18052356
177	0xbdbda37f	-0.092597
178	0x3e321bde	0.17393443
179	0xbdb2a0e2	-0.08722092
180	0xbe534453	-0.20631532
181	0xbcea3417	-0.028589291
182	0x3daf51a3	0.08560493
183	0x3d253866	0.04033699
184	0x3d0bb527	0.034108307
185	0xbe3ff8e1	-0.18747284
186	0x3d7251d5	0.059160072
187	0x3c70a93c	0.014688786
188	0x3cee58ad	0.029095018
189	0xbd0bfbe5	-0.034175772
190	0x3e64daf2	0.22349146
191	0x3dc35102	0.095369354
192	0xbd8135c1	-0.06309081
193	0xbda61178	-0.08108801
194	0xbd85f444	-0.065407306
195	0x3e3e28cd	0.18570252
196	0xbd92b94b	-0.07164248
197	0x3d6a563c	0.057211146
198	0xbe899cc6	-0.2687742
199	0xbd87c6f3	-0.066297434
200	0xbde5848a	-0.112069204
201	0xbd48b9ec	-0.049005434
202	0xbe337e6c	-0.17528695
203	0x3e022c83	0.12712292
204	0xbde8c9aa	-0.11366589
205	0x3d436bf4	0.047710374
206	0x3e5ec89e	0.21756217
207	0x3d54a2f9	0.051913235
208	0xbb9e9cf7	-0.004840489
209	0xbc9cb172	-0.019127581
210	0x3df67171	0.12033356
211	0x3dd39ef3	0.103330515
212	0x3d240359	0.040042255
213	0xbb823230	-0.003973268
214	0xbb8fd65b	-0.004389567
215	0x3d229427	0.03969207
216	0xbe04bc96	-0.12962565
217	0xbc9045a6	-0.017611336
218	0xbe1cda24	-0.15317589
219	0xbd7f089e	-0.062264077
220	0x3dcfd6d9	0.10148401
221	0xbd827c7e	-0.06371401
222	0x3d679fe4	0.056548968
223	0x3d3e910c	0.046525046
224	0xbcd24169	-0.025665956
225	0x3da1325d	0.07870934
226	0xbe21191b	-0.15732233
227	0x3d1e39e0	0.038629413
228	0x3dc14f53	0.09438958
229	0x3e1022be	0.14075753
230	0x3e996855	0.29962412
231	0xbc06e506	-0.008233314
232	0xbdfacce3	-0.1224611
233	0x3d88d67c	0.06681535
234	0xbe39247f	-0.18080328
235	0xbccac8d4	-0.024753965
236	0x3d078509	0.033085857
237	0x3cc642d9	0.024201797
238	0x3db5384e	0.0884863
239	0xbd428025	-0.04748549
240	0x3d4b679a	0.04965935
241	0xbd1e0986	-0.0385833
242	0xbd40b2b8	-0.04704544
243	0xbdab2892	-0.083573475
244	0x3e444cec	0.19169968
245	0x3d535a77	0.051599946
246	0x3cdb8f30	0.026801676
247	0xbded6bd1	-0.1159283
248	0xbe0d4970	-0.13797545
249	0xbe141a28	-0.14463103
250	0x3e60123b	0.21881954
251	0xbe2361ca	-0.15955272
252	0x3e4fe1ca	0.20300975
253	0x3b15ae60	0.0022839531
254	0xbdb3bd18	-0.08776301
255	0x3e6f365e	0.23360583

fc2.bias f4 [128]
0	0x3c4bda46	0.012442177
1	0xbd85761b	-0.065166675
2	0x3c830348	0.015992776
3	0xbc83c75e	-0.016086277
4	0x3e3d0bf9	0.18461598
5	0x3bb3d07f	0.005487501
6	0x3dd8c3f1	0.10584248
7	0x3bac936e	0.0052665984
8	0x3d8e7a15	0.06956879
9	0xbc9c771a	-0.01909976
10	0xbe171d6a	-0.14757314
11	0x3c10e1cc	0.008842897
12	0xbd89f9da	-0.067371085
13	0xbd9df245	-0.07712225
14	0x3cb27447	0.021783961
15	0xbd7add55	-0.061246235
16	0xbc515bde	-0.0127782505
17	0xbd996f51	-0.07491935
18	0xbd25019b	-0.040284734
19	0x3d180ecf	0.037123498
20	0x3cc20c52	0.023687515
21	0xbd4ead36	-0.050458156
22	0xbd4c2644	-0.04984118
23	0x3bbcdbb6	0.0057634963
24	0xbc73dd2c	-0.014884274
25	0xbd663bd8	-0.056209415
26	0x3d17a8ad	0.037026096
27	0x3db8b1aa	0.09018262
28	0xbd36d0fc	-0.044632897
29	0x3adcde01	0.001685083
30	0x3b85c1cf	0.0040819417
31	0x3d8ac12b	0.06775125
32	0xb97bad4f	-0.00024001788
33	0x3c6b8c72	0.0143767465
34	0x3e6b5f8b	0.22985666
35	0xbbdfa726	-0.0068253456
36	0xbd796541	-0.06088758
37	0xbc676166	-0.014122343
38	0xbb2577af	-0.002524834
39	0x3b400a70	0.0029303096
40	0xbd9ee66b	-0.077587925
41	0x3c1e8e53	0.009677487
42	0x3be0ef4b	0.0068644634
43	0x3d5bcfa2	0.05366481
44	0x3b8aa667	0.0042312625
45	0x3dc92210	0.0982095
46	0xbd28afe4	-0.041183367
47	0x3db6a148	0.08917481
48	0x3cc05a1d	0.02348047
49	0xbd614d00	-0.055005074
50	0xbac378a2	-0.0014913271
51	0xbcb9c733	-0.022677993
52	0xbd73369c	-0.05937825
53	0x3da1a491	0.07892717
54	0x3dc5cf75	0.0965871
55	0xbd321526	-0.0434772
56	0xbd1572b6	-0.03648635
57	0x3dad297c	0.08455178
58	0xbd8829c4	-0.06648591
59	0x3c02b2fb	0.007977243
60	0xbd0de523	-0.03464235
61	0xbbe5d18d	-0.007013506
62	0x3d12a249	0.0357993
63	0xbbb8c15f	-0.005638286
64	0xbd46d565	-0.048543353
65	0xbd5d170a	-0.05397705
66	0x3ccd132c	0.025033556
67	0x3d1113c7	0.03541925
68	0xbc06c960	-0.0082267225
69	0x3cf44e95	0.029822627
70	0xbd82fe97	-0.063962154
71	0x3cfda2c8	0.03096141
72	0xbdf55d03	-0.11980631
73	0xbd96ab86	-0.07356934
74	0x3cb95d65	0.022627542
75	0xbb0c5829	-0.0021414852
76	0xbc1dc838	-0.009630255
77	0x3d6191af	0.055070575
78	0x3d8e6514	0.06952873
79	0x3c54a3ac	0.012978476
80	0xbd3b75d1	-0.045766655
81	0x3d224311	0.03961474
82	0xbd226066	-0.039642714
83	0xbb663d93	-0.0035131916
84	0xbd3f3934	-0.046685413
85	0xbb2e0554	-0.0026553469
86	0x3c709e74	0.014686216
87	0x3ccbd74f	0.02488294
88	0x3e35b586	0.17745027
89	0xbd56f44e	-0.05247908
90	0x3dc32036	0.09527628
91	0xbccc259c	-0.024920277
92	0x3d804dfd	0.06264875
93	0x3d05e186	0.03268578
94	0xbd0ac600	-0.033880234
95	0xbc794968	-0.015215255
96	0x3d4c3844	0.049858347
97	0xbddf6f2f	-0.109098785
98	0x3d78cfad	0.06074493
99	0xbd0811e9	-0.033220205
100	0x3e47569f	0.19466637
101	0x3d737b83	0.05944396
102	0x3dc1892a	0.0944999
103	0x3d17913d	0.037003744
104	0xbd3b0caf	-0.045666393
105	0x3ca33d52	0.0199267
106	0xbcd55e90	-0.026046067
107	0xbc7acee5	-0.015308117
108	0xbc140f7d	-0.009036896
109	0xbd0f64e4	-0.035008326
110	0xbc9ac743	-0.018893844
111	0xbd905a17	-0.07048433
112	0xbc6aa3c8	-0.014321275
113	0x3a2218da	0.0006183513
114	0x3dae1004	0.084991485
115	0x3c085b52	0.008322554
116	0xbc0feda8	-0.008784689
117	0x3dc82582	0.09772779
118	0xbc140c40	-0.009036124
119	0xbbc8603d	-0.006114988
120	0x3cd96000	0.026535034
121	0x3db3cb5c	0.08779022
122	0xbd0f14b9	-0.034931872
123	0xbc112c9a	-0.0088607315
124	0xbcf1351c	-0.02944427
125	0x3cdee883	0.02721048
126	0x3c1cb3fd	0.009564397
127	0xbd50e31e	-0.050997846

fc3.weight f4 [2, 128]
0	0xbd8217f8	-0.06352228
1	0xbcd8502a	-0.026405413
2	0xbe0227b0	-0.12710452
3	0xbd833b46	-0.0640779
4	0xbf2283aa	-0.63482153
5	0xbc50c4c8	-0.012742229
6	0x3e242e71	0.16033341
7	0xbdb4d9d2	-0.088306084
8	0xbd1b25e7	-0.037877943
9	0xbc36a484	-0.011147622
10	0xbef8247a	-0.4846533
11	0xbd78c6f4	-0.06073661
12	0xbd055a24	-0.032556668
13	0x3dd6383d	0.10459945
14	0xbe7ae063	-0.24499659
15	0xbea50b00	-0.32234955
16	0x3bcb106d	0.0061970265
17	0x3e0925ac	0.13393277
18	0xbd22f687	-0.039785888
19	0xbe824bdf	-0.2544851
20	0xbd1af351	-0.0378297
21	0xbd7117aa	-0.05886046
22	0xbd6b745a	-0.05748401
23	0xbd482a55	-0.048868496
24	0xbd664b93	-0.056224417
25	0xbcb200a8	-0.021728829
26	0xbd692e8b	-0.056929152
27	0xbfa0e013	-1.2568382
28	0xbd37c670	-0.04486698
29	0xbc23ae45	-0.00999028
30	0xbc8818b7	-0.016613347
31	0x3df302c6	0.11865763
32	0xbd7daf04	-0.061934486
33	0xbb23a13b	-0.0024967927
34	0xbf0c5ea7	-0.5483193
35	0xbd57439d	-0.052554715
36	0xbd62ff14	-0.055419043
37	0xbec3eb80	-0.3826561
38	0xbd63f75b	-0.05565582
39	0xbcf60dd2	-0.030035887
40	0xbd5e3295	-0.054247458
41	0xbf2677cb	-0.6502654
42	0xbd882331	-0.06647337
43	0xbd526895	-0.05136927
44	0xbb0daa29	-0.0021616316
45	0x3e37c45a	0.17945996
46	0xbe4ddd45	-0.20103939
47	0xbeecafa2	-0.46227747
48	0xbd0a9727	-0.033835556
49	0xbd60f02b	-0.054916542
50	0xbcdade74	-0.026717402
51	0xbf94e050	-1.1630955
52	0x3e542721	0.20718051
53	0xbd9a4daa	-0.075343445
54	0xbe6b94be	-0.2300596
55	0xbd61924d	-0.055071164
56	0x3c8d5666	0.017253112
57	0x3df8a2bb	0.121404134
58	0xbd590779	-0.052985642
59	0xbd133276	-0.035936795
60	0xbe4b6845	-0.19863994
61	0xbd8cd2eb	-0.06876167
62	0xbd969ef7	-0.07354539
63	0xbe21e65e	-0.15810534
64	0xbd0fae45	-0.035078306
65	0xbd8169f0	-0.06319034
66	0x3dc54efd	0.096342064
67	0xbf330b18	-0.699388
68	0x3c5cf6c3	0.013486567
69	0xbd2df637	-0.042471137
70	0xbc4459f1	-0.011984334
71	0x3de271b7	0.11056846
72	0xbe1f887a	-0.15579405
73	0xbda9dbf3	-0.08293905
74	0xbd2ce32c	-0.042208835
75	0xbd2cecf1	-0.042218152
76	0x3b6b0c98	0.003586566
77	0x3e22114d	0.15826912
78	0xbe524e09	-0.2053758
79	0xbe5004b6	-0.20314297
80	0xbd4ed49c	-0.05049573
81	0xbdd4a8ee	-0.10383783
82	0xbdc0d87a	-0.0941629
83	0xbd0e53b6	-0.0347478
84	0xbd23170a	-0.039816894
85	0xbd0fad2a	-0.03507725
86	0xbc3e6b01	-0.011622191
87	0x3e545dca	0.20738903
88	0x3e50b798	0.20382535
89	0xbd14efca	-0.036361493
90	0xbf04bc08	-0.5184941
91	0xbf39ab30	-0.72526836
92	0x3e721581	0.23641016
93	0xbd516def	-0.05113023
94	0xbd0888b7	-0.033333506
95	0xbd689861	-0.056785945
96	0xbd10d358	-0.035357803
97	0xbb560ee9	-0.0032662696
98	0x3dc880ec	0.09790215
99	0xbcfbb40e	-0.030725505
100	0xbf40a937	-0.752582
101	0x3daf305d	0.085541464
102	0xbca5e575	-0.020251015
103	0xbde02ac3	-0.10945656
104	0x3dfa4455	0.122200646
105	0xbddee059	-0.10882635
106	0xbb2da6b3	-0.0026497066
107	0xbd638237	-0.055544104
108	0x3d9cd9f1	0.076587565
109	0xbde79184	-0.11307052
110	0x3c688471	0.014191733
111	0xbd0d664e	-0.034521393
112	0xbe8dd617	-0.277024
113	0xbd82b8f5	-0.06382934
114	0xbfab75f2	-1.3395369
115	0xbd1dc665	-0.038519282
116	0xbd8a013e	-0.06738518
117	0x3e4d080d	0.20022602
118	0xbf04a9e2	-0.5182172
119	0xbe335396	-0.17512354
120	0x3c163729	0.009168425
121	0xbca38a0e	-0.01996329
122	0xbd9d50e5	-0.07681445
123	0xbd6dc3d0	-0.05804807
124	0xbd05c4da	-0.032658435
125	0x3d59f0f8	0.05320832
126	0x3cb59933	0.022167778
127	0xbd611898	-0.054955095
128	0xbca3d76f	-0.020000188
129	0x3e8c3927	0.27387354
130	0x3e8caf8c	0.27477682
131	0xbeb000fc	-0.3437575
132	0xbe6629be	-0.22476861
133	0xbe59405d	-0.21215959
134	0xbaf6b605	-0.0018822557
135	0x3e8366d6	0.25664395
136	0x3e88c49c	0.267125
137	0xbeaa838e	-0.33303493
138	0xbe2c2e94	-0.16814643
139	0xbe0bbea3	-0.13646941
140	0x3ece5d04	0.4030534
141	0x3e0dd60d	0.13851185
142	0xbd90cf2a	-0.070707634
143	0xbef87280	-0.48524857
144	0xbea406f8	-0.32036567
145	0x3ead7ea0	0.3388567
146	0x3df368f3	0.11885252
147	0xbe56337f	-0.20918082
148	0xbea09643	-0.3136464
149	0x3e98b40c	0.29824865
150	0xbe860dd2	-0.2618242
151	0xbeda6af9	-0.4265974
152	0x3ce39103	0.027779108
153	0x3ee062a5	0.4382526
154	0xbc233489	-0.009961256
155	0xbea59b65	-0.3234512
156	0x3e912e72	0.28355747
157	0xbe0d3e60	-0.13793325
158	0x3dbd38c2	0.09239341
159	0xbc7dcc8f	-0.015490665
160	0xbe998224	-0.29982102
161	0xbd8a485a	-0.06752081
162	0x3d56bd33	0.05242653
163	0x3ecf314e	0.40467304
164	0xbe6376e6	-0.22213325
165	0xbec18a86	-0.37800997
166	0xbd2a0177	-0.041505303
167	0x3eebdb18	0.46065593
168	0xbec59b04	-0.3859483
169	0xbeee5d96	-0.46555775
170	0x3e752db9	0.23943223
171	0x3ed360cb	0.41284785
172	0xbdcaf542	-0.099100605
173	0x3ac8cc80	0.0015319735
174	0xbd77aadf	-0.06046569
175	0xbec41f5e	-0.3830518
176	0xbeceffc4	-0.4042951
177	0xbd03a698	-0.032141298
178	0x3eee0a23	0.4649211
179	0xbd22da33	-0.039758872
180	0x3ed29556	0.4112956
181	0x3f7e8ab3	0.9943039
182	0xbeb4a77b	-0.35284027
183	0xbdb045ef	-0.08607089
184	0x3e906eed	0.2820963
185	0xbd22dd47	-0.039761808
186	0x3cd47899	0.025936412
187	0xbe690682	-0.22756389
188	0x3df0c621	0.1175654
189	0x3ea41d85	0.32053772
190	0x3e60e4e5	0.21962316
191	0x3b1cd76a	0.0023932108
192	0xbd99e2e9	-0.07513983
193	0x3c84d38f	0.01621416
194	0x3f008930	0.5020933
195	0xbdd4b1f6	-0.10385506
196	0xbea27e6a	-0.3173707
197	0x3e836904	0.25666058
198	0x3ede89e0	0.43464565
199	0x3aff6851	0.0019486045
200	0x3d3a2dba	0.045453764
201	0x3d335b6e	0.043788366
202	0x3e639b5b	0.22227232
203	0xbe9c5e05	-0.3054048
204	0xbe6adb68	-0.2293526
205	0x3a6eb9bb	0.00091066555
206	0xbe8c65a9	-0.2742131
207	0xbe620954	-0.22073871
208	0x3eb2919b	0.34876713
209	0xbee75cbe	-0.45187944
210	0xbe7b97d6	-0.2456964
211	0x3ea900fa	0.33008558
212	0xbe3ca09e	-0.18420646
213	0xbe991392	-0.29897743
214	0x3f2ed5d1	0.6829501
215	0xbe9f9ac1	-0.31172755
216	0xbc980f48	-0.018561974
217	0xbe9b41bb	-0.30323586
218	0xbddb227c	-0.10699937
219	0x3c259b97	0.010107896
220	0x3ed6f2de	0.41982168
221	0x3a0038f2	0.0004891298
222	0x3ed7c44a	0.42141944
223	0x3e54a54e	0.20766184
224	0x3ea55b81	0.32296374
225	0x3e8e1779	0.27752283
226	0xbc164132	-0.009170817
227	0x3de39e4a	0.111141756
228	0xbd1d8f08	-0.038466483
229	0x3f44ef75	0.7692788
230	0x3e97b868	0.29632878
231	0xbea2f1c1	-0.3182507
232	0x3df3c421	0.11902643
233	0xbea6c5c1	-0.3257275
234	0xbeaab262	-0.3333922
235	0x3e2f637a	0.17127791
236	0x3e970eb2	0.295034
237	0x3e292801	0.16519167
238	0x3ed3b217	0.4134681
239	0xbcb1fb4e	-0.021726277
240	0xbdae0327	-0.08496695
241	0x3e76ed0a	0.2411386
242	0xbeabc4a2	-0.33548456
243	0x3da1a7c9	0.078933306
244	0xbe0e434e	-0.13892862
245	0x3da607b2	0.081069365
246	0xbc871d2a	-0.016493399
247	0x3e2af3be	0.16694543
248	0x3efa80f0	0.48926497
249	0x3e93039b	0.28713688
250	0x3e8ae734	0.2712952
251	0x3ec17745	0.37786308
252	0xbd760cd4	-0.060070828
253	0x3e935013	0.2877203
254	0xbe96c7f4	-0.29449427
255	0xbe5084c5	-0.20363148

fc3.bias f4 [2]
0	0x3ed91398	0.4239776
1	0xbd342f5f	-0.04399049
