data/TennisCritic2.pth (torch_old, 83875 bytes, 9 tensors)

fc1.weight f4 [128, 24]
0.047729302 0.40065393 -0.045891855 0.039218325 0.016474027 -0.22122009 0.052149612 0.12929545
0.014116282 0.26979315 -0.06338466 -0.025819253 0.15704487 -0.08168113 0.04836508 0.029076327
0.016638203 0.15622398 -0.04067216 0.08061856 0.3084692 0.08231502 0.053871475 -0.007690609
0.05836394 -0.0022119936 -0.018264925 0.032058712 -0.10596945 -0.08906662 0.012755444 -0.0561341
0.07347129 0.1506909 -0.025939588 0.014932616 -0.048737448 0.12531972 0.035734814 0.027588129
0.016703354 0.14721648 0.052090734 0.11119624 0.3662273 0.3817805 -0.039411798 -0.010467089
0.0006039366 -0.49850312 0.015341528 -0.009614562 0.14517085 -0.009266527 0.025436899 -0.039942425
0.012569322 -0.52670604 -0.0027411403 -0.15218434 -0.09158984 0.122378826 0.024671065 -0.21832457
-0.027113114 -0.67705184 -0.0649104 -0.006337174 0.08939007 0.10258074 0.047129422 -0.011304366
0.028192474 -0.052593715 -0.022044629 0.19516993 0.07714703 -0.070463814 -0.032491393 0.16255283
0.116083 0.20951906 -0.080724366 -0.03104587 -0.06568174 -0.10522441 -0.126684 0.02664599
0.15663831 0.20854315 0.0012037295 -0.07317852 0.08673971 -0.022538157 -0.14024001 -0.03830656
0.09487517 -0.06498793 0.03426605 0.024583988 -0.000328219 -0.055842135 0.09210959 0.05908363
0.039815433 0.021529404 -0.15437384 0.22587764 -0.0027556214 -0.037262537 -0.14418359 0.12453934
0.09187641 -0.01857112 0.029928599 -0.06490155 0.0031472922 -0.06443757 -0.021475099 -0.034266215
0.0028604113 0.087261185 0.055695232 0.06656679 0.012808161 -0.011074263 -0.048672657 -0.01665088
-0.055097792 0.193484 -0.0149724865 -0.025737837 0.026530959 0.12967753 0.0109566655 0.054851186
-0.016917875 0.22813095 0.044434365 -0.031296086 0.36240092 0.3081991 -0.058053326 0.005098047
0.044708405 -0.016715545 -0.015407899 0.0052297893 -0.37261736 -0.15996426 0.019196892 0.013182203
0.06863693 -0.009639688 0.016651561 -0.014512957 -0.023333598 -0.06719546 -0.0039862623 0.03094081
0.007861595 -0.27821386 0.00084424234 -0.011937598 0.17586917 0.25247625 0.012619712 0.0077846567
0.19873387 -0.09016752 -0.06138623 0.06298219 0.11042526 -0.21599264 0.03967016 -0.023395484
0.17164226 -0.03189164 0.041211855 0.020284837 0.12917818 -0.23182514 -0.054928876 0.0042382614
0.025567183 -0.1470206 0.02057334 0.047328994 -0.18200974 -0.032252908 -0.01569082 -0.046947002
-0.100798845 -0.09252641 -0.02862326 0.04376329 -0.07080945 -0.35896805 0.029343795 -0.04221813
-0.026450437 -0.040544704 -0.05710565 0.061596904 -0.08373586 -0.063700676 0.057026077 -0.06914996
-0.024745416 -0.11744319 0.03777993 -0.03487234 0.15049376 0.46322408 -0.04379152 0.00062470254
-0.0864295 0.28788713 0.039389823 0.024707183 0.09397489 -0.0035970525 -0.044255737 0.002403665
0.010127866 0.21681426 0.057738367 0.008553335 0.043820404 -0.2080042 -0.06969994 0.0071060047
-0.043679897 0.26571667 0.074509226 0.10630441 0.04129823 -0.84546554 -0.08422121 -0.022120241
0.0118011655 0.17323671 0.011197902 -0.1405378 0.012251852 0.01744684 0.020008847 -0.027341012
0.05345839 0.23173708 0.019249072 -0.34034243 0.027764024 -0.067045316 0.021854935 -0.21257016
00000000: cd7f 433d 8322 cd3e 19f9 3bbd 65a3 203d
00000010: 8af4 863c 8587 62be d59a 553d 0766 043e
00000020: fa47 673c 5422 8a3e d1cf 81bd e682 d3bc
00000030: 5fd0 203e 7048 a7bd 761a 463d 7a31 ee3c
00000040: d74c 883c 2ef9 1f3e da97 26bd 581b a53d
00000050: adef 9d3e c794 a83d 56a8 5c3d 8101 fcbb
00000060: 070f 6f3d 18f7 10bb 53a0 95bc ff4f 033d
00000070: 8306 d9bd 8f68 b6bd 36fc 503c dfec 65bd
00000080: 1e78 963d b74e 1a3e 427f d4bc eea7 743c
00000090: eba0 47bd d053 003e ab5e 123d 8000 e23c
000000a0: 79d5 883c ebbf 163e 185d 553d dbba e33d
000000b0: 2582 bb3e bc78 c33e 446e 21bd 277e 2bbc
000000c0: 8051 1e3a cd3b ffbe 085b 7b3c 6586 1dbc
000000d0: aba7 143e a2d2 17bc 0b61 d03c ab9a 23bd
000000e0: 8fef 4d3c 35d6 06bf b4a4 33bb 36d6 1bbe
000000f0: 7493 bbbd c0a1 fa3d f91a ca3c 7a90 5fbe
00000100: 521c debc 4553 2dbf beef 84bd 12a8 cfbb
00000110: 2412 b73d da15 d23d c80a 413d f335 39bc
00000120: e7f3 e63c 826c 57bd f096 b4bc a0da 473e
00000130: 43ff 9d3d 554f 90bd b215 05bd 4074 263e
00000140: edbc ed3d 2a8c 563e d152 a5bd e953 febc
00000150: 2684 86bd e57f d7bd 73b9 01be b148 da3c
00000160: cb65 203e 568c 553e 76c6 9d3a 9fde 95bd
00000170: 97a4 b13d f1a1 b8bc 149b 0fbe 57e7 1cbd
00000180: ea4d c23d 6418 85bd 8f5a 0c3d 5c64 c93c
00000190: cf14 acb9 b9ba 64bd f4a3 bc3d ad01 723d
000001a0: 8215 233d 6f5e b03c 2d14 1ebe 784c 673e
000001b0: a897 34bb 9aa0 18bd dda4 13be 7b0e ff3d
000001c0: b329 bc3d 7622 98bc d22c f53c 1beb 84bd
000001d0: cd42 4e3b d8f7 83bd 8cec afbc bb5a 0cbd
000001e0: bd75 3b3b feb5 b23d af20 643d 2b54 883d
000001f0: 52d9 513c d370 35bc fb5c 47bd 6d67 88bc
00000200: 39ae 61bd ab20 463e 294f 75bc 28d8 d2bc
00000210: 7457 d93c 30ca 043e 9683 333c a3ab 603d
00000220: 5b97 8abc 299b 693e cf00 363d 5330 00bd
00000230: 9d8c b93e 46cc 9d3e 53c9 6dbd 850d a73b
00000240: 2920 373d 0aef 88bc 6a71 7cbc a75e ab3b
00000250: b4c7 bebe accd 23be cd42 9d3c 2bfa 573c
00000260: 8591 8c3d c8ef 1dbc db68 883c c1c7 6dbc
00000270: 1a26 bfbc c69d 89bd 319f 82bb 9577 fd3c
00000280: ebcd 003c 0c72 8ebe 2550 5d3a ea95 43bc
00000290: 0c17 343e 9144 813e e9c2 4e3c 6f16 ff3b
000002a0: e480 4b3e c0a9 b8bd 2170 7bbd cefc 803d
000002b0: a426 e23d 2d2d 5dbe 2d7d 223d e3a7 bfbc
000002c0: fdc2 2f3e cfa0 02bd c3cd 283d 632c a63c
000002d0: 4947 043e 9263 6dbe 1afd 60bd 1de1 8a3b
000002e0: 4572 d13c 918c 16be 6c89 a83c 0cdc 413d
000002f0: c360 3abe a01b 04bd 098a 80bc 804b 40bd
00000300: a06f cebd 7d7e bdbd 547b eabc 2341 333d
00000310: 8b04 91bd a9ca b7be 6662 f03c ebec 2cbd
00000320: 96ae d8bc 3412 26bd 9de7 69bd 094d 7c3d
00000330: b57d abbd 8075 82bd 2d94 693d 7f9e 8dbd
00000340: e6b6 cabc 0e86 f0bd 21bf 1a3d 4cd6 0ebd
00000350: 091b 1a3e b52b ed3e bd5e 33bd 14c3 233a
00000360: f301 b1bd f165 933e 3957 213d b866 ca3c
00000370: e875 c03d 87bc 6bbb 8145 35bd cf86 1d3b
00000380: 59ef 253c 8f04 5e3e 117f 6c3d 4a23 0c3c
00000390: 067d 333d 0eff 54be d8be 8ebd 7dd9 e83b
000003a0: b1e9 32bd 040c 883e 4b98 983d 20b6 d93d
000003b0: 5528 293d 6e70 58bf 2b7c acbd 8235 b5bc
000003c0: ad59 413c f764 313e 6877 373c 24e9 0fbe
000003d0: febb 483c adec 8e3c 98e9 a33c 42fa dfbc
000003e0: 2ff7 5a3d 7c4c 6d3e 3bb0 9d3c 5d41 aebe
000003f0: 6171 e33c 0e4f 89bd 1f09 b33c feab 59be

fc1.bias f4 [128]
0.12329892 -0.10417058 -0.10770753 -0.13006303 0.024891006 -0.08334444 -0.20714483 -0.1100934
-0.09069915 0.12923545 0.009775732 0.3192443 -0.20219354 0.15846297 0.02027397 -0.0068476284
-0.2727661 0.26414058 -0.34396452 0.058620613 -0.23365232 -0.1341511 -0.1999315 -0.106960125
-0.110703826 0.14895554 -0.023955453 0.016249342 -0.2418493 -0.27891314 -0.19362178 -0.03306136
0.060628533 -0.14049229 -0.29251146 0.12192319 0.023941297 0.088402435 -0.15986226 -0.13016321
-0.3021532 -0.088703364 0.1453863 0.005333309 0.102388784 -0.040749103 0.2380217 -0.13428317
0.27386004 -0.10624855 -0.27886596 -0.058792803 0.123642206 -0.20822021 0.0030392224 0.07545568
0.15792935 -0.059262704 -0.084005035 0.10145886 -0.0066759665 -0.10224281 0.01885644 0.08627241
-0.01616627 -0.04741109 -0.0922507 0.08011223 -0.11054173 0.16458315 0.1446095 0.085748956
0.04374803 -0.29065257 -0.19740412 0.1691519 -0.11520247 -0.3202458 -0.21756855 0.06639246
-0.07064943 -0.073667556 -0.014779115 0.21198685 0.107681826 -0.1898282 -0.21943694 -0.122320004
0.17112595 -0.03666115 -0.2867429 0.009558224 -0.14242305 0.00025598527 -0.1698682 -0.13104598
-0.1857171 -0.018781584 -0.12171243 -0.034692056 0.105763815 -0.34826654 0.023161268 -0.14779599
0.08014669 0.09907152 0.059382074 -0.1751013 0.078928575 0.076468825 -0.008318013 0.20853129
-0.09689486 0.14038002 0.028671117 -0.2506305 -0.11883325 -0.03947289 -0.34172782 -0.19479138
0.2064126 0.15059696 -0.045534056 0.1316042 0.18916048 0.018336408 -0.0024905254 -0.06753649
00000000: 2584 fc3d 6357 d5bd c495 dcbd 3e2f 05be
00000010: 39e8 cb3c 7db0 aabd c61d 54be a678 e1bd
00000020: 7ac0 b9bd 4c56 043e 642a 203c fd73 a33e
00000030: d30b 4fbe 1e44 223e 9915 a63c 1262 e0bb
00000040: 00a8 8bbe 6f3d 873e 1e1c b0be 2b1c 703d
00000050: 8e42 6fbe e85e 09be d8ba 4cbe e90d dbbd
00000060: b0b8 e2bd cd87 183e 3a3e c4bc 571d 853c
00000070: 58a7 77be b4cd 8ebe ca44 46be 596b 07bd
00000080: a055 783d 36dd 0fbe 10c4 95be deb2 f93d
00000090: 8a20 c43c 560c b53d efb2 23be 8149 05be
000000a0: d3b3 9abe 1caa b5bd 25e0 143e 0ac3 ae3b
000000b0: 36b1 d13d 88e8 26bd f6bb 733e 8781 09be
000000c0: 6237 8c3e d798 d9bd 85c7 8ebe b9d0 70bd
000000d0: 2038 fd3d ae37 55be b12d 473b 8288 9a3d
000000e0: 3bb8 213e 73bd 72bd d50a acbd aac9 cf3d
000000f0: 11c2 dabb ae64 d1bd d278 9a3c 97af b03d
00000100: 206f 84bc 2232 42bd efed bcbd e111 a43d
00000110: b463 e2bd 7c88 283e 8314 143e 269d af3d
00000120: 2231 333d 6ad0 94be 4e24 4abe 2836 2d3e
00000130: 46ef ebbd 42f7 a3be 4aca 5ebe c5f8 873d
00000140: a6b0 90bd 04df 96bd 1a24 72bc 1513 593e
00000150: 4a88 dc3d 5362 42be 14b4 60be e982 fabd
00000160: a43b 2f3e 012a 16bd f7cf 92be 199a 1c3c
00000170: 59d7 11be c335 8639 eef1 2dbe eb30 06be
00000180: a02c 3ebe d6db 99bc 5e44 f9bd 4219 0ebd
00000190: b39a d83d fe4f b2be b3bc bd3c d557 17be
000001a0: f323 a43d 02e6 ca3d 9e3a 733d c14d 33be
000001b0: 4ea5 a13d b09b 9c3d 4648 08bc 3a89 553e
000001c0: d070 c6bd c8bf 0f3e b1df ea3c a452 80be
000001d0: d95e f3bd 53ae 21bd f3f6 aebe 6477 47be
000001e0: d35d 533e 1736 1a3e eb81 3abd 40c3 063e
000001f0: 49b3 413e 3c36 963c 1538 23bb 9250 8abd

bn1.weight f4 [128]
0.27549005 0.3288129 0.14803164 0.03743695 -0.0101742195 0.3250043 0.43446139 0.2429598
0.5867442 0.6620646 0.348935 0.51331574 0.16060752 0.31898737 0.11246413 0.33708206
0.58984685 0.35282177 0.60324335 0.17544279 0.43218207 0.80549246 0.4957576 0.28313926
0.041608904 0.013815633 0.792463 0.80739176 0.7300389 0.4011437 0.6634294 0.3171191
0.2997839 0.17411572 0.6229523 0.15488262 0.2802026 0.18370828 0.14703391 0.5527438
0.3040929 0.14411476 0.4913465 0.4297285 0.6023303 0.16244625 0.1186802 0.82262343
0.18188633 0.8320177 0.7632018 0.09992886 0.13925654 0.20297389 0.19389243 0.22736758
0.12667695 -0.012778222 0.101393856 0.15128174 0.4071883 0.059434824 0.20437483 0.19439074
0.20408334 0.6105141 0.16300942 0.13373227 0.09077679 0.65174663 0.21251006 0.34387818
0.07322252 0.25246975 0.07513975 0.0899668 0.09192688 0.5160639 0.163843 0.5480668
0.32720205 1.0440124 0.0700178 0.36072204 0.29585862 0.04841341 0.62599975 0.33323115
0.447206 0.15957168 0.64986116 0.17599817 0.2698814 0.3242023 0.95808953 0.43285608
0.07770391 0.09710115 0.051220722 0.34489954 0.45458058 0.32750595 0.14111932 0.0729068
0.19100828 0.49418756 0.002497844 0.30452695 1.0023638 0.87855035 0.106270984 0.4385185
0.6787535 0.62403685 0.20798568 0.1578523 0.43136826 0.75674915 0.6458608 -0.03164995
0.3358586 0.06616151 0.61173564 1.1007328 0.9254413 0.506562 0.24691573 0.08024834
00000000: 080d 8d3e 2a5a a83e 9b95 173e 7d57 193d
00000010: c5b1 26bc f766 a63e b971 de3e 74ca 783e
00000020: de34 163f 117d 293f 9ca7 b23e a968 033f
00000030: 4c76 243e 5052 a33e 9853 e63d 0596 ac3e
00000040: 3400 173f 0ea5 b43e 286e 1a3f 46a7 333e
00000050: f846 dd3e c134 4e3f f1d3 fd3e a1f7 903e
00000060: 196e 2a3d f75a 623c dbde 4a3f 3ab1 4e3f
00000070: d4e3 3a3f b562 cd3e 82d6 293f 6f5d a23e
00000080: 467d 993e 644b 323e cd79 1f3f 8d99 1e3e
00000090: b776 8f3e 061e 3c3e 0f90 163e 9e80 0d3f
000000a0: 11b2 9b3e d292 133e c591 fb3e 6005 dc3e
000000b0: 5232 1a3f 4f58 263e 9b0e f33d 7397 523f
000000c0: 6940 3a3e 1dff 543f 3161 433f 81a7 cc3d
000000d0: 4499 0e3e 63d8 4f3e bd8b 463e 0cd3 683e
000000e0: 9ab7 013e bf5b 51bc 95a7 cf3d 9ae9 1a3e
000000f0: fc7a d03e ee71 733d a347 513e 5e0e 473e
00000100: 39fb 503e a74a 1c3f f1eb 263e 1df1 083e
00000110: 2fe9 b93d ded8 263f 3d9c 593e cd10 b03e
00000120: b0f5 953d b743 813e dfe2 993d 8340 b83d
00000130: 2944 bc3d c41c 043f 76c6 273e 1b4e 0c3f
00000140: 0787 a73e 33a2 853f 7e65 8f3d 8fb0 b83e
00000150: c87a 973e 244d 463d 8541 203f 469d aa3e
00000160: 2ff8 e43e c266 233e 4d5d 263f dd38 343e
00000170: e52d 8a3e d8fd a53e 5b45 753f 509f dd3e
00000180: 3a23 9f3d f8dc c63d d2cc 513d ac96 b03e
00000190: c9be e83e dcae a73e 9581 103e 2950 953d
000001a0: ad97 433e 2706 fd3e deb2 233b f5ea 9b3e
000001b0: 754d 803f ade8 603f 9aa4 d93d 7f85 e03e
000001c0: cac2 2d3f e1c0 1f3f 33fa 543e 09a4 213e
000001d0: 4ddc dc3e 50ba 413f 2257 253f 61a3 01bd
000001e0: a9f5 ab3e b07f 873d b59a 1c3f d0e4 8c3f
000001f0: b9e9 6c3f 0cae 013f 7ad7 7c3e 3e59 a43d

bn1.bias f4 [128]
0.13088255 -0.07676786 0.02344713 -0.1771434 -0.005986502 -0.10197056 0.1418125 0.15320882
-0.11700799 0.17071603 0.19022845 0.28300324 0.08816282 0.21529722 0.008461796 0.16924152
-0.119151644 0.12328305 0.23759031 0.039662756 -0.01367187 0.19475837 -0.033713732 0.077920936
-0.014571647 -0.16464022 0.023620695 0.08295054 0.26693398 0.14971961 0.18898425 0.2508673
0.13920274 -0.0025745356 0.24467838 0.03704362 0.18311976 0.014279446 0.08746326 0.06433913
0.12740588 -0.03142733 0.020831143 0.005954183 0.14563273 0.2197581 0.09193695 0.113974944
0.044623863 0.2303977 -0.021263503 0.055446897 -0.14069428 0.08284347 0.038366806 0.046178132
0.0820521 -0.14263098 -0.049359642 0.09114621 0.010759372 -0.018772624 0.1760587 0.0013059205
0.14397739 0.07264941 0.11969561 -0.00013530595 0.013101588 0.040724684 0.09634734 0.22548157
-0.0029894365 0.11945815 -0.0015775993 0.1345934 0.07350884 0.112093024 0.103917226 0.14054991
0.12938057 0.09554464 0.32001084 -0.18259718 0.11527585 0.03873914 0.15931891 0.21892405
0.15066494 0.168884 -0.039816678 0.051811658 0.19404587 -0.012975533 0.17159213 -0.10737756
0.035048857 0.042522397 -0.1876673 0.20660564 0.052307982 0.12556489 0.068266176 0.10002966
0.10691012 0.12311322 9.50932e-06 0.07745991 0.40101868 0.16535936 0.034779396 0.11431925
0.032040335 0.033677276 0.007470598 0.05746791 -0.045651816 0.095928274 0.1372623 -0.23487188
-0.19271366 0.10831133 0.14814778 0.031032382 -0.12117076 -0.005751494 0.041035708 -0.0902114
00000000: 1306 063e 7838 9dbd 3214 c03c 1465 35be
00000010: 6b2a c4bb f1d5 d0bd 4c37 113e c6e2 1c3e
00000020: e3a1 efbd 2fd0 2e3e 3fcb 423e cde5 903e
00000030: b58e b43d e076 5c3e 58a3 0a3c a64d 2d3e
00000040: c705 f4bd d37b fc3d e04a 733e 6a75 223d
00000050: fbff 5fbc bd6e 473e 6917 0abd 0395 9f3d
00000060: ebbd 6ebc 7297 28be 3080 c13c f9e1 a93d
00000070: 92ab 883e 1950 193e 1685 413e ae71 803e
00000080: 2a8b 0e3e 8ab9 28bb f88c 7a3e 0dbb 173d
00000090: bf83 3b3e 56f4 693c f01f b33d 3cc4 833d
000000a0: b076 023e f2b9 00bd 13a6 aa3c 4f1b c33b
000000b0: bf20 153e 4408 613e 7149 bc3d b26b e93d
000000c0: 83c7 363d 60ed 6b3e cc30 aebc 491c 633d
000000d0: 2912 10be d6a9 a93d 8326 1d3d 4825 3d3d
000000e0: ee0a a83d db0d 12be 562d 4abd ddaa ba3d
000000f0: 1448 303c 0cc9 99bc bb48 343e 6c2b ab3a
00000100: cf6e 133e 37c9 943d f922 f53d eae0 0db9
00000110: 0ba8 563c edce 263d c151 c53d a4e4 663e
00000120: 6cea 43bb 79a6 f43d 73c7 ceba dad2 093e
00000130: cd8b 963d 0791 e53d 8ed2 d43d 51ec 0f3e
00000140: 577c 043e e9ac c33d 76d8 a33e c1fa 3abe
00000150: bf15 ec3d efac 1e3d 7f24 233e a02d 603e
00000160: e947 1a3e edef 2c3e d016 23bd 7638 543d
00000170: f6b3 463e 5497 54bc d9b5 2f3e c4e8 dbbd
00000180: 648f 0f3d f72b 2e3d db2b 40be 6e90 533e
00000190: e540 563d 1594 003e 23cf 8b3d 5adc cc3d
000001a0: b1f3 da3d c922 fc3d 388a 1f37 4da3 9e3d
000001b0: 5252 cd3e f753 293e d774 0e3d 3620 ea3d
000001c0: ba3c 033d 2ff1 093d ebcb f43b 7963 6b3d
000001d0: 66fd 3abd 0b76 c43d 7d8e 0c3e 4182 70be
000001e0: bb56 45be 55d2 dd3d 0db4 173e 9f37 fe3c
000001f0: 6028 f8bd 0777 bcbb 0f15 283d c1c0 b8bd

bn1.running_mean f4 [128]
0.46697628 0.88302296 1.8104264 0.86429083 1.0599872 2.4577274 0.26440203 0.0016862104
1.3087484 0.045019858 2.2310572 2.9495165 0.371105 3.3225255 0.24354193 1.2953072
0.17618258 4.93197 0.26602003 0.29819763 0.7834118 0.43691796 2.3804655 0.09241231
2.310726 2.9377818 4.180471 3.5688488 1.802738 0.16913067 0.1245762 1.2570752
1.2783132 0.61032665 0.9243541 1.153846 1.2572398 0.35155186 3.0814285 3.8377051
0.19420372 0.0022697633 3.0296712 5.7599893 0.40813103 0.101501934 1.6883807 3.7235315
0.4648983 0.18516265 0.770671 1.5261079 0.74396574 0.035622716 2.7126265 2.9551144
1.39659 1.3034091 0.080750674 2.1554163 3.5405717 2.3608365 3.3747652 2.7169101
1.5026059 3.7458036 0.8088971 0.39127484 0.032460168 4.2071567 3.7661314 1.8750349
3.9007883 3.4957995 9.411688e-05 0.0010665668 2.9796848 0.88801235 1.9387741 4.287156
0.041578475 5.2867107 2.033533 3.9401357 4.38142 1.7123655 0.09475375 4.5970783
0.20453161 2.195488 2.702478 0.45343432 0.80598867 1.221472 3.2466166 2.0713325
0.08486498 2.4765906 3.6065767 2.373279 2.3805478 0.4581017 0.6717788 3.8972692
1.4633987 0.22654834 0.68194515 0.06850341 0.3457183 3.0585032 0.062011644 3.0554428
3.8080635 1.0055916 0.63199663 0.13303223 4.0812626 4.170548 0.13697064 2.4778695
2.9010987 1.2878745 0.12268848 4.6803107 0.82030475 4.0070596 0.9484403 3.2303426
00000000: 8417 ef3e cb0d 623f 0dbc e73f 2a42 5d3f
00000010: a9ad 873f 684b 1d40 b45f 873e d503 dd3a
00000020: 1185 a73f be66 383d a4c9 0e40 e1c4 3c40
00000030: 7901 be3e 42a4 5440 0e63 793e a0cc a53f
00000040: 3569 343e b3d2 9d40 c733 883e 5cad 983e
00000050: ad8d 483f b6b3 df3e 8c59 1840 aa42 bd3d
00000060: efe2 1340 9e04 3c40 6bc6 8540 0568 6440
00000070: 1ec0 e63f 9730 2d3e cf21 ff3d d7e7 a03f
00000080: c49f a33f 5e3e 1c3f 78a2 6c3f 3ab1 933f
00000090: 3ced a03f 9bfe b33e 2036 4540 f69c 7540
000000a0: 57dd 463e 4fc0 143b 22e6 4140 d551 b840
000000b0: 8df6 d03e 3fe0 cf3d dc1c d83f 574e 6e40
000000c0: 2607 ee3e 479b 3d3e b24a 453f 8157 c33f
000000d0: 8a74 3e3f 20e9 113d ac9b 2d40 9820 3d40
000000e0: 76c3 b23f 1cd6 a63f 9c60 a53d 57f2 0940
000000f0: ba98 6240 f217 1740 27fc 5740 dbe1 2d40
00000100: 6455 c03f 3fbb 6f40 e113 4f3f 2d55 c83e
00000110: f4f4 043d 07a1 8640 4c08 7140 2501 f03f
00000120: 84a6 7940 2ebb 5f40 9d60 c538 0bcc 8b3a
00000130: 28b3 3e40 c754 633f c029 f83f 6230 8940
00000140: 314e 2a3d bc2c a940 6825 0240 2f2b 7c40
00000150: 9834 8c40 cb2e db3f 410e c23d 441b 9340
00000160: bc70 513e e082 0c40 66f5 2c40 8b28 e83e
00000170: 4655 4e3f 3259 9c3f 91c8 4f40 b690 0440
00000180: b1cd ad3d 7680 1e40 27d2 6640 cee3 1740
00000190: e55a 1840 4e8c ea3e b2f9 2b3f dc6c 7940
000001a0: a650 bb3f 4afc 673e f593 2e3f 844b 8c3d
000001b0: fd01 b13e 84be 4340 ecff 7d3d 608c 4340
000001c0: 50b7 7340 3ab7 803f 88ca 213f 9a39 083e
000001d0: b499 8240 2175 8540 0842 0c3e 6a95 1e40
000001e0: 9aab 3940 12d9 a43f 1944 fb3d 1bc5 9540
000001f0: 7eff 513f d539 8040 fccc 723f efbd 4e40

bn1.running_var f4 [128]
0.9945213 0.62945247 4.508606 4.525644 6.7271204 3.1961546 0.45562294 0.0015478902
0.2933389 0.04042366 11.869713 5.845994 0.9642715 16.07822 0.45471296 5.590899
0.2756249 9.473396 0.38503402 0.8519693 0.71595925 0.32377788 3.2505538 0.096739136
9.831889 13.136572 27.432623 22.750702 6.7190204 0.18717518 0.16097958 1.5912509
2.8140671 0.2668937 1.7642088 7.5028944 5.190274 0.87707675 21.531855 25.26735
0.16158785 0.005438326 3.3123755 9.657025 0.21063733 0.18090944 4.7983236 23.858576
0.6990777 0.13554987 0.2669589 5.183226 1.6201997 0.034465987 11.805468 10.04315
4.791517 10.14902 0.09840295 4.4667053 20.835285 7.563305 18.987766 13.336366
11.381764 23.913448 4.612054 0.6405214 0.03241261 30.810446 24.701036 4.110636
3.861672 23.685797 0.00011706842 0.0014256339 13.528927 0.46571264 4.2565656 29.642925
0.06176735 43.216843 7.0412884 6.1185317 31.692549 9.933734 0.19223332 32.855324
0.28363287 9.128251 14.205091 2.1999917 1.5826513 3.6342146 18.525305 7.7607737
0.15588704 16.40083 12.131641 8.786534 10.30073 1.3673682 2.1448438 32.31914
6.487198 0.62776995 2.484966 0.068251014 0.13689147 16.570568 0.100694984 7.8650093
25.87486 0.40363315 3.1944392 0.16377814 30.221106 28.91858 0.09571747 13.160186
7.519601 6.853151 0.25245827 36.235565 0.2173315 28.106863 5.1135626 13.954965
00000000: f398 7e3f cc23 213f 8046 9040 13d2 9040
00000010: 9244 d740 cc8d 4c40 6947 e93e 94e2 ca3a
00000020: 8430 963e 4893 253d 58ea 3d41 6212 bb40
00000030: 7fda 763f 32a0 8041 23d0 e83e a5e8 b240
00000040: b51e 8d3e 0893 1741 2e23 c53e a91a 5a3f
00000050: 1b49 373f 37c6 a53e 1309 5040 2b1f c63d
00000060: 6b4f 1d41 662f 5241 0376 db41 7001 b641
00000070: 3702 d740 daaa 3f3e d5d7 243e 1cae cb3f
00000080: ad19 3440 4ba6 883e 98d1 e13f b617 f040
00000090: b916 a640 1a88 603f 3d41 ac41 8823 ca41
000000a0: 4977 253e fc33 b23b f6fd 5340 2d83 1a41
000000b0: 50b1 573e 5340 393e de8b 9940 5dde be41
000000c0: c2f6 323f 96cd 0a3e d6ae 883e fddc a540
000000d0: b462 cf3f 352c 0d3d 32e3 3c41 beb0 2041
000000e0: 1b54 9940 6362 2241 7c87 c93d 40ef 8e40
000000f0: aaae a641 9806 f240 f2e6 9741 c161 5541
00000100: b51b 3641 be4e bf41 f295 9340 36f9 233f
00000110: 16c3 043d cb7b f641 b99b c541 558a 8340
00000120: a225 7740 837c bd41 a182 f538 56dc ba3a
00000130: 7c76 5841 e371 ee3e c935 8840 b624 ed41
00000140: c3ff 7c3d 0cde 2c42 3c52 e140 03cb c340
00000150: 578a fd41 93f0 1e41 d0d8 443e da6b 0342
00000160: 5438 913e 510d 1241 0e48 6341 aacc 0c40
00000170: 5194 ca3f f996 6840 d333 9441 4258 f840
00000180: daa0 1f3e e634 8341 341b 4241 a595 0c41
00000190: cacf 2441 ec05 af3f 1f45 0940 cd46 0142
000001a0: 2097 cf40 88b5 203f af09 1f40 30c7 8b3d
000001b0: 472d 0c3e 8690 8441 2c39 ce3d 28ae fb40
000001c0: b7ff ce41 01a9 ce3e b171 4c40 75b5 273e
000001d0: d3c4 f141 4059 e741 8507 c43d 1f90 5241
000001e0: 92a0 f040 034d db40 3642 813e 38f1 1042
000001f0: 268c 5e3e dbda e041 4ea2 a340 8947 5f41

fc2.weight f4 [128, 130]
-0.08690313 -0.06076051 0.010825221 0.15606329 -0.010453459 0.008140988 -0.17389862 0.013254676
-0.0009827754 -0.08577057 -0.06371968 -0.13899079 0.05820007 0.06377206 0.015760839 0.017179778
0.06308833 0.027909849 0.027295738 -0.02290888 -0.050954808 0.0126643805 0.017165033 -0.061444
0.03123076 0.11250792 0.04227377 0.01825469 0.020780502 0.014783991 0.011194175 -0.32083383
-0.058252245 -0.007886384 -0.13072993 -0.10504971 -0.040092282 0.04805208 -0.09256433 -0.047227703
0.04930291 0.003158962 -0.0027602876 -0.040048804 -0.0731206 -0.028983515 -0.12601542 -0.06397248
-0.101021856 0.30253288 0.12060081 -0.16969976 -0.0011759292 -0.10001017 0.09113035 -0.047235485
0.052182503 0.15681107 0.04185026 0.09376403 -0.0857323 0.08587281 -0.2391509 0.015630523
-0.012533253 -0.036836285 -0.1750093 0.019760605 -0.08822143 -0.08011047 0.031237561 -0.23553744
-0.12873325 -0.13801342 0.038006417 -0.07204777 -0.05292108 0.04293584 0.024711056 0.024842976
-0.032289144 0.024646075 -0.15003602 -0.06985125 -0.15026066 0.08904554 0.16201058 -0.021369848
-0.017914826 0.16002598 -0.029582493 -0.0115097705 -0.13456523 0.0050926297 -0.09691802 -0.03966847
0.015100604 0.12027038 0.05941798 0.04235406 -0.11369187 -0.08193998 0.021455968 -0.10653724
-0.004949129 0.09038511 0.20052855 0.12860096 0.06796808 -0.07193824 -0.22601761 -0.006902078
-0.12704311 0.055571806 0.03674154 0.2120454 -0.09608514 0.028916711 0.0054479395 0.1576238
-0.033603605 -0.1733893 -0.23867191 0.048050158 -0.3495039 0.011570901 -0.034096424 -0.06808879
-0.013236952 -0.000835064 -0.10152219 -0.0915198 0.08063856 0.12404581 0.055863325 0.030491386
-0.09805538 -0.059313916 0.07324728 -0.041901052 -0.047437403 0.028367177 -0.20874251 -0.20752601
0.1270788 -0.09426263 -0.049201474 0.016813412 0.021786865 0.09737133 -0.052978598 -0.059882604
0.038786124 -0.062126 0.027739001 0.017888332 0.114216976 0.034818687 -0.12483372 -0.046806462
0.059485648 -0.09565118 -0.032039877 -0.051245447 -0.013545438 0.018021105 -0.20266993 0.1478015
-0.06972812 0.09697949 -0.12443554 0.042651154 0.06519496 -0.006496905 0.13534707 -0.20002581
-0.11409337 -0.08624051 -0.036024164 -0.020832509 -0.0759778 -0.19453914 0.09449068 -0.1254535
-0.01633602 0.05311342 -0.05165057 0.10792061 -0.025351899 0.1637868 0.0045268596 -0.037761405
-0.12201344 0.051975522 -0.023360176 0.123083904 -0.27091575 -0.065023676 -0.06537288 -0.063174926
0.05899787 -0.03952762 0.06832652 -0.193106 0.04572627 -0.05248147 -0.109919 -0.093885876
-0.04499286 -0.0032494774 -0.059156325 0.058394182 -0.13541709 0.013580276 -0.044733807 -0.038582418
-0.102287166 -0.18155983 -0.099423595 -0.19865029 0.03470636 0.0053147874 0.020548353 0.009108977
-0.07280704 -0.12451433 -0.109673336 -0.03347279 0.059298746 -0.026433734 0.15292077 -0.13699022
0.08576139 -0.16230439 0.031122843 0.086984396 0.03832465 -0.09901542 -0.07661812 0.021147966
0.071932755 0.042940725 0.033669274 -0.07791774 -0.0010231751 -0.18170531 -0.027311623 -0.043200593
-0.055643644 0.22364531 0.051259086 -0.018792178 -0.0763287 0.07709029 0.02754588 0.03946042
00000000: 45fa b1bd 03e0 78bd 455c 313c 0ecf 1f3e
00000010: fc44 2bbc c761 053c 7b12 32be 242a 593c
00000020: 78d0 80ba 7ba8 afbd 777f 82bd 9a53 0ebe
00000030: 3263 6e3d ed9a 823d e01c 813c 9bbc 8c3c
00000040: 7434 813d 32a3 e43c 509b df3c 67ab bbbc
00000050: fdb5 50bd 437e 4f3c af9d 8c3c b4ac 7bbd
00000060: a7d7 ff3c 8d6a e63d 4327 2d3d dc8a 953c
00000070: df3b aa3c 8d38 723c c667 373c 5544 a4be
00000080: e899 6ebd e435 01bc 11de 05be 4d24 d7bd
00000090: ce37 24bd 42d2 443d 5e92 bdbd d671 41bd
000000a0: d9f1 493d 9606 4f3b f1e5 34bb 370a 24bd
000000b0: 41c0 95bd d66e edbc 300a 01be 0104 83bd
000000c0: 8ce4 cebd 97e5 9a3e 8ffd f63d c6c5 2dbe
000000d0: a321 9aba 22d2 ccbd 8da2 ba3d ff79 41bd
000000e0: 52bd 553d 1593 203e 2e6b 2b3d 5b07 c03d
000000f0: 6b94 afbd 15de af3d f9e3 74be 950b 803c
00000100: 4658 4dbc a5e1 16bd a335 33be fee0 a13c
00000110: 70ad b4bd f510 a4bd eae5 ff3c ba30 71be
00000120: a6d2 03be 6453 0dbe 9eac 1b3d c88d 93bd
00000130: c6c3 58bd 7edd 2f3d d76e ca3c 7f83 cb3c
00000140: 9f41 04bd 91e6 c93c 0ba3 19be 2c0e 8fbd
00000150: eedd 19be 825d b63d 1ae6 253e d20f afbc
00000160: 1dc2 92bc dadd 233e fc56 f2bc 7a93 3cbc
00000170: 78cb 09be 13e0 a63b f47c c6bd 687b 22bd
00000180: 8668 773c 5150 f63d 4560 733d 737b 2d3d
00000190: 48d7 e8bd 26d0 a7bd 6dc4 af3c 3230 dabd
000001a0: 4e2c a2bb d41b b93d 5b57 4d3e f8af 033e
000001b0: d932 8b3d 5b54 93bd 2971 67be d42a e2bb
000001c0: 9717 02be 439f 633d 4c7e 163d 6e22 593e
000001d0: 49c8 c4bd bde2 ec3c a184 b23b 2268 213e
000001e0: efa3 09bd f78c 31be 6966 74be 3ed0 443d
000001f0: 2df2 b2be e093 3d3c b1a8 0bbd 2372 8bbd
00000200: cddf 58bc 32e8 5aba deea cfbd bc6e bbbd
00000210: d425 a53d bb0b fe3d f1d0 643d 12c9 f93c
00000220: 42d1 c8bd 26f3 72bd ac02 963d 70a0 2bbd
00000230: b94d 42bd 4862 e83c 99c0 55be b381 54be
00000240: f220 023e c40c c1bd 7c87 49bd 48bc 893c
00000250: 5e7a b23c 9f6a c73d 1600 59bd 7647 75bd
00000260: 33de 1e3d d577 7ebd e73c e33c 8d8a 923c
00000270: 97ea e93d 0a9e 0e3d d2a8 ffbd 22b8 3fbd
00000280: 39a7 733d c4e4 c3bd 3f3c 03bd bfe6 51bd
00000290: afed 5dbc ffa0 933c b588 4fbe 4759 173e
000002a0: 9ecd 8ebd 2f9d c63d 0fd8 febd fab2 2e3d
000002b0: ef84 853d fde3 d4bb 6c98 0a3e 91d3 4cbe
000002c0: c9a9 e9bd dd9e b0bd 138e 13bd f0a8 aabc
000002d0: 409a 9bbd 4535 47be 5484 c13d e276 00be
000002e0: 1ed3 85bc 758d 593d 8c8f 53bd 7b05 dd3d
000002f0: c9ae cfbc bab7 273e 0d56 943b b4ab 1abd
00000300: 2fe2 f9bd 49e4 543d d75d bfbc 6a13 fc3d
00000310: 78b5 8abe 222b 85bd 37e2 85bd db61 81bd
00000320: c0a7 713d b7e7 21bd c6ee 8b3d 94bd 45be
00000330: 784b 3b3d cff6 56bd 361d e1bd 3d47 c0bd
00000340: 6f4a 38bd 2ff5 54bb e74d 72bd bd2e 6f3d
00000350: c7aa 0abe ce7f 5e3c cc3a 37bd 9908 1ebd
00000360: ef7b d1bd d2ea 39be 999e cbbd fb6a 4bbe
00000370: 4228 0e3d ab27 ae3b 0555 a83c d23d 153c
00000380: db1b 95bd 5e01 ffbd 6a9c e0bd c41a 09bd
00000390: 3ee3 723d 8f8b d8bc 4397 1c3e 2a47 0cbe
000003a0: aba3 af3d 1f33 26be 55f5 fe3c e024 b23d
000003b0: 4ffa 1c3d 99c8 cabd f6e9 9cbd 803e ad3c
000003c0: 7b51 933d 9de2 2f3d cbe8 093d 5693 9fbd
000003d0: 0f1c 86ba f510 3abe a0bc dfbc 1bf3 30bd
000003e0: 97ea 63bd 4703 653e 0cf5 513d 0ef2 99bc
000003f0: 3952 9cbd 84e1 9d3d e6a7 e13c 40a1 213d

fc2.bias f4 [128]
-0.080757216 -0.11173272 -0.14321524 -0.19752033 -0.16020441 -0.17160177 -0.083723456 -0.09987493
-0.23476386 -0.181099 -0.112136796 0.026916053 -0.078113705 -0.06993882 -0.00078684586 -0.14425297
-0.14377211 -0.14765812 -0.16962916 -0.24044518 -0.22204031 -0.030917037 -0.10368977 -0.19681127
-0.008658243 -0.15709561 -0.14958183 -0.09521106 -0.1803838 -0.09162171 -0.20121656 -0.1026007
-0.16942546 -0.17199579 -0.1774321 -0.096065365 -0.18814763 -0.12027356 -0.012851547 -0.19636664
-0.13311543 -0.07125475 -0.14982668 -0.113805234 0.018994601 -0.04160676 -0.20063518 -0.17809321
-0.23347372 -0.163193 -0.09385468 -0.083997175 -0.09522763 -0.09998388 -0.14589821 -0.1853154
-0.060440537 -0.11347997 -0.1379409 0.00902127 -0.067628756 -0.059498508 -0.18090765 -0.08803445
-0.15494308 -0.14357236 -0.09333139 -0.07335948 -0.12108879 -0.062053435 -0.06851184 -0.1655318
-0.29710636 -0.029116532 -0.11317757 -0.14146365 -0.006454307 -0.070759624 -0.16349708 -0.13052571
-0.16862762 -0.16027807 -0.19382936 -0.15053226 -0.12544176 -0.2070462 -0.16962336 -0.06031323
-0.07236543 -0.08943151 -0.07008849 -0.15487286 -0.13781023 -0.21698855 -0.13856687 -0.040377717
-0.043124616 -0.16688842 0.015557896 -0.081955045 0.030098557 -0.022239428 -0.10613281 -0.06723886
-0.15516983 -0.17854239 -0.10172886 -0.0663694 -0.18606493 -0.14141712 -0.2516401 -0.061155386
-0.069197066 -0.2180159 -0.16847968 -0.10909072 -0.038470536 -0.24758446 -0.17407745 -0.10625592
-0.08464176 -0.17232694 -0.19946727 -0.08812392 -0.12261339 -0.09884517 -0.026343951 -0.09347912
00000000: 0a64 a5bd 20d4 e4bd 04a7 12be c542 4abe
00000010: a00c 24be 60b8 2fbe 3477 abbd 3a8b ccbd
00000020: f065 70be 0472 39be faa7 e5bd 0e7f dc3c
00000030: 14fa 9fbd 163c 8fbd 5544 4eba 0db7 13be
00000040: ff38 13be b133 17be 44b3 2dbe 4337 76be
00000050: 895e 63be ba45 fdbc 4d5b d4bd e588 49be
00000060: 4edb 0dbc acdd 20be fb2b 19be 04fe c2bd
00000070: 88b6 38be 2aa4 bbbd b70b 4ebe 5120 d2bd
00000080: de7d 2dbe aa1f 30be c3b0 35be ebbd c4bd
00000090: c6a9 40be fc51 f6bd 4c8f 52bc 5614 49be
000000a0: 694f 08be 03ee 91bd 2a6c 19be b812 e9bd
000000b0: 919a 9b3c da6b 2abd 4f73 4dbe 115e 36be
000000c0: bc13 6fbe 111c 27be e236 c0bd b606 acbd
000000d0: b406 c3bd 59c4 ccbd 5766 15be 52c3 3dbe
000000e0: 7f90 77bd 3068 e8bd 6140 0dbe f3cd 133c
000000f0: f280 8abd b5b4 73bd db3f 39be 684b b4bd
00000100: 66a9 1ebe a204 13be 8724 bfbd 7f3d 96bd
00000110: 66fd f7bd be2b 7ebd f04f 8cbd 2b81 29be
00000120: 531e 98be cb85 eebc a4c9 e7bd d9db 10be
00000130: a77e d3bb 6cea 90bd c76b 27be 88a8 05be
00000140: b8ac 2cbe ef1f 24be 347b 46be 2125 1abe
00000150: ce73 00be eb03 54be bfb1 2dbe 010b 77bd
00000160: 5434 94bd de27 b7bd 8e8a 8fbd fe96 1ebe
00000170: 201e 0dbe 3f32 5ebe 79e4 0dbe 1b63 25bd
00000180: 70a3 30bd cce4 2abe 8ce6 7e3c 0cd8 a7bd
00000190: 4091 f63c 762f b6bc 295c d9bd 87b4 89bd
000001a0: d7e4 1ebe d1d3 36be 3857 d0bd aeec 87bd
000001b0: ce87 3ebe a6cf 10be f9d6 80be 127e 7abd
000001c0: 31b7 8dbd 8f3f 5fbe f085 2cbe f56a dfbd
000001d0: 4893 1dbd c886 7dbe 5c41 32be b49c d9bd
000001e0: a958 adbd 7976 30be 2641 4cbe 507a b4bd
000001f0: bb1c fbbd 566f cabd 45cf d7bc fb71 bfbd

fc3.weight f4 [1, 128]
-0.051988784 -0.057161365 -0.059545986 0.026512073 -0.11377601 -0.12253166 0.0111416355 -0.009901144
-0.040557742 -0.15692283 -0.08118948 0.017577365 -0.0066093076 -0.073468655 0.009966199 0.06083794
-0.01740069 -0.103233784 -0.055798996 0.043685682 -0.014684388 0.06217475 -0.010390142 -0.031895276
-0.01766821 0.09246904 -0.33017242 0.024959542 0.023662308 0.008131681 0.08060947 -0.0144644175
-0.09768819 -0.016540766 0.06592351 -0.030157886 -0.03407695 -0.0110060135 0.028837962 0.03392152
0.39760455 0.025087124 0.13867632 -0.06436787 0.013486197 -0.0935411 -0.025603637 -0.062084146
0.03404198 -0.052153062 -0.018807199 0.058899764 -0.01740253 -0.024432516 -0.009783464 0.1947426
0.015731726 -0.046232563 -0.023482304 0.015795985 0.018633138 0.031036198 -0.12417452 0.018168649
-0.13199537 0.06730629 0.6993277 0.015050324 0.09924222 0.085010245 -0.01603626 0.0103230765
0.0014111409 -0.021515274 0.034624845 0.066663824 -0.03724193 0.033456508 0.022458868 0.008290138
0.023933763 -0.14486505 -0.12890045 0.014773832 -0.17261939 0.016451113 -0.08097121 -0.011307268
-0.04746987 0.07612585 -0.008148255 -0.16512378 -0.09539152 -0.011819429 0.02067978 -0.5049478
0.044048857 0.042028297 0.034867775 -0.005691756 -0.007998356 0.00398863 0.044667877 -0.050377753
-0.012857227 0.012573806 0.010330884 -0.060917936 -0.11931515 -0.075031914 0.024500411 -0.017371094
-0.06198863 0.18397948 -0.08407752 0.026545804 -0.015353825 0.14348795 -0.081826374 -0.060583737
-0.03684999 -0.09911777 0.10893129 -0.009701707 0.12870914 -0.05871534 0.010230626 0.03161315
00000000: 31f2 54bd 0922 6abd 7ee6 73bd d92f d93c
00000010: 6603 e9bd e1f1 fabd 688b 363c 6838 22bc
00000020: e01f 26bd 61b0 20be ac46 a6bd 68fe 8f3c
00000030: e492 d8bb bc76 96bd 4549 233c 3431 793d
00000040: e48b 8ebc 3c6c d3bd 7d8d 64bd c2ef 323d
00000050: ca96 70bc f3aa 7e3d 6a3b 2abc 9fa4 02bd
00000060: ecbc 90bc 6860 bd3d 5c0c a9be f477 cc3c
00000070: 75d7 c13c be3a 053c 9416 a53d 2afc 6cbc
00000080: bf10 c8bd 8080 87bc e802 873d ac0d f7bc
00000090: 4694 0bbd 9152 34bc 973d ec3c 4bf1 0a3d
000000a0: d392 cb3e 8383 cd3c 2a01 0e3e 4dd3 83bd
000000b0: 36f5 5c3c 7a92 bfbd b8be d1bc f24b 7ebd
000000c0: 9a6f 0b3d 739e 55bd 8e11 9abc e140 713d
000000d0: c08f 8ebc b326 c8bc d24a 20bc 9b6a 473e
000000e0: d2df 803c 5b5e 3dbd f65d c0bc 9566 813c
000000f0: 86a4 983c a03f fe3c 364f febd 6bd6 943c
00000100: cb29 07be e1d7 893d 2407 333f a295 763c
00000110: 813f cb3d da19 ae3d 7a5e 83bc 1f22 293c
00000120: 08f6 b83a cd40 b0bc c8d2 0d3d 0b87 883d
00000130: fe8a 18bd b109 093d a9fb b73c 5cd3 073c
00000140: bd10 c43c 8157 14be 7bfe 03be f10d 723c
00000150: 23c3 30be 7cc4 863c 3cd4 a5bd 1f42 39bc
00000160: c46f 42bd dfe7 9b3d 4280 05bc 3516 29be
00000170: a15c c3bd 47a6 41bc a468 a93c 4244 01bf
00000180: 936c 343d dd25 2c3d 83d1 0e3d e981 babb
00000190: 890b 03bc 0eb3 823b aaf5 363d e758 4ebd
000001a0: 1ea7 52bc 5d02 4e3c de42 293c 1685 79bd
000001b0: 805b f4bd 55aa 99bd 16b5 c83c d34d 8ebc
000001c0: cae7 7dbd 1e65 3c3e d630 acbd 9676 d93c
000001d0: 9c8e 7bbc 81ee 123e 9694 a7bd a726 78bd
000001e0: 04f0 16bd 42fe cabd 5e17 df3d e9f3 1ebc
000001f0: 54cc 033e 7f7f 70bd 5b9e 273c ca7c 013d
