data/TennisActor2.pth (torch_old, 83368 bytes, 10 tensors)

fc1.weight f4 [128, 24]
0	0xbdbb23ee	-0.091377124
1	0xbe7fd8b9	-0.24985017
2	0x3c5ac338	0.013352208
3	0xbd55275b	-0.052039485
4	0x3d935ffb	0.07196041
5	0x3d094d33	0.03352089
6	0xbcb41202	-0.021981243
7	0x3dad05fc	0.08448407
8	0xbd20011e	-0.039063565
9	0xbe906454	-0.28201544
10	0x3c72b657	0.014813981
11	0xbd1b5ea1	-0.037932042
12	0x3e030f6d	0.12798853
13	0xbd873afc	-0.06603047
14	0xbca1cfcb	-0.019752404
15	0x3d088125	0.033326287
16	0xbdc89332	-0.097937
17	0xbe283e1e	-0.16429946
18	0xbcca58ff	-0.02470064
19	0x3e87d416	0.26528996
20	0x3d5d2c0e	0.053997092
21	0xbe502710	-0.20327401
22	0x3c9a763b	0.018855205
23	0x3e78dc65	0.24302824
24	0x3d40d5ff	0.047079083
25	0xbdec7be3	-0.11547067
26	0x3b241efc	0.0025042882
27	0x3ca9771c	0.020686679
28	0xbe115b88	-0.14195073
29	0xbdcbd7f1	-0.09953297
30	0x3c9d3ff5	0.019195536
31	0xbca98f0a	-0.02069809
32	0x3b82268a	0.0039718794
33	0xbd210c87	-0.039318588
34	0x3d780ac5	0.060557146
35	0xb9d351b8	-0.0004030594
36	0xbe7d9f19	-0.24767722
37	0xbe010062	-0.12597802
38	0x3dba8172	0.09106721
39	0xbd91cbae	-0.07118927
40	0x3dd5913d	0.10428093
41	0xbd032ab5	-0.03202315
42	0x3c2e071a	0.01062181
43	0x3df4a172	0.11944856
44	0xbe1c1aac	-0.1524455
45	0xbc9949fe	-0.01871204
46	0x3d8df33c	0.06931159
47	0x3ca8d83c	0.020610921
48	0x3e09c383	0.13453488
49	0x3d8fb1b9	0.0701632
50	0xbd353ef7	-0.0442495
51	0x3c545d5d	0.012961713
52	0x3d81f75e	0.0634601
53	0x3d1af80e	0.03783422
54	0x3cde8370	0.027162284
55	0xbd44825e	-0.04797589
56	0x3d2db689	0.042410407
57	0x3e741b07	0.23838435
58	0x3d3deb59	0.046367023
59	0x3ca031d4	0.01955501
60	0xbc369cde	-0.0111457985
61	0xbe002887	-0.1251546
62	0xbd7de4a3	-0.061985623
63	0x3d5c8191	0.0538345
64	0x3deffa42	0.11717655
65	0x3ea51298	0.32240748
66	0x3ca92374	0.020646788
67	0x3d4628c2	0.048378713
68	0xbe7b6dea	-0.24553648
69	0xbe648595	-0.22316583
70	0xbcf311e4	-0.029671617
71	0xbd927913	-0.07151999
72	0x3dfc05b5	0.12305776
73	0x38f6e2f0	0.000117724645
74	0xbc9cc5b6	-0.019137245
75	0x3dc4aa53	0.09602799
76	0xbdb1cb23	-0.086813234
77	0xbe38d853	-0.18051271
78	0xbd34f005	-0.044174213
79	0x3da9c7c1	0.08290053
80	0x3e2a94d2	0.16658333
81	0x3db9bad5	0.090688385
82	0x3cfe7fa0	0.031066716
83	0xbc341802	-0.010992052
84	0xbe22581f	-0.15853928
85	0xbe2ca000	-0.1685791
86	0x3cdb0bc6	0.026739012
87	0x3d6247b5	0.055244166
88	0x3da01383	0.078162216
89	0xbd9ac5ee	-0.07557283
90	0x3d2fb09c	0.042893037
91	0x3d2019f4	0.03908725
92	0xbe10d0da	-0.1414217
93	0xbc705b79	-0.014670246
94	0x3c4473ca	0.011990497
95	0xbc61dafd	-0.013785121
96	0x3dd49097	0.10379141
97	0x3e35b079	0.177431
98	0x3d0e2783	0.03470565
99	0x3d890e3f	0.0669217
100	0xbde70965	-0.11281089
101	0xbe02bd9d	-0.12767644
102	0x3a803dea	0.0009784077
103	0xbd21f911	-0.03954417
104	0x3e06168a	0.13094535
105	0x3dcb9c21	0.099418886
106	0xbd9c179d	-0.076216914
107	0xbc1986ab	-0.009370486
108	0x3e29c01b	0.16577189
109	0xbe43ba8d	-0.19114132
110	0x3d8a8634	0.067638785
111	0x3d7c4b7e	0.061595432
112	0x3de45e04	0.111507446
113	0x3d4beddf	0.0497874
114	0xbd0de186	-0.034638904
115	0x3e049238	0.12946403
116	0x3ea78a74	0.3272282
117	0xbdbec471	-0.09314812
118	0x3c647441	0.013943733
119	0x3d35829c	0.044314012
120	0xbd393e75	-0.04522558
121	0xbd497e41	-0.04919267
122	0xbc054458	-0.00813397
123	0xbdac9666	-0.08427124
124	0xbd88d07b	-0.066803895
125	0xbd913308	-0.070898116
126	0x3c7e2366	0.015511369
127	0xbda3a524	-0.079904824
128	0x3d17b527	0.037037995
129	0x3a8eb2fc	0.0010887082
130	0x3d87ce4a	0.066311434
131	0xbd8c5263	-0.068516515
132	0xbd71b9a5	-0.059014935
133	0xbe8dbfda	-0.27685434
134	0xbca0d17b	-0.019631138
135	0xbc63bc1c	-0.013899829
136	0xbdfaf89a	-0.12254448
137	0xbe35c0e6	-0.17749366
138	0x3d9b1232	0.0757183
139	0x3c6a1c6f	0.014289006
140	0x3c2cee19	0.010554814
141	0xbeed55a3	-0.46354398
142	0xbcb079c6	-0.021542441
143	0xbd07c2d0	-0.033144772
144	0x3d5aea88	0.053446323
145	0xbd8bfcbc	-0.06835315
146	0xbcf10d59	-0.02942531
147	0xbd773c0e	-0.060360007
148	0x3dbb9f48	0.0916124
149	0xbe059a86	-0.13047227
150	0x3d5f5d90	0.054532588
151	0xbcc4fb22	-0.02404553
152	0x3bfe851c	0.0077673327
153	0xbe206311	-0.15662791
154	0xbc818fa8	-0.015815571
155	0xbcc23dc6	-0.023711096
156	0xbddf5128	-0.10904151
157	0x3df13e6a	0.11779483
158	0x3cdf5f06	0.02726699
159	0xbdda9762	-0.10673405
160	0x3cf637c6	0.030055892
161	0xbd786baf	-0.06064957
162	0xbbf998d1	-0.007617094
163	0x3ced7532	0.028986547
164	0xbebb9470	-0.36636686
165	0x3de43204	0.11142352
166	0x3c782b52	0.015147047
167	0xbd9d6a39	-0.07686276
168	0xbc6e7453	-0.014554101
169	0xbe1ed14f	-0.15509532
170	0xbd9be1a7	-0.07611399
171	0xbe83f51a	-0.25772935
172	0x3d388be4	0.045055285
173	0x3c8ddabb	0.017316213
174	0x3cbe5922	0.023235861
175	0xbe164fa4	-0.14678818
176	0xbd23d779	-0.040000413
177	0xbe8b2937	-0.27179882
178	0xbb369775	-0.0027861272
179	0xbdadfddc	-0.084956855
180	0xbe1198ef	-0.14218496
181	0xbc275036	-0.010211995
182	0xbc6c73c4	-0.014431898
183	0xbd586332	-0.052828975
184	0x3d55aeca	0.052168645
185	0xbeb1e432	-0.34744412
186	0x3c27571b	0.010213639
187	0xbc7f5a18	-0.015585445
188	0xbd951dd9	-0.072810836
189	0xbd98ace0	-0.07454848
190	0xbd790ae3	-0.060801398
191	0x3c543b68	0.012953617
192	0xbbf3ddef	-0.007442228
193	0x3df5197b	0.11967751
194	0x3cfca3d9	0.030839847
195	0xbdc05952	-0.093920365
196	0xbda25799	-0.07926864
197	0xbe04e48b	-0.12977807
198	0xbcf600dc	-0.030029707
199	0x3c8ea5c8	0.017413035
200	0x3b9ae0e7	0.0047265175
201	0x3e085d8f	0.1331694
202	0x3d0eeaa5	0.034891743
203	0xbd6124e2	-0.054966815
204	0x3d3fa333	0.0467865
205	0xbe86aa23	-0.2630168
206	0xbd30caa6	-0.04316201
207	0x3d244388	0.040103465
208	0xbc909efc	-0.017653935
209	0x3e95eb8c	0.2928127
210	0xbca7b65f	-0.020472704
211	0x3d4e6066	0.0503849
212	0xbcca16eb	-0.024669131
213	0xbf075b18	-0.52873373
214	0xbbc7fe16	-0.0061032875
215	0x3c8f1fd2	0.017471228
216	0xbd595160	-0.05305612
217	0xbc1440a6	-0.0090486165
218	0x39bca4a0	0.0003598081
219	0x3d3b1357	0.04567274
220	0xbdac4d19	-0.08413143
221	0x3cc67a4c	0.024228238
222	0x3db1cc52	0.08681549
223	0x3e09cd8c	0.13457316
224	0xbd2ff5e3	-0.042959105
225	0xbdb2e55f	-0.08735155
226	0x3dc0e275	0.09418193
227	0xbd891f87	-0.066954665
228	0xbdb35c44	-0.08757833
229	0x3df977d5	0.12181059
230	0xbbc60014	-0.00604249
231	0x3dadd8bd	0.08488605
232	0xbd8d12ff	-0.06888389
233	0x3d6583e5	0.056033988
234	0x3dd2bc4d	0.10289822
235	0x3e262136	0.16223606
236	0x3e192c95	0.14958413
237	0x3ebe70bb	0.37195382
238	0xbd572fa1	-0.052535657
239	0x3e5ecba2	0.21757367
240	0xbd457b04	-0.04821302
241	0x3d344d09	0.04401878
242	0x3da53f65	0.08068732
243	0xbddd5722	-0.10807635
244	0xbcbbe8c5	-0.022938142
245	0xbdce560f	-0.10075008
246	0x3de7e339	0.11322636
247	0xbe303663	-0.17208247
248	0xbd81b793	-0.06333842
249	0x3c6e2282	0.0145345945
250	0x3d089047	0.03334072
251	0xbe0a68e2	-0.13516572
252	0x3cb9e6c9	0.022693055
253	0xbe3692fc	-0.17829508
254	0x3daf32c1	0.085546024
255	0xbe18c396	-0.1491836

fc1.bias f4 [128]
0	0x3eadcf4a	0.33947212
1	0xbe6e932f	-0.23298334
2	0xbe92e388	-0.28689218
3	0x3d204980	0.039132595
4	0xbe23d5dd	-0.15999551
5	0x3e8d7d94	0.2763487
6	0xbc971c35	-0.018446067
7	0x3da772dc	0.081762046
8	0x3dd1465a	0.102184966
9	0x3e3e1f60	0.18566656
10	0xbe5a1f50	-0.21301007
11	0xbe601725	-0.21883829
12	0x3bbb3b0a	0.005713825
13	0xbea93943	-0.330515
14	0xbd2f8b2d	-0.042857338
15	0x3c072906	0.008249527
16	0xbda84787	-0.08216768
17	0xbdc49051	-0.09597839
18	0xbe74c20f	-0.23902152
19	0xbd832bdf	-0.06404852
20	0xbe122b31	-0.14274289
21	0xbd014850	-0.031563103
22	0x3ece1abc	0.40254772
23	0xbe35790a	-0.17721954
24	0x3e56abee	0.20964023
25	0xbebb6600	-0.36601257
26	0xbe37c95e	-0.17947909
27	0x3dd627ea	0.10456832
28	0xbce5a936	-0.028034788
29	0xbe8d3fe4	-0.27587807
30	0xbde971c6	-0.11398654
31	0x3e206c21	0.15666248
32	0xbdbae24d	-0.09125195
33	0x3e432b63	0.1905952
34	0x3cb01747	0.021495475
35	0xbec8da1d	-0.39228907
36	0x3ee3886a	0.44440013
37	0xbea19915	-0.31562105
38	0xbe966aa9	-0.2937825
39	0x3dac13e5	0.08402232
40	0xbe4d6182	-0.20056728
41	0xbe2a7c8a	-0.1664907
42	0xbd4e2e4e	-0.05033713
43	0xbe3ab967	-0.18234788
44	0xbca6e590	-0.020373136
45	0xbe37c58e	-0.17946455
46	0xbd567b38	-0.052363604
47	0xbcd0dc9f	-0.025495825
48	0xbea171ce	-0.3153214
49	0xbd3ca398	-0.046054453
50	0xbe8538f4	-0.26020014
51	0x3e88df45	0.2673284
52	0xbdbb4d9b	-0.091456614
53	0xbec2a652	-0.38017517
54	0xbe901382	-0.28139883
55	0xbe4aeadc	-0.19816154
56	0x3c9ae900	0.018909931
57	0x3d441caa	0.0478789
58	0x3ce7558c	0.028239034
59	0xbe1dc7a2	-0.15408185
60	0xbcb09807	-0.021556867
61	0x3de08908	0.10963637
62	0x3ac7e874	0.0015251772
63	0xbd66f594	-0.056386545
64	0xbdacb239	-0.08432431
65	0xbe862d06	-0.26206225
66	0x3c34e7f7	0.011041633
67	0xbe89a3ee	-0.2688288
68	0x3e20fd58	0.15721643
69	0xbde44f05	-0.11147884
70	0xbd2734fb	-0.04082201
71	0xbd97a300	-0.07404137
72	0xbdefbcf9	-0.117059655
73	0xbe3cf910	-0.18454385
74	0xbded3159	-0.11581678
75	0xbe9081d1	-0.28224042
76	0xbdb40b23	-0.08791187
77	0xbe7395da	-0.23787633
78	0x3d25fe57	0.04052576
79	0x3e3acbdf	0.18241833
80	0x3d0b2eb8	0.0339801
81	0x3d7a83e1	0.061160926
82	0xbdefcfff	-0.11709594
83	0x3c98db97	0.018659396
84	0xbd756656	-0.05991205
85	0xbe3df2d9	-0.1854967
86	0xbd3ff7b7	-0.0468671
87	0xbdf95a19	-0.12175388
88	0xbdbdda8e	-0.092702016
89	0xbe8527c8	-0.26006913
90	0x3d05a179	0.032624695
91	0x3c54288b	0.012949119
92	0xbe6cc032	-0.23120192
93	0x3e0790e5	0.13238867
94	0x3d2776c6	0.040884756
95	0x3e0f8d75	0.14018805
96	0xbe9b0ce5	-0.30283275
97	0xbd8ab4db	-0.06772777
98	0x3d70a35c	0.05874954
99	0x3e80f20f	0.25184676
100	0xbe69ed49	-0.22844423
101	0xbe11291e	-0.14175841
102	0xbe352ee3	-0.17693667
103	0xbd4960cf	-0.04916459
104	0xbe7cb949	-0.24680056
105	0x3e74beb0	0.23900867
106	0xbd3ac647	-0.04559925
107	0x3de2aa77	0.1106767
108	0xbe6c5831	-0.23080517
109	0x3d363cb1	0.044491474
110	0xbcfd47c6	-0.030918013
111	0xbebd85aa	-0.3701604
112	0x3d157025	0.036483902
113	0xbe347a1c	-0.17624706
114	0x3e10726f	0.14106153
115	0x3da79533	0.08182754
116	0xbed5cc09	-0.4175723
117	0xbd0754df	-0.033039924
118	0xbe00cf4a	-0.12579075
119	0x3e07f423	0.13276725
120	0x3e1cf395	0.15327294
121	0xbe0b1df3	-0.13585643
122	0xbe528d77	-0.20561777
123	0x3e037126	0.12836131
124	0xbe33982f	-0.17538522
125	0x3dfa76a1	0.12229658
126	0xbe6fe09f	-0.2342553
127	0xbd8803d6	-0.06641357

bn1.weight f4 [128]
0	0x3efe678d	0.49688378
1	0x3f4c53b8	0.79815245
2	0x3f907591	1.1285878
3	0x3ee31fff	0.4436035
4	0x3ed037cb	0.40667567
5	0x3f3b2a2c	0.73111224
6	0x3f771b91	0.9652644
7	0x3f6f60ce	0.9350709
8	0x3edc4e2a	0.43028384
9	0x3f5d8f3a	0.8654667
10	0x3ec63772	0.38714176
11	0x3f6bfc17	0.92181534
12	0x3f041aa3	0.51603144
13	0x3e7dd071	0.24786545
14	0x3ef4f475	0.47842756
15	0x3f1b1c14	0.6058972
16	0x3e350ccc	0.17680663
17	0x3f006c1b	0.50164956
18	0x3f70c882	0.9405595
19	0x3f3031dc	0.6882608
20	0x3ed88c16	0.42294377
21	0x3f69dd95	0.9135373
22	0x3e6eb75f	0.23312138
23	0x3f257e41	0.64645773
24	0x3f819de7	1.0126313
25	0x3f59ff4b	0.8515517
26	0x3ea8a8dd	0.32941332
27	0x3ecd17d5	0.40057245
28	0x3f18baaa	0.59659827
29	0x3ebb5c2f	0.36593768
30	0x3f325dc2	0.69674313
31	0x3f96cd7f	1.1781462
32	0x3f540a82	0.82828534
33	0x3f22f85a	0.63660204
34	0x3f55b2d7	0.8347601
35	0x3e8d2c27	0.27572748
36	0x3f3e3ce1	0.74311644
37	0x3fae23ac	1.3604636
38	0x3f3a486f	0.72766775
39	0x3e808982	0.2510491
40	0x3f3d03cf	0.73833936
41	0x3f63d7ef	0.89001364
42	0x3ee140c6	0.4399473
43	0x3f8abf40	1.0839615
44	0x3e7129d9	0.2355112
45	0x3f53227f	0.8247451
46	0x3ed8ae2d	0.42320386
47	0x3f234442	0.6377603
48	0x3e982220	0.29713535
49	0x3f1a857f	0.6035995
50	0x3f201ac7	0.6254086
51	0x3ed6bacb	0.41939387
52	0x3f43a8a7	0.7642922
53	0x3e44f404	0.1923371
54	0x3f034c1e	0.5128802
55	0x3f84adc1	1.0365525
56	0x3f2c5a75	0.67325526
57	0x3f712c56	0.94208276
58	0x3f28ea1c	0.6598222
59	0x3f303f8b	0.6884696
60	0x3f76fa22	0.9647542
61	0x3f0d35b5	0.55160075
62	0x3f1fd2f0	0.6243124
63	0x3f18fc63	0.5976011
64	0x3f81c8b8	1.013938
65	0x3e19a2e8	0.1500355
66	0x3e6d6ed3	0.23186807
67	0x3ee4b15c	0.44666564
68	0x3f567fbe	0.8378867
69	0x3eadefed	0.3397211
70	0x3f4e19f7	0.8050837
71	0x3ec3473f	0.38140294
72	0x3f1979de	0.5995158
73	0x3e60a160	0.2193656
74	0x3f29e4ee	0.66364944
75	0x3f84cfb9	1.0375892
76	0x3f607cd1	0.87690455
77	0x3e4b391a	0.19846001
78	0x3f23e1cc	0.64016414
79	0x3f40bb8c	0.75286174
80	0x3f7e71fe	0.9939269
81	0x3f53b661	0.82700163
82	0x3f6d2703	0.9263765
83	0x3efe9e0a	0.4972995
84	0x3f92bee9	1.1464511
85	0x3f916bd5	1.1361033
86	0x3f811079	1.0083152
87	0x3f0c7178	0.5486064
88	0x3f59d728	0.8509393
89	0x3f9a59cb	1.2058653
90	0x3f11d98c	0.56972575
91	0x3f822099	1.0166198
92	0x3ef33a03	0.47505197
93	0x3f0049c0	0.50112534
94	0x3ea4890f	0.32135817
95	0x3ee4a402	0.44656378
96	0x3f3bcedd	0.73362523
97	0x3eaec871	0.341373
98	0x3e9985db	0.29984936
99	0x3f32b99b	0.6981446
100	0x3f0b9dc8	0.5453763
101	0x3f62e4fc	0.8863065
102	0x3ea9f841	0.33197215
103	0x3f94d418	1.1627226
104	0x3f2e57be	0.68102634
105	0x3f28ea2e	0.6598233
106	0x3f2f5caa	0.6850077
107	0x3eb00ed1	0.34386304
108	0x3f7150d7	0.94263977
109	0x3f520600	0.82040405
110	0x3e905ea2	0.281972
111	0x3f6ca2dd	0.9243601
112	0x3f8ad992	1.0847647
113	0x3ee5638f	0.4480252
114	0x3f350fc6	0.70727193
115	0x3f65b4bb	0.897289
116	0x3ee5d97f	0.448925
117	0x3f8b53b8	1.0884924
118	0x3ec70c01	0.38876346
119	0x3f169db5	0.5883439
120	0x3f73ebd4	0.9528172
121	0x3f11f40b	0.57013005
122	0x3ece6bf4	0.40316737
123	0x3e96caaf	0.2945151
124	0x3f0af7e3	0.54284495
125	0x3ea9d090	0.33166933
126	0x3f5e0103	0.86720294
127	0x3f764275	0.96195155

bn1.bias f4 [128]
0	0x3e8be50f	0.27323195
1	0xbdca9ac0	-0.098927975
2	0x3d8ff776	0.07029621
3	0xbc26e4c9	-0.010186383
4	0x3e1d7ecc	0.153804
5	0x3e23365d	0.15938707
6	0x3d47380d	0.04863744
7	0x3daeb1fd	0.08530042
8	0x3e51b138	0.2047776
9	0xbd392510	-0.04520136
10	0x3e77fb97	0.24217068
11	0x3dd033cc	0.101661295
12	0x3c716305	0.014733081
13	0x3d631f85	0.05544998
14	0xbb270231	-0.0025483484
15	0xbac03804	-0.0014665131
16	0x3d8d356a	0.068949535
17	0x3e2188c9	0.15774836
18	0x3d89b27a	0.06723495
19	0x3ccc4a79	0.024937855
20	0xbac84458	-0.0015279157
21	0xbcf03297	-0.029320998
22	0x3e76f126	0.24115428
23	0x3e10bf0f	0.14135383
24	0xbbbc0a25	-0.005738514
25	0x3dd57362	0.10422398
26	0x3a517ec6	0.0007991608
27	0x3e9504b8	0.29105163
28	0x3e7e5754	0.24838
29	0x3d1c0789	0.038093124
30	0x3dd030ba	0.10165544
31	0x3e2e523c	0.17023557
32	0xbd0b32ed	-0.033984113
33	0x3e1763b0	0.14784122
34	0x3c7e50d3	0.0155222
35	0x3c59fee4	0.0133054
36	0x3ec26123	0.37964734
37	0x3e6eb495	0.23311074
38	0xbbe7d7c8	-0.0070752837
39	0x3dca5f1f	0.09881424
40	0x3d782b6a	0.060588278
41	0x3bf1f31b	0.0073837168
42	0x3db09de7	0.086238675
43	0x3e5127f8	0.20425403
44	0x3e1931be	0.14960381
45	0xbc947357	-0.018121405
46	0x3d0c4a9f	0.03425085
47	0xbd23e6eb	-0.040015142
48	0x3c9494c1	0.018137338
49	0x3e292643	0.16518502
50	0x3b9ecc89	0.00484616
51	0x3cea33aa	0.028589088
52	0x3e054ed9	0.13018359
53	0x3cac2e3d	0.021018142
54	0x3e36be11	0.17845942
55	0x3e472eef	0.19451497
56	0x3e533732	0.20626524
57	0x3e262542	0.1622515
58	0x3de821fa	0.113346055
59	0x3cabd669	0.020976262
60	0x3df33efd	0.118772484
61	0xbd267328	-0.040637165
62	0x3b7bbe32	0.0038412926
63	0x3e17a374	0.14808446
64	0x3dbbe79c	0.09175035
65	0x3d8cccc4	0.068749934
66	0x3ce7d374	0.02829907
67	0x3c251a6b	0.010077099
68	0x3e6e6786	0.23281679
69	0x3dbe4b47	0.09291702
70	0x3e4dc6dc	0.2009539
71	0xbc169a6d	-0.009192091
72	0x3dfd0761	0.12354923
73	0x3e429bf6	0.19004807
74	0x3d179bdc	0.037013873
75	0x3de65182	0.11246015
76	0x3d1e384f	0.03862792
77	0x3d65e8c9	0.056130204
78	0x3df00902	0.11720468
79	0x3db1c438	0.08680004
80	0x3da77739	0.08177037
81	0x3e09aab2	0.13444021
82	0xbaa56f0a	-0.0012621593
83	0xbbdb062b	-0.006684085
84	0x3e310953	0.17288713
85	0x3c9dbe1b	0.019255688
86	0x3e412e95	0.18865426
87	0x3d702b8b	0.058635276
88	0x3e1e5475	0.15461905
89	0x3dba7aee	0.09105478
90	0x3db7c706	0.089735076
91	0x3daa5126	0.08316259
92	0x3db60f35	0.08889619
93	0x3e481d82	0.19542506
94	0x3c42c195	0.011886974
95	0x3e0bd742	0.13656333
96	0x3db4cf83	0.08828642
97	0x3ddb7c5c	0.10717079
98	0x3e2da8bc	0.16958898
99	0x3e18ecab	0.14934032
100	0x3da900fb	0.0825214
101	0xbd560a5e	-0.05225598
102	0xbd03b6b7	-0.032156672
103	0x3e0f80e5	0.14014013
104	0x3c866fb7	0.016410692
105	0x3cc14919	0.023594426
106	0xba5b2c46	-0.0008360784
107	0xbd127898	-0.03575954
108	0x3e04f94a	0.12985721
109	0x3de2b9f7	0.11070626
110	0x3e32765d	0.17427965
111	0x3e281d1e	0.16417357
112	0x3e629bc3	0.22129731
113	0x3c8b339a	0.016992379
114	0x3d83992f	0.06425702
115	0x3d6e3462	0.058155425
116	0x3d91af47	0.071135096
117	0x3e4c6640	0.1996088
118	0x3e12b1a7	0.14325581
119	0x3debff10	0.11523259
120	0x3ea0b4a9	0.31387833
121	0x3db7c980	0.0897398
122	0x3e43316c	0.19061822
123	0x3d8857cd	0.06657372
124	0x3e0cf1d6	0.13764128
125	0xbd2a2a2a	-0.041544117
126	0x3db4686b	0.08808979
127	0x3cd4f90b	0.02599766

bn1.running_mean f4 [128]
0	0x3ffa8728	1.9572496
1	0x3fb1855e	1.3868825
2	0x3a217438	0.00061589805
3	0x3dac29d9	0.08406419
4	0x3b84930e	0.0040458506
5	0x3ec95e38	0.39329696
6	0x3f69da01	0.9134827
7	0x3f81f3f9	1.015258
8	0x3ac61404	0.0015112166
9	0x408cd6ba	4.4012117
10	0x402bcce9	2.6843817
11	0x3d972a17	0.07381075
12	0x3f114b14	0.56755185
13	0x00000004	6e-45
14	0x00000004	6e-45
15	0x00000004	6e-45
16	0x00000004	6e-45
17	0x3fa47b3c	1.2850108
18	0x400584e5	2.0862362
19	0x3d8ab11a	0.06772061
20	0x3a239a34	0.00062409346
21	0x00000004	6e-45
22	0x3f4b2e74	0.79367757
23	0x4028d564	2.6380243
24	0x3e5b0a3f	0.21390627
25	0x3f9958db	1.1980242
26	0x4063605d	3.5527565
27	0x4033fa9c	2.812171
28	0x4003d219	2.0596983
29	0x3e4c5043	0.19952492
30	0x3df2495f	0.11830401
31	0x3f056194	0.5210202
32	0x00000004	6e-45
33	0x3dfaa2fc	0.12238118
34	0x3784b2ac	1.5818827e-05
35	0x3f31cb04	0.694504
36	0x3f04035d	0.5156763
37	0x3f2c3656	0.6727041
38	0x39d07b50	0.00039764727
39	0x4003970c	2.0560942
40	0x395d0292	0.0002107716
41	0x3dbada4a	0.091236666
42	0x3dc16e14	0.09444824
43	0x3ef614ca	0.48062736
44	0x407518ed	3.8296463
45	0x17078824	4.3792686e-25
46	0x3ea8b973	0.32953987
47	0x40605bca	3.5056024
48	0x3d95ccd4	0.073144585
49	0x3e37fbee	0.17967197
50	0x3df400f2	0.11914243
51	0x40db7850	6.8584366
52	0x3fdef7fd	1.741943
53	0x00000004	6e-45
54	0x3f000c22	0.50018513
55	0x3fab3a8e	1.3377244
56	0x401200d6	2.281301
57	0x3f59c57f	0.8506698
58	0x3f9d7b06	1.2303169
59	0x3ec9e3c1	0.39431575
60	0x3df916e1	0.12162567
61	0x3f0ddc3d	0.5541418
62	0x3f8342ca	1.0254757
63	0x3e8a1099	0.26965788
64	0x3f1c39df	0.61025804
65	0x400912eb	2.1417797
66	0x405d0389	3.4533408
67	0x3e1c7d7f	0.15282248
68	0x3ff244de	1.8927267
69	0x3fa5e6c8	1.2961054
70	0x3e12b976	0.1432856
71	0x00000004	6e-45
72	0x3f15cfa5	0.58519965
73	0x3e0a1a47	0.13486587
74	0x3daf7433	0.08567085
75	0x3fa855b9	1.315116
76	0x3b457356	0.003012856
77	0x39cb807a	0.000388149
78	0x4063e5e8	3.5609074
79	0x401396bd	2.3060753
80	0x3cb58c1b	0.022161534
81	0x4000cc4f	2.01247
82	0x38f5f9d1	0.00011729042
83	0x401b7450	2.4289742
84	0x3e9a6045	0.30151573
85	0x3e8911d5	0.26771417
86	0x3f7020af	0.9379987
87	0x3fe7c6fa	1.8107598
88	0x4003d723	2.060006
89	0x00000004	6e-45
90	0x3ddf1d20	0.10894227
91	0x3dfaf958	0.1225459
92	0x3fa23b76	1.2674396
93	0x4014294e	2.315021
94	0x000000b6	2.55e-43
95	0x407cd6b1	3.9506037
96	0x3f508547	0.81453365
97	0x3fa1b7e9	1.263425
98	0x3fb45a14	1.408999
99	0x3fc179c1	1.5115281
100	0x3febf2db	1.8433489
101	0x00000004	6e-45
102	0x3d2286f6	0.03967949
103	0x3fdebf36	1.7402103
104	0x3baf7039	0.005353954
105	0x3d0214ca	0.031758107
106	0x373ce901	1.1259924e-05
107	0x3ebb13ba	0.36538488
108	0x4088b38a	4.2719164
109	0x40422c1c	3.0339422
110	0x3d51f5da	0.051259853
111	0x3fba3e8e	1.455034
112	0x3f6235cb	0.8836333
113	0x3ea00aee	0.3125834
114	0x3e3e5d9c	0.18590397
115	0x40076a9c	2.115882
116	0x3eb504b0	0.3535514
117	0x407cfa8e	3.9527926
118	0x40002154	2.0020342
119	0x3e88c1d2	0.26710373
120	0x40405723	3.0053184
121	0x3ee6efe7	0.45104906
122	0x3fbebaad	1.4900719
123	0x3e9a2c87	0.30112097
124	0x36a15311	4.807844e-06
125	0x3fed95f0	1.8561382
126	0x3ed9457d	0.42435828
127	0x3f1ccade	0.6124705

bn1.running_var f4 [128]
0	0x40a61093	5.189523
1	0x40e6ee32	7.2165766
2	0x3a9bc347	0.0011883759
3	0x3e164153	0.14673357
4	0x3be8732c	0.0070938077
5	0x3f95afbb	1.1694254
6	0x400d22c4	2.205247
7	0x4027814a	2.6172662
8	0x3b93fb18	0.0045160167
9	0x40f55d78	7.6676598
10	0x4144f132	12.308886
11	0x3db62b44	0.08894971
12	0x403b9f74	2.9316072
13	0x00000004	6e-45
14	0x00000004	6e-45
15	0x00000004	6e-45
16	0x00000004	6e-45
17	0x40388b00	2.883484
18	0x40dfbdb5	6.9919076
19	0x3de25c2f	0.11052739
20	0x3aaf6080	0.00133802
21	0x00000004	6e-45
22	0x4006c79f	2.105934
23	0x41202720	10.009552
24	0x3e9ec0ec	0.31006563
25	0x3ffdd2fe	1.9830015
26	0x41159b45	9.350408
27	0x4119a604	9.603031
28	0x408f9e7e	4.488097
29	0x3eca93e5	0.3956596
30	0x3e56486e	0.20926067
31	0x3f9c75a7	1.2223405
32	0x00000004	6e-45
33	0x3e171ff7	0.14758287
34	0x36aded7c	5.1834486e-06
35	0x3f80e53d	1.0069958
36	0x3f3942b3	0.723674
37	0x3f302651	0.68808466
38	0x3a0e73dd	0.0005434135
39	0x408c1f6d	4.378836
40	0x39238f59	0.00015598293
41	0x3e93dc0a	0.28878814
42	0x3e01d701	0.12679674
43	0x3f53bf99	0.8271423
44	0x40938c08	4.6108437
45	0x16030440	1.0583437e-25
46	0x3f4e9fb8	0.8071246
47	0x410f0c12	8.940447
48	0x3df59136	0.119905874
49	0x3e8b00d8	0.2714908
50	0x3e01ec0a	0.12687698
51	0x4168a768	14.540871
52	0x40008486	2.0080886
53	0x00000004	6e-45
54	0x3f725104	0.9465487
55	0x4079c9ae	3.9029346
56	0x404bfa36	3.1871467
57	0x3f9b87c4	1.2150807
58	0x4053d070	3.309597
59	0x3f9181a7	1.1367692
60	0x3dcce1b2	0.100039855
61	0x4007bd67	2.1209352
62	0x40429d12	3.0408368
63	0x3f320b6c	0.6954868
64	0x3fc1b5a6	1.513356
65	0x412bb0e0	10.730682
66	0x418b0b71	17.380587
67	0x3e5cce5f	0.215631
68	0x408bc300	4.3675537
69	0x4039511e	2.895576
70	0x3e1cc91d	0.15311094
71	0x00000004	6e-45
72	0x3fc953b5	1.572867
73	0x3e8ac383	0.2710229
74	0x3dcec6c2	0.10096504
75	0x3fee8f40	1.8637466
76	0x3b854719	0.0040673134
77	0x392df389	0.0001658929
78	0x40f07d31	7.515282
79	0x41594951	13.5803995
80	0x3c9d29a7	0.0191849
81	0x40bf0cf6	5.970332
82	0x38590114	5.1737836e-05
83	0x410dc67b	8.860957
84	0x3f3e9689	0.7444845
85	0x3ea4bbb8	0.32174468
86	0x403291af	2.7901418
87	0x40c4d5d7	6.1511035
88	0x4008de35	2.1385624
89	0x00000004	6e-45
90	0x3e26ebab	0.16300838
91	0x3e39270a	0.18081298
92	0x406062af	3.5060232
93	0x410fc545	8.9856615
94	0x0000002d	6.3e-44
95	0x41f38a56	30.442547
96	0x4066c2b3	3.6056335
97	0x40ede0c4	7.433687
98	0x4080555f	4.0104213
99	0x40dce590	6.903023
100	0x403ea1e6	2.9786315
101	0x00000004	6e-45
102	0x3d22b7a6	0.039725922
103	0x40bbc125	5.867327
104	0x3bee2deb	0.0072686574
105	0x3cd7bc4b	0.026334902
106	0x35e31fa3	1.6922025e-06
107	0x3f9b355c	1.2125659
108	0x40cf11c9	6.470921
109	0x40de2d62	6.94304
110	0x3daa0b53	0.08302941
111	0x40047696	2.069738
112	0x40264e51	2.59853
113	0x3f1d4890	0.61438847
114	0x3ea5694f	0.32306907
115	0x40c89183	6.2677627
116	0x3f364553	0.7119953
117	0x414424f2	12.25902
118	0x3ff14eb7	1.8852147
119	0x3f5e29b6	0.86782396
120	0x41125543	9.145816
121	0x3f34d757	0.7064108
122	0x407ded2f	3.9676015
123	0x3f6db7e9	0.9285875
124	0x361eab7d	2.3643654e-06
125	0x4128e492	10.555803
126	0x3f10b401	0.56524664
127	0x3fb5b5b5	1.4196078

fc2.weight f4 [128, 128]
0	0xbd398aff	-0.045298573
1	0xbc4a431e	-0.012345104
2	0x3bd9639a	0.006634188
3	0x3dae514e	0.085116014
4	0xbc830d15	-0.015997449
5	0xbd73c9ae	-0.05951851
6	0xbb83f590	-0.004027076
7	0x3cf2ea45	0.029652724
8	0x3d52cb3d	0.051463354
9	0xbd926469	-0.07148058
10	0xbd2d82d2	-0.042361088
11	0xbdaf626a	-0.08563693
12	0xbe1642a8	-0.14673865
13	0x3d29eae2	0.041483767
14	0x3c1a9d5e	0.009436933
15	0x3dc289b9	0.09498925
16	0x3dd9e715	0.106397785
17	0x3e568eea	0.20952955
18	0x3c86e91a	0.016468573
19	0x3b850955	0.0040599504
20	0xbe68d974	-0.22739202
21	0xbd1d074f	-0.03833705
22	0x3d614aa8	0.05500284
23	0xbe845948	-0.25849366
24	0x3ccaa855	0.02473847
25	0x3c03d90c	0.0080473535
26	0x3e19157f	0.14949606
27	0xbdcaa4f9	-0.09894747
28	0x3e8e19ff	0.27754208
29	0x3e94b6e6	0.2904579
30	0xbe98c2ac	-0.29836023
31	0x3e254eb3	0.16143303
32	0x3c3befc7	0.011470742
33	0x3ee66652	0.4499994
34	0x3d16e163	0.03683604
35	0x3e9322a9	0.2873738
36	0x3dca9eed	0.09893594
37	0xbe1167f6	-0.14199814
38	0xbd33d3d6	-0.043903194
39	0x3dabf95d	0.08397172
40	0x3d933965	0.071886815
41	0x3c183225	0.009289299
42	0x3d34314f	0.043992337
43	0x3e6ec046	0.23315534
44	0xbd57e65b	-0.05270992
45	0xbd37efb8	-0.044906348
46	0x3bca8ac9	0.0061810953
47	0x3cf92498	0.030412957
48	0x3dde4d11	0.10854543
49	0x3e3d4fce	0.18487474
50	0x3e49e7e4	0.19717366
51	0x3e05c833	0.13064651
52	0xbe110e5a	-0.14165631
53	0x3d4ecef2	0.050490327
54	0x3ce48cfc	0.027899258
55	0x3cd6a537	0.026201827
56	0x3e160bb5	0.14652903
57	0xbe13f114	-0.14447433
58	0x3e9dab38	0.30794692
59	0x3e74cb3d	0.23905654
60	0x3e9ea693	0.3098646
61	0xbd4edf4c	-0.05050592
62	0xba5d35c3	-0.0008438492
63	0x3db16586	0.08661942
64	0x3da4d8b5	0.08049146
65	0x3dd29a2f	0.102833144
66	0xbd93d0bb	-0.072175466
67	0x3d866407	0.065620475
68	0x3df40696	0.11915319
69	0x3dfa5441	0.122231014
70	0xbdf5d6e8	-0.12003881
71	0x3d3d4965	0.046212573
72	0x3e4cc973	0.19998722
73	0xbc77465b	-0.015092458
74	0xbd94257c	-0.07233712
75	0x3d74a029	0.059723053
76	0x3dcf2ed1	0.101163514
77	0x3e110941	0.14163686
78	0xbe003345	-0.12519558
79	0x3dcf36cb	0.10117873
80	0x3dbb8cb6	0.09157698
81	0xbe333e6d	-0.17504282
82	0x3d6f1d7d	0.05837773
83	0xbe215d9f	-0.1575837
84	0x3ee376ed	0.4442667
85	0x3dcf357d	0.10117624
86	0xbd6ebf8a	-0.058288135
87	0xbd49376b	-0.049125116
88	0x3d496db4	0.049176887
89	0x3e94ebe8	0.29086232
90	0xbdf39e43	-0.118954204
91	0x3eb0a094	0.3449751
92	0x3dbdb8ec	0.09263787
93	0x3e272f45	0.16326626
94	0xbc23493c	-0.009966191
95	0x3da6dfb4	0.08148137
96	0x3e89fcf0	0.26950788
97	0xbe12c792	-0.14333943
98	0x3d823cc6	0.06359248
99	0x3d9f65c9	0.07783086
100	0x3dac8dd0	0.08425486
101	0x3dae8aa4	0.08522537
102	0x3c70be33	0.0146937845
103	0xbe6bf6a7	-0.23043309
104	0x3cd24ba9	0.025670843
105	0x3d93f674	0.072247416
106	0x3e44e859	0.19229259
107	0xbd4c5ad2	-0.0498913
108	0xbe96e11e	-0.29468626
109	0x3a3cd59b	0.00072034606
110	0x3c5dedc4	0.013545457
111	0x3dccab0e	0.099935636
112	0x3cbcfe35	0.023070434
113	0xbdd78d9e	-0.10525058
114	0xbdc573f8	-0.0964126
115	0xbcc4d688	-0.024028078
116	0x3ddc78d8	0.107652366
117	0xbd6c8c3d	-0.05775093
118	0x3ecbacf8	0.39780402
119	0x3e930586	0.28715152
120	0xbea59e5e	-0.32347387
121	0xbbfbe83c	-0.0076875966
122	0xbdfeeeaa	-0.12447865
123	0xbda5572b	-0.080732666
124	0x3da760fb	0.081727944
125	0x3e92f8b5	0.28705373
126	0x3e099ae8	0.13437998
127	0xbdd0e938	-0.10200733
128	0xbdf8c4de	-0.121469244
129	0xbcdb56fb	-0.026774874
130	0x3d95f1cf	0.07321512
131	0xbd4bb209	-0.049730334
132	0xbd52424b	-0.051332753
133	0xbd97a4c5	-0.07404474
134	0xbdcde7cf	-0.100539796
135	0x3dc8c21b	0.09802648
136	0x3cec9374	0.028878905
137	0xbd9dad1c	-0.076990336
138	0xbe38cdff	-0.18047331
139	0xbdf69730	-0.120405555
140	0xbe296022	-0.16540578
141	0xbcd0111c	-0.025398783
142	0xbb1d34b7	-0.002398772
143	0x3d5eef49	0.05442742
144	0xbd967aa2	-0.07347609
145	0xbcf6b3bb	-0.030114999
146	0x3d0ead16	0.034833036
147	0x3d7a7047	0.061142232
148	0xbda8a96a	-0.08235438
149	0xbc9754e1	-0.01847309
150	0x3cbf58f8	0.023357853
151	0xbcdc4b64	-0.026891418
152	0xbe0557a3	-0.13021712
153	0x3e2ac1b5	0.16675456
154	0x3d29903b	0.041397315
155	0x3e38f9bb	0.18064015
156	0x3e8292b9	0.25502566
157	0x3e2edb4b	0.17075841
158	0xbe4373d4	-0.19087154
159	0x3dd444a4	0.10364655
160	0x39f00e8a	0.000457872
161	0x3e9bcbea	0.30429012
162	0xbc4f1a25	-0.012640511
163	0xbbfe70e4	-0.0077649225
164	0x3d8f5b40	0.069998264
165	0xbe180a55	-0.14847691
166	0xbb558d2e	-0.003258537
167	0x3cc27a4b	0.023739954
168	0xbd493114	-0.04911907
169	0x3daeb8a2	0.0853131
170	0x3bb35531	0.005472802
171	0x3e4079eb	0.18796508
172	0xbd68c57a	-0.056828953
173	0xbd22c5a6	-0.039739273
174	0xbd95d720	-0.073164225
175	0xbc34319f	-0.010998159
176	0x3db95350	0.09049094
177	0xbdb20abf	-0.08693456
178	0xbd2474bd	-0.040150393
179	0xbd9eb273	-0.0774888
180	0xbed06a13	-0.40705928
181	0xbd238be2	-0.039928325
182	0x3d9a9837	0.07548564
183	0xbdb71783	-0.089400314
184	0xbc9a9b88	-0.018872991
185	0x3e35d11b	0.17755549
186	0x3e3dd35d	0.1853766
187	0xbd208c09	-0.039196048
188	0x3e8cad62	0.2747603
189	0xbd87e149	-0.066347666
190	0xbbdab4cf	-0.006674386
191	0xbc55437b	-0.013016577
192	0x3db3e7c2	0.08784439
193	0xbdff78e4	-0.1247423
194	0x3d29b821	0.041435365
195	0xbdf62b01	-0.12019921
196	0x3d7fea60	0.062479377
197	0x3b0db091	0.0021620134
198	0xbda672b3	-0.08127346
199	0xbaf40e65	-0.0018620013
200	0x3df6d84d	0.12052975
201	0xbd312548	-0.043248445
202	0xbcb61866	-0.022228431
203	0xbdc0d933	-0.094164275
204	0xbd81ee8b	-0.063443266
205	0xbd4d7ebe	-0.0501697
206	0xbe6e45b9	-0.23268785
207	0x3d50f38c	0.051013514
208	0xbceb1ac8	-0.028699294
209	0xbe0188a7	-0.12649785
210	0x3e0936bb	0.13399784
211	0xbe584a42	-0.21122077
212	0x3e64db9f	0.22349404
213	0x3e3c5fe1	0.1839595
214	0xbdcdef9b	-0.10055467
215	0xbde2184d	-0.11039791
216	0xbd89dd77	-0.06731694
217	0x3e36f0c7	0.17865287
218	0xbdf9a82f	-0.121902816
219	0x3e2989f0	0.16556525
220	0xbdce7a0b	-0.100818716
221	0x3cd51667	0.026011659
222	0xbdd63994	-0.10460201
223	0x3c88f3e7	0.016717864
224	0x3e364286	0.17798814
225	0xbe0176be	-0.12642953
226	0x3dbd587a	0.09245391
227	0xbce8e4a2	-0.028429333
228	0x3c38a478	0.011269681
229	0x3bc8b042	0.006124527
230	0xbdf14617	-0.11780947
231	0xbd9aff39	-0.07568211
232	0x3c8a0949	0.01685013
233	0x3c93a9e0	0.018025339
234	0x3de642b8	0.11243194
235	0xbdbf8324	-0.09351185
236	0xbe6fc117	-0.23413502
237	0x3a6a165c	0.00089297234
238	0xbdf09612	-0.11747374
239	0x3e207b5f	0.15672062
240	0xbca2e770	-0.019885749
241	0xbdf47a31	-0.11937369
242	0xbab8ff9f	-0.0014114267
243	0x3d2e0a41	0.042490248
244	0x3cf93055	0.030418554
245	0xbccbc5ae	-0.024874534
246	0x3e12ebb3	0.14347725
247	0x3e118129	0.14209427
248	0xbea2a388	-0.3176539
249	0x3c898a01	0.016789438
250	0xbe92a6f2	-0.28642994
251	0xbd05e4d2	-0.032688923
252	0x3d8d7421	0.069069155
253	0xbd7e00f1	-0.062012617
254	0x3d869d94	0.065730244
255	0xbdaad5ac	-0.08341536

fc2.bias f4 [128]
0	0x3d7b711b	0.061387163
1	0xbd9828fb	-0.074296914
2	0x3d4e6188	0.05038598
3	0x3c73f781	0.0148905525
4	0x3b8f8e56	0.0043809814
5	0xbd98207e	-0.074280724
6	0x3ddad51d	0.106851794
7	0x3dc99139	0.09842152
8	0xbc8206d8	-0.015872404
9	0x3dbcba98	0.092152774
10	0x3d57b414	0.05266197
11	0xbd7cc24b	-0.06170873
12	0xbd72e138	-0.059296817
13	0xbda6d960	-0.0814693
14	0x3db763aa	0.08954556
15	0x3dcc5029	0.09976227
16	0xbd80d31f	-0.06290268
17	0xbd4e425d	-0.050356258
18	0x3d44dcaa	0.048062004
19	0x3c799402	0.015233042
20	0x3db30de4	0.08742884
21	0x3d1d192d	0.038354088
22	0xbd87a299	-0.0662281
23	0xbd271ef0	-0.04080099
24	0xbe15b5df	-0.1462016
25	0x3bb1e3e2	0.005428777
26	0x3d322433	0.043491554
27	0x3cc40fce	0.023933318
28	0x3cf287b1	0.029605718
29	0xba938a59	-0.0011256441
30	0x3dc458a0	0.095872164
31	0xbd7b1873	-0.061302613
32	0xbc32e97c	-0.010919925
33	0x3cd16091	0.025558742
34	0x3de299c2	0.11064483
35	0x3e088f31	0.13335873
36	0x3d292e2c	0.0413038
37	0xbdfca666	-0.123364255
38	0xbd289e3e	-0.041166537
39	0x3d8013df	0.0625379
40	0xbacdb869	-0.0015695217
41	0x3ddf8d3d	0.10915611
42	0xbd740d79	-0.05958316
43	0xbb6a5838	-0.003575815
44	0x3cab7abb	0.020932546
45	0xbcbf60ff	-0.023361681
46	0x3dcde25a	0.10052939
47	0x3bf7088b	0.00753886
48	0x3d099be4	0.033595935
49	0xbd6fbb8a	-0.05852846
50	0xbdfee158	-0.12445325
51	0xbb139fc1	-0.002252564
52	0x3deab65e	0.11460565
53	0x3d448db0	0.047986686
54	0x3dcc242d	0.099678375
55	0x3c2a012b	0.010376255
56	0x3cf4e00c	0.02989199
57	0x3e1faa2a	0.15592256
58	0x3d019b43	0.03164221
59	0xbd2c082a	-0.041999973
60	0xbce3a02e	-0.02778634
61	0xbdfe99d5	-0.12431685
62	0xbdc69f4c	-0.09698352
63	0xbdf4205b	-0.11920234
64	0xbc518d37	-0.012790016
65	0x3d0f433b	0.034976225
66	0x3debcc2f	0.11513554
67	0x3cb05ad9	0.021527695
68	0xbb964027	-0.0045852843
69	0xbdb237be	-0.08702038
70	0x3c76b905	0.0150587605
71	0x3e0b8dbb	0.13628285
72	0xbd8d89be	-0.06911038
73	0x3d12a256	0.035799347
74	0xbd0693af	-0.032855686
75	0xbd244f20	-0.040114522
76	0xbdb43b3a	-0.08800359
77	0xbd8a5762	-0.06754948
78	0xbd9ac90c	-0.07557878
79	0x3db3c624	0.08778027
80	0x3dbd443e	0.09241532
81	0xbb1cbdb0	-0.0023916773
82	0xbcdee0f7	-0.027206881
83	0x3e19ab26	0.15006694
84	0x3cc89ebe	0.024489757
85	0xbb6ec16d	-0.0036431209
86	0x3c10fb82	0.008849027
87	0xbdf09a1c	-0.11748144
88	0x3cf76f6a	0.030204494
89	0x3d96211e	0.07330535
90	0x3df0469f	0.1173222
91	0xbd5fe2f5	-0.054659802
92	0x3c6d4aca	0.014483163
93	0x3d86c91b	0.065813266
94	0xbd6cbc53	-0.057796787
95	0xbd8142de	-0.06311582
96	0xbc8c2364	-0.01710672
97	0xbd700644	-0.058599725
98	0xbdf75b85	-0.12078003
99	0xbd5b5149	-0.053544316
100	0xbe5e0663	-0.21682124
101	0x3d7137fe	0.05889129
102	0xbcc559ef	-0.024090735
103	0x3d3de96d	0.04636519
104	0xbd7ef7ce	-0.062248044
105	0xbdcec149	-0.1009546
106	0x3e522306	0.20521173
107	0x3c603305	0.013684039
108	0xbd4cb185	-0.049973983
109	0xbdb9a74c	-0.090651125
110	0x3a5a3b62	0.0008324889
111	0xbcdc3484	-0.02688051
112	0xbc932238	-0.017960653
113	0x3d936555	0.07197062
114	0x3d4adf92	0.04952962
115	0x3cb5ca51	0.022191199
116	0x3e296e70	0.16546035
117	0x3a28de0a	0.0006441778
118	0x3ced9892	0.029003415
119	0xbbcd7161	-0.0062696193
120	0xbb82bc57	-0.003989737
121	0xba7c3ff9	-0.000962257
122	0x3d7e3946	0.06206634
123	0x3db6edb5	0.08932058
124	0xbd1540a2	-0.03643859
125	0xbc687b00	-0.014189482
126	0x3d67193d	0.056420553
127	0xbdc94466	-0.09827499

fc3.weight f4 [2, 128]
0	0x3b9fb03a	0.0048733028
1	0xbcaf5f06	-0.021407615
2	0xbd50db86	-0.050990604
3	0xbd161cac	-0.036648437
4	0xbe8a57f1	-0.2702022
5	0xbd8b3021	-0.06796289
6	0xbee7d21f	-0.45277497
7	0xbc4f0970	-0.012636527
8	0x3dc99c7d	0.09844301
9	0x3e0bfeb2	0.13671377
10	0xba76718a	-0.0009401074
11	0x3e031ab2	0.12803152
12	0x3abff115	0.0014643992
13	0x3dcf514b	0.10122927
14	0x3e39644d	0.18104668
15	0xbde9b4bc	-0.114114255
16	0xbd8faf62	-0.070158735
17	0x3d7b6068	0.061371237
18	0xbc94cc92	-0.018163953
19	0xbf16dba3	-0.5892889
20	0x3e1ead59	0.15495814
21	0xba2fa8cc	-0.0006700873
22	0xbdb539b2	-0.08848895
23	0xbdb0a6a7	-0.086255364
24	0xbe279b05	-0.16367729
25	0x3d98c2ee	0.07459055
26	0xbd63e822	-0.0556413
27	0xbd36c090	-0.044617236
28	0xbe565723	-0.20931678
29	0x3db982a2	0.09058119
30	0xbd2ac7bc	-0.041694388
31	0x3d8d9f28	0.06915122
32	0xbe8af550	-0.27140284
33	0xbe5c49e7	-0.21512567
34	0x3e0b8e29	0.13628449
35	0xbaebdce9	-0.0017994914
36	0xbea3c87a	-0.3198889
37	0xbd4e7a51	-0.05040962
38	0xbd91fe27	-0.07128554
39	0xbcf46d38	-0.029837236
40	0xbaf94426	-0.0019017502
41	0x3e26fe61	0.16307975
42	0xbd9a8bb8	-0.075461805
43	0xbd1d99d1	-0.03847677
44	0xbc303af5	-0.010756244
45	0xbe0e4b5f	-0.1389594
46	0x3e02bf55	0.127683
47	0xbd28310f	-0.04106241
48	0xbd184d3d	-0.037183035
49	0xbdb8bfe8	-0.09020978
50	0xbe8882d9	-0.2666233
51	0xbde4dd30	-0.11175001
52	0xbc524c0d	-0.012835515
53	0x3c155cbf	0.009116351
54	0x3e02b689	0.12764944
55	0xbdb47255	-0.088108696
56	0xbd8a4969	-0.06752283
57	0x3c911788	0.017711416
58	0xbd6a00df	-0.057129737
59	0xbdc83c57	-0.09777134
60	0xbe895459	-0.26822165
61	0xbe8410fe	-0.25794214
62	0xbdcff8a6	-0.10154848
63	0xbd27fe9d	-0.041014303
64	0xbdb0e0f0	-0.086366534
65	0xbd137dc1	-0.0360086
66	0xbf14eccf	-0.5817384
67	0xbd5e7d6d	-0.054318834
68	0xbc29d394	-0.010365386
69	0xbdb8ab5a	-0.09017058
70	0x3dbf928b	0.09354123
71	0xbdecaaca	-0.11556013
72	0xbd9bbd47	-0.07604461
73	0xbd684717	-0.05670842
74	0xbdf52f6f	-0.11971938
75	0xbd04b315	-0.03239735
76	0xbcb67770	-0.02227375
77	0xbc9092d9	-0.017648147
78	0xbd23b312	-0.039965697
79	0x3e015731	0.12630917
80	0x3e30bd27	0.17259656
81	0xbd741df2	-0.05959887
82	0xbd3f0032	-0.046631046
83	0xbeb9c395	-0.3628203
84	0xbda7afe2	-0.08187844
85	0xbee5e190	-0.44898653
86	0x3c932bdb	0.017965248
87	0xbe3b0e5d	-0.18267198
88	0xbd6b6fcc	-0.057479665
89	0x3ba963be	0.005169361
90	0xbf6f2978	-0.9342265
91	0xbd7cdad4	-0.06173213
92	0xbf426867	-0.75940555
93	0x3e1438cf	0.14474796
94	0xbe609316	-0.21931109
95	0xbc6942fd	-0.014237163
96	0xbd366c23	-0.04453672
97	0xbd59bed8	-0.05316052
98	0xbdebb4ce	-0.11509095
99	0xbda1e18b	-0.07904347
100	0x3ece8466	0.40335387
101	0x3d8449d0	0.06459391
102	0xbe04f350	-0.12983441
103	0xbd262fdc	-0.040572986
104	0xbe173f91	-0.14770342
105	0xbd55f41f	-0.052234765
106	0xbf520d9f	-0.82052034
107	0xbd52db28	-0.051478535
108	0xbd19c33a	-0.0375397
109	0xbd90f075	-0.070771135
110	0xbd83f80b	-0.06443795
111	0xbd802f25	-0.06258992
112	0xbd21ae1a	-0.039472677
113	0x3d9960aa	0.0748914
114	0x3daba4d7	0.0838105
115	0x3b97c666	0.0046318052
116	0xbecb2181	-0.39674
117	0xbd165399	-0.03670082
118	0xbe0fe960	-0.14053869
119	0xbcc7ec43	-0.02440465
120	0xbd1e578c	-0.03865771
121	0x3e060931	0.13089444
122	0xbe0c4ed3	-0.13701944
123	0x3e18f926	0.14938793
124	0xbdcdbd11	-0.10045827
125	0xbc19ce90	-0.009387627
126	0xbe4e96a4	-0.20174652
127	0xbd8242d5	-0.063604034
128	0x3f35e048	0.7104535
129	0x3e8b8a8a	0.27254134
130	0x3e829b1a	0.25508958
131	0xbe3a40ff	-0.18188857
132	0xbae02e9c	-0.0017103734
133	0x3d7294e1	0.059224013
134	0xbc93f721	-0.018062176
135	0x3ed99ea7	0.42503855
136	0xbd887a90	-0.06664002
137	0xbd54680a	-0.051857032
138	0x3ede33a6	0.4339878
139	0x3e4fcfe0	0.20294142
140	0x3efd0737	0.49419567
141	0x3e225b85	0.15855224
142	0x3c909d2e	0.017653074
143	0x3ebf4d41	0.37363628
144	0x3a037aa5	0.0005015529
145	0x3e834410	0.25637865
146	0x3eab1a94	0.33418715
147	0xbe68e3ff	-0.22743224
148	0xbdbd0225	-0.09228925
149	0x3ea10bcd	0.31454316
150	0x3f00d242	0.5032083
151	0x3ea0c775	0.31402174
152	0x3e805c76	0.25070542
153	0x3edf81ed	0.43653813
154	0x3ec211b5	0.37904134
155	0x3e3c57e3	0.18392901
156	0xbe630dac	-0.22173184
157	0x3f00b6ae	0.5027875
158	0x3f794785	0.97374755
159	0x3e4f8d99	0.20268859
160	0x3b67bb0d	0.0035359294
161	0xbe10b5e2	-0.14131883
162	0xbdbffd62	-0.09374501
163	0xbebd705a	-0.3699978
164	0xbc9be97b	-0.01903223
165	0x3efc91cb	0.4932998
166	0xbea94044	-0.33056843
167	0x3e5ecfcb	0.21758954
168	0x3ecc340a	0.39883453
169	0xbd84c4de	-0.06482862
170	0xbe9fb1d8	-0.31190372
171	0xbe9e6961	-0.30939773
172	0xbeaecbdb	-0.34139904
173	0xbe9c640c	-0.3054508
174	0xbdd498f0	-0.10380733
175	0xbea28717	-0.3174369
176	0x3e67dc6a	0.22642675
177	0x3e00642a	0.1253821
178	0xbd249982	-0.04018546
179	0xbe58c02b	-0.21167056
180	0x3eb0d95f	0.3454084
181	0x3ec3448a	0.3813823
182	0xbdd01351	-0.10159934
183	0xbea26308	-0.3171618
184	0x3e778615	0.24172242
185	0x3f1ddb46	0.6166271
186	0x3e668a2c	0.22513646
187	0xbebe12c1	-0.37123683
188	0x3e54e723	0.20791297
189	0x3d7881ff	0.06067085
190	0xbe1526cb	-0.1456558
191	0xbe0df23a	-0.13861933
192	0xbeb6535e	-0.3561048
193	0x3f15291a	0.5826584
194	0xbdbaa714	-0.09113899
195	0x3e2bcdd5	0.16777737
196	0xbe71fcd7	-0.23631607
197	0x3e0aed7f	0.1356716
198	0xbd2d3f92	-0.042296953
199	0x3ec64e74	0.3873173
200	0x3e2cf335	0.16889651
201	0x3e8dcc9e	0.27695173
202	0x3d361700	0.04445553
203	0xbe81b548	-0.2533362
204	0x3ebed64f	0.3727288
205	0x3eae89b0	0.34089422
206	0x3d7c1295	0.06154116
207	0xbda2f9ce	-0.07957803
208	0xbd4e2b1a	-0.050334074
209	0x3c97804a	0.01849379
210	0xbeabc223	-0.33546552
211	0xbe11f83d	-0.14254852
212	0x3edb3012	0.42810112
213	0xbd897774	-0.06712237
214	0xbe834d57	-0.25644943
215	0x3c4e7896	0.012601992
216	0xbe8c648a	-0.27420455
217	0x3ec93075	0.39294782
218	0xbd618af1	-0.055064145
219	0xbe67e660	-0.22646475
220	0xbe2b22d1	-0.167125
221	0xbd229021	-0.039688233
222	0xbdd21a4f	-0.10258924
223	0xbe74fabd	-0.23923774
224	0xbe36ed66	-0.17863998
225	0xbeacb25f	-0.33729836
226	0x3ea5a34b	0.32351145
227	0xbd824ca1	-0.06362272
228	0xbd2a5e59	-0.041593883
229	0x3e417755	0.18893178
230	0xbd87f196	-0.06637876
231	0x3e43d4f6	0.19124207
232	0x3db86896	0.09004323
233	0x3daad11b	0.08340665
234	0xbe3adbd8	-0.18247926
235	0x3eb1cf9e	0.34728712
236	0x3e0ac7f9	0.13552846
237	0x3ec96f7d	0.3934287
238	0x3dcbcf8d	0.099516965
239	0x3df6975f	0.120405905
240	0x3e1bea48	0.1522609
241	0x3eae5052	0.34045655
242	0x3f069255	0.52567035
243	0xbebe97eb	-0.3722528
244	0xbe1fde1f	-0.15612076
245	0xbe9690aa	-0.29407245
246	0xbe6845a9	-0.22682823
247	0x3ea8ecf7	0.3299329
248	0x3e19bb97	0.15012966
249	0x3e4cd731	0.20003964
250	0x3e0381c9	0.12842478
251	0xbda97f52	-0.082762375
252	0xbe203f62	-0.15649179
253	0xbeb31550	-0.34977198
254	0x3d5a8ed4	0.053358868
255	0x3da086a9	0.078381844

fc3.bias f4 [2]
0	0x3e8e1bdc	0.2775563
1	0xbd4e7934	-0.050408557
