tests/unit/checkpoint.pth (torch_old, 20981 bytes, 6 tensors)

fc1.weight f4 [64, 8]
0	0x3db8bbd3	0.090201996
1	0xbed0369f	-0.40666673
2	0xbdc10f4d	-0.094267465
3	0xbf4d2be9	-0.80145127
4	0xbe7090ee	-0.23492786
5	0xbe5dd4da	-0.21663228
6	0x3dcd0ada	0.100118354
7	0x3eca3a28	0.39497495
8	0x3c1a3994	0.009413142
9	0xbdd27a04	-0.10277179
10	0xbf1fa138	-0.62355375
11	0xbf47f7c1	-0.7811242
12	0xbf057941	-0.52138144
13	0xbf1de244	-0.6167338
14	0xbf4279d0	-0.7596712
15	0x3dda4b83	0.10658934
16	0x3e822491	0.25418523
17	0x3db07972	0.08616914
18	0xbed9200e	-0.42407268
19	0xbf625fb1	-0.88427263
20	0x400dfa9b	2.2184207
21	0xbda8af2c	-0.082365364
22	0xbd3b0d43	-0.045666944
23	0x3e6a2d6f	0.22868894
24	0x3e06ba80	0.13157082
25	0xbfa3c5e6	-1.2794769
26	0x3fc185ad	1.511892
27	0xbdaae9e8	-0.08345395
28	0xbf925fd9	-1.14355
29	0xbe471956	-0.19443259
30	0x3da8e798	0.08247298
31	0x3e96bbfb	0.29440293
32	0xbda333dd	-0.079688765
33	0xbef2d438	-0.47427535
34	0x3e6b6967	0.22989427
35	0xbf5dccd1	-0.8664065
36	0xbee38f96	-0.44445485
37	0x3da1948f	0.078896634
38	0x3ea0ee7a	0.31431943
39	0x3eca0918	0.39460063
40	0xbd3537b2	-0.04424257
41	0xbb84dcab	-0.004054626
42	0x3d23d527	0.0399982
43	0xbe85f96e	-0.26166862
44	0xbf446ba2	-0.76726735
45	0xbf2afbd6	-0.6679052
46	0x3e5a5d02	0.21324542
47	0x3e9a7f56	0.30175275
48	0xbec8210b	-0.3908771
49	0x3f108a5b	0.56461114
50	0xbdf5c707	-0.12000852
51	0x3f9f862d	1.2462822
52	0xbf89f68b	-1.0778364
53	0x3e7a3635	0.24434741
54	0x3da8220a	0.082096174
55	0xbd196f90	-0.03745991
56	0x3eba588a	0.36395675
57	0xbf87a322	-1.0596659
58	0x3da9cee4	0.082914144
59	0xbe4f387e	-0.20236394
60	0x3f464e10	0.77462864
61	0xbdab3191	-0.083590634
62	0xbeeded6a	-0.46470195
63	0x3ea622e8	0.32448506
64	0x3dbc3040	0.091888905
65	0xbeb8d104	-0.36096966
66	0xbef45c2d	-0.47726575
67	0xbf7db9f3	-0.9911186
68	0xbd3b1d0c	-0.045681998
69	0x3eff868f	0.49907348
70	0xbeb538b1	-0.35394815
71	0xbeb1b2ce	-0.3470673
72	0x3f1fa67d	0.62363416
73	0x3e841d16	0.2580344
74	0x3f0f2c40	0.55926895
75	0x3f33491f	0.7003345
76	0xbfb74b09	-1.4319774
77	0xbc7e5332	-0.015522765
78	0xbe8b4ed0	-0.27208567
79	0xbf07af3b	-0.53001755
80	0xbe27f17c	-0.16400713
81	0x3f1190f1	0.5686179
82	0x3f1b6aa7	0.60709614
83	0xc007575d	-2.1147072
84	0x400838a7	2.1284578
85	0x3e820f72	0.2540241
86	0xbf11214a	-0.5669142
87	0x3e27d897	0.16391216
88	0xbd924db8	-0.0714373
89	0xbee93f07	-0.455559
90	0xbf54227c	-0.8286512
91	0xbf11f20a	-0.5700995
92	0x3f10031a	0.5625473
93	0x3e985dfd	0.29759207
94	0x3e07d4f3	0.13264827
95	0xbcbddae8	-0.023175672
96	0x3e654fa6	0.22393665
97	0x3ea82e98	0.32848048
98	0xbe2444d9	-0.16041888
99	0xbe8bad58	-0.27280688
100	0x3e8c081d	0.2734994
101	0x3f82042b	1.0157522
102	0x3eb3d5e5	0.35124126
103	0x3c73ab42	0.014872374
104	0xbf496deb	-0.78683347
105	0xbf514e1a	-0.817598
106	0xbf067e83	-0.5253679
107	0xbf6b376b	-0.91881436
108	0x3e7a0909	0.24417509
109	0x3e3f56be	0.18685433
110	0x3e2104ab	0.15724437
111	0x3e034bf5	0.12821944
112	0x3c9fe51c	0.019518428
113	0xbef91d8e	-0.4865536
114	0x3fb9c4be	1.4513166
115	0xbff27aa5	-1.8943678
116	0x3f0d59f4	0.5521538
117	0xbe807463	-0.25088796
118	0x3eb1f7fe	0.34759516
119	0x3e1224a9	0.14271797
120	0x3ea3e881	0.32013324
121	0x3f92aa1f	1.1458167
122	0xbeff53e7	-0.498687
123	0xbe9a5e96	-0.30150288
124	0x3d7191f6	0.05897709
125	0x3f31427f	0.6924209
126	0x3e2393c4	0.15974337
127	0xbea39561	-0.31949905
128	0xbe26add4	-0.16277248
129	0xbf16cf36	-0.5890993
130	0xbe76b182	-0.24091151
131	0xbf1a296c	-0.60219455
132	0xbf4b5ca2	-0.7943822
133	0xbe0f8979	-0.14017285
134	0x3ea07eab	0.3134664
135	0x3da87d4d	0.08227024
136	0xbdfb2b62	-0.12264134
137	0xbe90172a	-0.28142673
138	0xbd5faa1e	-0.054605596
139	0x3fa92df1	1.3217145
140	0x3ec8d0f1	0.3922191
141	0x3f767449	0.9627119
142	0x3f15b12a	0.58473456
143	0xbe901732	-0.28142697
144	0xbf141e00	-0.57858276
145	0x3ea82754	0.32842505
146	0x3dc72b4a	0.097250536
147	0x3ed6b70e	0.41936535
148	0xbf381cdf	-0.71919054
149	0x3f39c209	0.725617
150	0xbea0383e	-0.3129291
151	0xbf2ed7c2	-0.6829797
152	0xbe97549c	-0.2955674
153	0x3ec7ed60	0.3904829
154	0x3f2a4f69	0.6652742
155	0xbfe20bf0	-1.7659893
156	0x3f916d60	1.1361504
157	0xbe991aef	-0.2990336
158	0xbd05bf0d	-0.032652903
159	0x3c6a4dc5	0.014300768
160	0x3e131492	0.14363316
161	0xbfc38fd4	-1.5278268
162	0xbe8be769	-0.2732499
163	0xbfa6cdb4	-1.3031526
164	0x3e90dcb0	0.2829337
165	0xbd50ad25	-0.050946373
166	0x3d177dd9	0.036985252
167	0xbd0b9935	-0.034081656
168	0xbd85c236	-0.065311834
169	0xbfd717fb	-1.6804193
170	0xbddaef9e	-0.106902346
171	0xbe9814a9	-0.29703262
172	0x3f55f4a1	0.835764
173	0x3e6d3fa5	0.2316881
174	0xbd408d3f	-0.047009703
175	0x3df96c6d	0.12178884
176	0xbeb94bd5	-0.36190668
177	0xbf48b1d3	-0.7839634
178	0x3fa706de	1.3048971
179	0x3fa4f841	1.2888261
180	0xbed7b85a	-0.42132837
181	0x3e6ced3c	0.23137373
182	0x3e9a2ca4	0.30112183
183	0x3dc7c347	0.09754043
184	0x3f4e86c0	0.8067436
185	0xbf01f5b0	-0.50765514
186	0x3f101bd5	0.5629247
187	0x3e625b8c	0.22105235
188	0xbf0f7534	-0.5603821
189	0x3ec139c6	0.3773939
190	0x3ec988fb	0.3936232
191	0x3e5fdbf3	0.21861248
192	0xbf50c1e0	-0.8154583
193	0xbec6a2a5	-0.38795963
194	0xbf46a749	-0.77599007
195	0xbf6bd650	-0.9212389
196	0x3e6f940e	0.23396322
197	0xbd51f71d	-0.051261056
198	0xbe932743	-0.28740892
199	0xbe852a41	-0.260088
200	0x3e984fb4	0.2974831
201	0x3e9a3698	0.30119777
202	0x3fb2f020	1.397953
203	0x404c24b4	3.1897402
204	0x3dae98ba	0.08525224
205	0x3e8fbd73	0.28074226
206	0xbcf7ecb4	-0.030264236
207	0x3ee1b7e6	0.44085616
208	0x3f3d218a	0.738793
209	0xbf0f39d2	-0.559476
210	0xbad5aa75	-0.001630141
211	0xbf24192c	-0.6410091
212	0xbf0e5ac9	-0.5560728
213	0xbdcd96b0	-0.10038507
214	0x3dabe3dd	0.08393071
215	0xbca16579	-0.019701706
216	0x3e4e83e4	0.201675
217	0xbf9ebb30	-1.2400875
218	0x3e92b2b7	0.28651974
219	0xbf917d94	-1.1366448
220	0x3e2528cc	0.16128844
221	0x3e3b3012	0.18280056
222	0x3d13e504	0.03610708
223	0x3e1d21f2	0.1534498
224	0xbfad9504	-1.3561101
225	0x3f080c2a	0.5314356
226	0xbf248b23	-0.64274806
227	0xbed443f3	-0.4145809
228	0x3e5c35a2	0.21504834
229	0xbd3914a5	-0.045185704
230	0x3df942f8	0.121709764
231	0xbe08dba0	-0.1336503
232	0x3dfaf36b	0.122534595
233	0x3f786abd	0.9703787
234	0x3f336f0d	0.70091325
235	0xbec5e909	-0.38654354
236	0x40063325	2.0968716
237	0xbe2c204b	-0.16809194
238	0x3e673c82	0.22581676
239	0x3e867e7e	0.2626838
240	0x3eac5987	0.33662054
241	0x3d88379c	0.06651232
242	0xbf0c66b3	-0.54844207
243	0x3f4da55c	0.80330443
244	0xbf395b01	-0.72404486
245	0xbf1e6d59	-0.618856
246	0x3ea4a768	0.3215897
247	0x3c1bb829	0.009504356
248	0xbdc92560	-0.09821582
249	0x3da00c1e	0.07814811
250	0xc01c5a77	-2.4430215
251	0xbc75ca96	-0.0150019135
252	0x3e75ef6b	0.24017112
253	0x3e683ba5	0.22679003
254	0xbdc3dfec	-0.09564194
255	0xbf6f724d	-0.93533784

fc1.bias f4 [64]
0	0xbe757f13	-0.23974256
1	0x3dc909e8	0.098163426
2	0x3ef544c9	0.4790404
3	0x3d5a8168	0.053346068
4	0xbd1ffc91	-0.039059225
5	0xbddc40f0	-0.10754573
6	0x3ed339dd	0.41255084
7	0x3c15e6d7	0.009149275
8	0x3e3c7c3e	0.1840677
9	0x3eacdecc	0.3376373
10	0x3ed1dab4	0.4098717
11	0xbeb116c1	-0.34587672
12	0xbef9dd55	-0.48801675
13	0xbe9e867a	-0.30961972
14	0x3ebeff71	0.3730426
15	0x3eef45c2	0.46732908
16	0x3dc39d2b	0.09551462
17	0xbe9c3128	-0.30506253
18	0x3f193871	0.5985175
19	0x3f29a646	0.6626934
20	0xbe2de7ac	-0.16982907
21	0xbf2c3e80	-0.6728287
22	0xbeac28af	-0.3362479
23	0xbddcb33e	-0.10776375
24	0xbc9577b4	-0.018245555
25	0xbea860e8	-0.32886434
26	0xbdda4aa9	-0.106587715
27	0xbe7d683e	-0.24746796
28	0xbca87637	-0.020564182
29	0xbe2620d4	-0.1622346
30	0xbea9a29b	-0.3313187
31	0xbc7878e1	-0.0151655385
32	0x3c8e0780	0.01733756
33	0x3e2dfdb0	0.16991305
34	0xbefc1143	-0.4923192
35	0xbd5714a5	-0.052509923
36	0x3c235cfa	0.009970898
37	0xbd9e9de0	-0.07744956
38	0xbeabbe97	-0.33543846
39	0xbe39e129	-0.18152298
40	0x3e58f397	0.21186672
41	0xbec204fc	-0.37894428
42	0x3deb618b	0.11493214
43	0xbea7a3ca	-0.3274215
44	0xbecc0b1a	-0.3985222
45	0xbdd5332c	-0.10410151
46	0x3f5c98c7	0.8617062
47	0x3df03d60	0.11730456
48	0xbd3b60ff	-0.0457468
49	0xbd84ba15	-0.06480805
50	0x3e14484e	0.14480707
51	0x3f36ac18	0.71356344
52	0xbe1b9237	-0.15192495
53	0xbdab379a	-0.083602145
54	0x3e811276	0.25209397
55	0x3e67db92	0.22642353
56	0x3eb7f253	0.35927066
57	0x3e33c6b6	0.17556271
58	0xbda4eadd	-0.08052609
59	0x3cce46ae	0.025180187
60	0xbe4b9232	-0.19879988
61	0xbd0e0dfe	-0.034681313
62	0x3ea50109	0.32227352
63	0x3e7e4b6f	0.24833463

fc2.weight f4 [64, 64]
0	0xbd422da3	-0.047406804
1	0xbe96e84e	-0.2947411
2	0x3da14cee	0.07876001
3	0x3eb9d6b8	0.3629663
4	0x3e5840c2	0.21118453
5	0xbd7e5519	-0.062092874
6	0x3f08121a	0.5315262
7	0x3eb75806	0.35809344
8	0x3e7bae3c	0.24578184
9	0x3eeddab0	0.46455908
10	0x3e78eda7	0.24309407
11	0x3f1288f0	0.572402
12	0x3f222a8b	0.63346165
13	0x3e64ac8f	0.22331451
14	0xbe7f4958	-0.24930322
15	0xbeaf556a	-0.34244853
16	0xbe4fd673	-0.2029665
17	0x3f3d454d	0.7393387
18	0xbd2ba679	-0.041906808
19	0xbb609da0	-0.003427364
20	0x3f0872e0	0.53300285
21	0x3f88d66a	1.0690434
22	0x3f506553	0.8140461
23	0x3ebac3b2	0.3647743
24	0x3d057318	0.032580465
25	0x3f34fb1c	0.7069566
26	0x3e945127	0.28968164
27	0x3eb597c4	0.3546735
28	0x3e9c6be0	0.30551052
29	0xbef8aa50	-0.48567438
30	0x3e1b267d	0.15151401
31	0xbebe2b4f	-0.37142417
32	0xbf1bb86b	-0.60828274
33	0x3e8b11ac	0.2716192
34	0x3f12a017	0.5727553
35	0xbe8d91a5	-0.2765018
36	0x3ed47a74	0.41499674
37	0x3e8ed46d	0.27896443
38	0x3d359d30	0.04433936
39	0x3eecb533	0.46231994
40	0x3ef31296	0.47475117
41	0x3f0ad357	0.5422873
42	0x3ed67cd9	0.41892126
43	0xbf858df9	-1.0433952
44	0x3e936514	0.28788054
45	0x3e86ede3	0.26353368
46	0xbd026717	-0.031836595
47	0xbdcae345	-0.099066295
48	0x3e630d24	0.22172982
49	0x3ea5bb52	0.32369477
50	0x3e257379	0.1615733
51	0xbdbd0c43	-0.09230854
52	0x3ea2f68d	0.31828728
53	0x3df74842	0.12074329
54	0x3dadc386	0.08484559
55	0xbf55be12	-0.8349315
56	0xbedf658a	-0.43632156
57	0xbdc64985	-0.096819915
58	0xbf2ce72c	-0.6754024
59	0xbef7e0d5	-0.4841372
60	0xbd165b2f	-0.036708053
61	0xbeb8c72a	-0.3608945
62	0xbdb1b077	-0.08676236
63	0x3ebb3218	0.36561656
64	0x3e022069	0.12707676
65	0xbd934f9a	-0.07192917
66	0x3cd758dc	0.026287489
67	0xbb80dd2c	-0.0039326157
68	0x3e406ada	0.1879076
69	0x3eb8bcf0	0.36081648
70	0x3f1fbfc7	0.62402004
71	0x3ea936fc	0.33049762
72	0x3f019055	0.5061086
73	0x3e2961af	0.1654117
74	0x3ed80399	0.42190245
75	0x3f118c68	0.5685487
76	0x3f3d773a	0.7401005
77	0x3edc40d2	0.43018204
78	0xbea36c59	-0.319186
79	0xbe0b56c6	-0.1360732
80	0x3e951571	0.2911792
81	0x3ef2f780	0.47454453
82	0xbe18ff1e	-0.1494107
83	0x3d1c86f3	0.038214635
84	0x3f80c2a7	1.0059403
85	0x3f5980de	0.8496226
86	0x3f4e4388	0.80571795
87	0x3e03bd33	0.12865143
88	0x3ef7ed9f	0.48423478
89	0x3f3ba440	0.732975
90	0x3f259d59	0.6469322
91	0x3f5d3151	0.86403376
92	0x3f0c384f	0.5477342
93	0xbee95112	-0.45569664
94	0x3f051869	0.5199037
95	0xbf1307bb	-0.5743367
96	0xbeb029e3	-0.34406957
97	0x3ede56ad	0.43425503
98	0x3f8b526f	1.0884532
99	0x3d8a4c99	0.06752891
100	0x3ebde0a2	0.37085444
101	0x3f10dd85	0.5658801
102	0x3daf4fca	0.085601404
103	0x3eeab927	0.45844385
104	0x3ecc4699	0.39897612
105	0x3f5278b4	0.8221543
106	0x3e7b1891	0.2452109
107	0xbf906c96	-1.1283138
108	0x3eba4aa8	0.36385083
109	0x3e5711f1	0.21002938
110	0xbe3179b6	-0.17331585
111	0xbd7b23a1	-0.061313275
112	0x3d7f506f	0.062332567
113	0x3f131c69	0.57465225
114	0xbe320d7f	-0.17387961
115	0xbe2a8efe	-0.1665611
116	0x3e6df896	0.2323936
117	0x3f1ba8c8	0.60804415
118	0x3f0be53e	0.5464667
119	0xbf2181b6	-0.6308855
120	0xbed77d4d	-0.42087784
121	0x3e87434c	0.2641853
122	0xbe10a733	-0.14126281
123	0xbdbfafe3	-0.093597196
124	0x3d9ab6fd	0.075544335
125	0x3e2b8898	0.16751325
126	0xbdef08af	-0.11671578
127	0x3e93d33c	0.28872097
128	0x3d980540	0.07422876
129	0xbe56f6ac	-0.20992535
130	0xbd691463	-0.056904208
131	0x3e7e39ac	0.24826688
132	0x3e61c84f	0.22049068
133	0x3ea515fe	0.3224334
134	0xbe8de6a2	-0.2771502
135	0x3e020988	0.12698948
136	0x3da47979	0.080309816
137	0xbf465f92	-0.7748958
138	0x3f22cba1	0.63591963
139	0x3f14ee7d	0.58176404
140	0x3e6dee89	0.23235525
141	0x3f3c31d9	0.7351356
142	0x3e0e2f1b	0.13885157
143	0xbf2e875d	-0.681753
144	0x3ecd7a12	0.40132195
145	0x3e356442	0.17714027
146	0xbf5c4e28	-0.86056757
147	0xbe2f5e3c	-0.17125791
148	0x3f7a5f8b	0.97802037
149	0x3f54cb74	0.83122945
150	0x3f3f5a78	0.7474742
151	0x3da1be83	0.07897665
152	0x3eda37a9	0.4262059
153	0x3e4f8f66	0.20269546
154	0x3f1323d7	0.5747656
155	0x3f663f53	0.89940375
156	0x3ed78417	0.42092964
157	0x3d9cdce1	0.07659317
158	0x3ea11d65	0.3146774
159	0x3ef0b8df	0.47016045
160	0x3d25d2ec	0.040484354
161	0xbe90f549	-0.28312138
162	0x3f922949	1.1418849
163	0xbdc899b2	-0.0979494
164	0x3d436dd3	0.04771216
165	0x3ecb1037	0.39660808
166	0x3dcaf7cc	0.09910545
167	0x3f06bd2b	0.526324
168	0x3d94abb2	0.07259311
169	0x3f87962e	1.0592706
170	0x3e4b439e	0.19850013
171	0xbfb28884	-1.3947911
172	0xbe409cc7	-0.18809806
173	0x3d12511d	0.035721887
174	0xbf5f550e	-0.8723916
175	0xbd329d5f	-0.043607112
176	0x3e65c2b3	0.22437553
177	0x3f013ff5	0.50488216
178	0xbe34660e	-0.17617056
179	0xbe549e74	-0.2076357
180	0x3c9e6f29	0.019340115
181	0x3f18c096	0.5966886
182	0x3ea6e813	0.32598934
183	0xbd0611a9	-0.032731686
184	0x3d7a4346	0.061099313
185	0x3ea48645	0.3213369
186	0x3db32ad6	0.08748405
187	0x3ecdef9d	0.40221873
188	0x3e1e42a4	0.15455109
189	0x3e91925f	0.28431985
190	0x3d956839	0.072952695
191	0x3e4c92ef	0.19977926
192	0x3e280bd2	0.16410759
193	0x3e0ca58b	0.13735025
194	0xbb5e8f6c	-0.0033959998
195	0xbd51717d	-0.05113362
196	0x3eba3eca	0.3637603
197	0x3ea10993	0.31452617
198	0x3f2773d7	0.6541113
199	0x3e02f930	0.1279037
200	0x3ef5de44	0.48021138
201	0xbe09c2bf	-0.13453196
202	0x3ef9b5d0	0.48771524
203	0x3f2a2505	0.6646274
204	0x3f049214	0.517854
205	0x3f26d307	0.6516575
206	0xbe5288e4	-0.20560032
207	0xbe3eee27	-0.18645535
208	0x3e83ae63	0.25718984
209	0x3ef7c4b9	0.48392275
210	0xbe71bc09	-0.23606886
211	0xbdef160e	-0.116741285
212	0x3f83c32b	1.0293936
213	0x3f81012a	1.007848
214	0x3f114f36	0.5676149
215	0x3ea0d009	0.31408718
216	0x3f488ba8	0.783381
217	0x3f1a5a9e	0.6029452
218	0x3f240724	0.64073396
219	0x3f450a26	0.7696861
220	0x3eec69dc	0.46174514
221	0xbf05326f	-0.5203008
222	0x3f47eb85	0.7809375
223	0xbf67feb5	-0.9062303
224	0xbe92a21b	-0.28639302
225	0x3eb77881	0.35834125
226	0x3f87291b	1.0559419
227	0xbe047f3d	-0.12939163
228	0x3ec135f0	0.37736464
229	0x3f1d5e82	0.6147233
230	0x3dfe9006	0.12429814
231	0x3eb62460	0.35574627
232	0x3e71f72f	0.2362945
233	0x3f54a499	0.83063656
234	0x3e4db259	0.20087565
235	0xbf751ba2	-0.9574529
236	0x3eaab008	0.33337426
237	0x3e02cec3	0.12774186
238	0xbe9afe6d	-0.30272236
239	0x3e0d7f2c	0.13818043
240	0xbe66247d	-0.22474857
241	0x3f075deb	0.5287768
242	0xbf2e593d	-0.68104917
243	0xbdcc6e87	-0.09982019
244	0x3ea7b568	0.3275559
245	0x3ee203f1	0.44143632
246	0x3f1fcf30	0.6242552
247	0xbf054f46	-0.52074087
248	0xbed18f37	-0.40929577
249	0x3f038149	0.5136915
250	0xbdf74472	-0.12073602
251	0xbeb409b2	-0.35163647
252	0x3e1e7f4d	0.15478249
253	0x3e7a1ca2	0.24424985
254	0x3e0ed19e	0.1394715
255	0x3e5e8bb2	0.21732977

fc2.bias f4 [64]
0	0xbc272fbd	-0.010204253
1	0xbe4dfe0a	-0.2011644
2	0xbefae88b	-0.4900554
3	0x3ccf7dae	0.025328483
4	0x3d9db8e0	0.07701278
5	0xbe0f16ce	-0.13973543
6	0x3ef0b67a	0.4701422
7	0x3d592477	0.05301329
8	0x3c3e9085	0.011631136
9	0xbdc53c32	-0.09630622
10	0xbe07d346	-0.13264188
11	0xbe0287c2	-0.127471
12	0xbef33032	-0.47497708
13	0xbe4ca2a8	-0.19983923
14	0x3ea052e8	0.31313252
15	0x3f4e5ae0	0.80607414
16	0x3f2c0e57	0.6720938
17	0x3f1d6ec1	0.6149712
18	0xbe252522	-0.16127446
19	0xbe8bf9b7	-0.27338955
20	0x3deaca50	0.11464369
21	0xbd386d0c	-0.04502587
22	0xbdca96c7	-0.0989204
23	0xbf08a4f5	-0.53376704
24	0xbe39c446	-0.18141279
25	0x3ec1e9e3	0.37873754
26	0xbe13d7a6	-0.14437732
27	0x3e6e4c69	0.23271336
28	0xbdf646bd	-0.12025211
29	0xbe122865	-0.14273222
30	0xbea7b75b	-0.32757077
31	0x3d45ee30	0.048322856
32	0xbdc3395b	-0.09532424
33	0xbd13abd1	-0.03605253
34	0xbe23d239	-0.15998162
35	0x3da743da	0.081672385
36	0xbcd575a3	-0.02605707
37	0xbdf1f805	-0.11814884
38	0xbde7c1a5	-0.11316232
39	0x3f047bdb	0.5175149
40	0xbe4e956b	-0.20174186
41	0x3ea34375	0.31887403
42	0xbe559acf	-0.20859836
43	0x3ebd5b3c	0.3698367
44	0x3a68c17d	0.00088789297
45	0x3da132dc	0.07871029
46	0xbdc31b56	-0.09526698
47	0xbc830868	-0.01599522
48	0xbdc33799	-0.09532089
49	0xbe35784f	-0.17721675
50	0xbe84976d	-0.2589678
51	0xbe8575d3	-0.26066455
52	0x3eb6cb18	0.35701823
53	0xbcc390e8	-0.023872808
54	0xbd903c2d	-0.070427276
55	0xbe0dbc3d	-0.13841338
56	0xbd9bfb8a	-0.07616337
57	0xbe03c98a	-0.1286985
58	0xbafd96a7	-0.0019347266
59	0xbdd4c49b	-0.10389062
60	0xbdd36c67	-0.103234105
61	0xbe4e25b0	-0.20131564
62	0x3f44de14	0.76901364
63	0xbdaa2014	-0.083069

fc3.weight f4 [4, 64]
0	0xbf3d93bf	-0.7405357
1	0xbf0488ae	-0.51771057
2	0xbee4a37b	-0.44655976
3	0xbee56aaf	-0.44807956
4	0xbf195ca7	-0.59907
5	0xbeab8def	-0.33506724
6	0x3f78ce59	0.9718986
7	0xbf26c09b	-0.6513764
8	0xbc9fba28	-0.019497946
9	0x3cad18ae	0.021129932
10	0xbef670c1	-0.481329
11	0xbd4ae960	-0.04953897
12	0xbeb9a7fd	-0.36260977
13	0xbe7e2d4f	-0.24821971
14	0xbf6ceb3d	-0.92546445
15	0x3fc733b7	1.5562657
16	0x3f38c148	0.72169924
17	0xbf7d23f4	-0.98882985
18	0xbf07f769	-0.5311189
19	0xbe9a1192	-0.3009153
20	0xbf8fa904	-1.1223454
21	0x3d380f0e	0.044936232
22	0xbe990274	-0.29884684
23	0xbf100b80	-0.5626755
24	0xbec4f975	-0.3847157
25	0x404efd6b	3.2342174
26	0xbebe84ae	-0.37210602
27	0xbf896353	-1.0733436
28	0xbeab3eff	-0.334465
29	0xbf217bf3	-0.63079756
30	0xbe6d2a1a	-0.23160592
31	0xbe112c21	-0.1417699
32	0xbee6479f	-0.44976518
33	0xbe535102	-0.20636371
34	0xbea9135f	-0.3302259
35	0xbf8ca30d	-1.0987259
36	0xbf233742	-0.6375619
37	0xbe610836	-0.21975788
38	0xbf4887c2	-0.7833215
39	0x3fb7375a	1.4313767
40	0xbe8d267a	-0.27568418
41	0xc036a97a	-2.854094
42	0xbe95fa3e	-0.29292482
43	0x3f9b92d4	1.2154183
44	0x3ed76f6b	0.42077193
45	0xba799f91	-0.00095223734
46	0x3d98a0da	0.07452555
47	0xbd0de75d	-0.034644473
48	0xbf0e1774	-0.55504537
49	0xbf023bbd	-0.50872403
50	0xbe74edb6	-0.23918805
51	0xbec23df9	-0.37937906
52	0x401878bb	2.3823688
53	0xbf2e65e6	-0.68124235
54	0x3eae475b	0.34038815
55	0x3cddd6ef	0.027080027
56	0xbf623ed4	-0.8837712
57	0xbea8eb99	-0.32992247
58	0xbfbcc674	-1.4748063
59	0xbee5a815	-0.448548
60	0xbf94514a	-1.1587307
61	0xbeb230d7	-0.34802887
62	0x3e150eb4	0.1455639
63	0xbee4ea15	-0.4470984
64	0xbe4c5eff	-0.19958113
65	0xbec1fe04	-0.3788911
66	0xbe9c2053	-0.3049341
67	0xbeccc8e3	-0.39997014
68	0xbeb09481	-0.344883
69	0xbeac555e	-0.3365888
70	0x3f503582	0.81331646
71	0xbe9dbca8	-0.30807996
72	0xbe52248c	-0.20521754
73	0xbd8a296f	-0.06746184
74	0xbeebef0d	-0.4608082
75	0xbd29418b	-0.041322272
76	0xbe5f6e44	-0.21819407
77	0xbecc3e15	-0.39891115
78	0x3e8952b6	0.26820916
79	0x3fa636b3	1.2985443
80	0x3f0d0fbd	0.5510214
81	0xbf720011	-0.9453135
82	0xbecb7103	-0.3973466
83	0xbeca9716	-0.39568394
84	0xbe2ae397	-0.16688381
85	0x3dc21d59	0.09478254
86	0xbedfb88a	-0.4369548
87	0xbedd5935	-0.43232122
88	0xbec995a3	-0.39371976
89	0x4056c75c	3.355918
90	0xbea31316	-0.318505
91	0xbf73af67	-0.9518952
92	0xbec8e5b6	-0.39237756
93	0xbef65be0	-0.4811697
94	0xbec3fd28	-0.3827908
95	0xbf6c6edd	-0.92356664
96	0xbec09772	-0.37615544
97	0xbf0d96cb	-0.55308217
98	0xbe96fab8	-0.29488158
99	0x3dd7e70b	0.10542115
100	0xbf3858d9	-0.7201057
101	0xbee3dd45	-0.44504753
102	0xbe358599	-0.17726745
103	0x3fd76f82	1.6830904
104	0xbeec2e20	-0.4612894
105	0xc0430a54	-3.0475054
106	0xbeeb7d28	-0.45993924
107	0x3f9735af	1.1813258
108	0x3e02081e	0.12698409
109	0x3d2d8f7c	0.042373165
110	0x3dd0facc	0.10204086
111	0xbcf3860a	-0.029727
112	0xbeb31ba3	-0.34982023
113	0xbf5b1143	-0.85573214
114	0xbe9614ac	-0.29312646
115	0xbe686fe4	-0.22698933
116	0x4022a6a0	2.54142
117	0xbf0a968a	-0.54135954
118	0x3f85bd5b	1.0448412
119	0x3b31c3ed	0.0027124838
120	0xbee9a7ac	-0.45635736
121	0xbe67a013	-0.22619657
122	0xbfb54b6a	-1.416364
123	0xbef5e682	-0.48027426
124	0xbfc35b1a	-1.5262177
125	0xbe77c0cc	-0.2419464
126	0xbe31593d	-0.17319198
127	0xbea71fc7	-0.32641432
128	0xbf64a710	-0.8931742
129	0xbf1b1362	-0.6057645
130	0xbf24a7b6	-0.64318407
131	0xbebf29da	-0.37336618
132	0x3d1fcd48	0.03901413
133	0xbe5a7843	-0.21334939
134	0x3f420487	0.7578816
135	0xbc8a3847	-0.016872538
136	0x3fb23740	1.3923111
137	0x3d71a21b	0.058992486
138	0xbe914616	-0.28373784
139	0x3ce00ad3	0.027348911
140	0xbf26fd7e	-0.6523055
141	0xbeb8a3cd	-0.3606247
142	0xbf907be8	-1.1287813
143	0x3f9af6e2	1.2106593
144	0x3f6c86cc	0.92393184
145	0xbfef6a7f	-1.8704375
146	0xbf1f96a3	-0.6233923
147	0xbee572d5	-0.44814172
148	0x3f0f0495	0.55866367
149	0x3da0d690	0.078534245
150	0xbf3b405b	-0.73145074
151	0xbf699816	-0.9124769
152	0xbefb5872	-0.49090916
153	0x402736ec	2.6127272
154	0xbf274323	-0.6533682
155	0xbf2c0634	-0.67196965
156	0xbec4ff73	-0.38476142
157	0xbeb0d551	-0.34537748
158	0xbf262d93	-0.6491329
159	0x3f08bb57	0.5341086
160	0xbea5f5ce	-0.32414097
161	0xbec76e94	-0.38951552
162	0xbedd5ec5	-0.43236366
163	0xbf9896a2	-1.192097
164	0x3e458353	0.19288377
165	0xbea383af	-0.31936404
166	0xbea001fd	-0.31251517
167	0x3f9e3565	1.2360045
168	0xbee49fde	-0.4465322
169	0xc0084f99	-2.1298583
170	0xbf3848b7	-0.71985954
171	0x3ff3af39	1.9037849
172	0x3fcceef8	1.6010427
173	0xbc9623db	-0.018327644
174	0xbd986ed6	-0.07443015
175	0xbdfda58e	-0.12385093
176	0xbededc4e	-0.43527454
177	0xbf2075aa	-0.6267954
178	0xbeed93ba	-0.4640177
179	0xbf2c74a9	-0.6736551
180	0x3fcf90ac	1.6216025
181	0xbf56dbb7	-0.8392901
182	0x3fd073b9	1.6285316
183	0x3d3f938c	0.04677157
184	0xbeb55d6a	-0.35422832
185	0xbefbb4e8	-0.49161458
186	0x3e872a10	0.2639928
187	0xbececcf3	-0.4039074
188	0x3d256289	0.040377174
189	0xbecc5a5d	-0.39912692
190	0xc006fc0e	-2.1091342
191	0xbf0ec28c	-0.55765605
192	0xbf07b739	-0.5301395
193	0xbec6329b	-0.38710484
194	0xbe80d926	-0.2516567
195	0xbf05d80f	-0.52282804
196	0xbf2733de	-0.6531352
197	0xbe9906c7	-0.29887983
198	0x3ef0a3de	0.4700002
199	0xbf28d354	-0.6594746
200	0x3dce6c00	0.10079193
201	0xbd2d65f2	-0.04233355
202	0xbed3911a	-0.4132164
203	0xbc9306c6	-0.017947566
204	0xbf1c3c49	-0.6102949
205	0xbecff96d	-0.40619984
206	0xbf3c29ed	-0.73501474
207	0x3fda6ede	1.7065084
208	0x3f5b9eab	0.85788983
209	0xbe8b37a6	-0.27190894
210	0xbeb0eb44	-0.34554493
211	0xbeb8e97c	-0.36115634
212	0xbf98b667	-1.1930665
213	0xbd80dc92	-0.062920704
214	0xbeff7f6a	-0.49901897
215	0xbf5bc6a2	-0.85849965
216	0xbee8a25c	-0.4543637
217	0x404607c9	3.0942252
218	0xbf209985	-0.6273425
219	0xc0072888	-2.1118488
220	0xbed1fa28	-0.41011167
221	0xbed3ec78	-0.4139135
222	0xbe131441	-0.14363195
223	0xbf136911	-0.57582194
224	0xbe806454	-0.25076544
225	0xbe6169b4	-0.22012979
226	0xbf1b5f63	-0.60692424
227	0xbf4c963d	-0.79916745
228	0xbf033c48	-0.51263857
229	0xbeb94a11	-0.3618932
230	0xbf07c2f7	-0.5303187
231	0x3fa0bfd5	1.2558542
232	0xbe80f852	-0.25189453
233	0xc02e67b2	-2.725079
234	0xbe4edb1c	-0.20200771
235	0x3f994b93	1.1976188
236	0x3f573bca	0.84075606
237	0xbdc77633	-0.097393416
238	0x3d12bcc5	0.035824556
239	0xbd1076cc	-0.035269544
240	0xbeedb65a	-0.46428186
241	0xbe8b43aa	-0.2720006
242	0xbf01229f	-0.5044345
243	0xbedee0b1	-0.435308
244	0x402e6ec1	2.72551
245	0xbe91f00a	-0.28503448
246	0xbc68a949	-0.014200517
247	0x3cab472f	0.020907966
248	0xbea87c84	-0.32907498
249	0xbef97f77	-0.4873006
250	0xbf93b455	-1.1539408
251	0xbef89b67	-0.48556063
252	0xbf7402cf	-0.95316786
253	0xbf01f060	-0.5075741
254	0x3d181ae9	0.03713504
255	0xbef3e5a8	-0.4763615

fc3.bias f4 [4]
0	0x3ebd51ad	0.36976376
1	0x3e88afdf	0.2669668
2	0x3ea93834	0.33050692
3	0xbe3f9af4	-0.18711454
